dataBase/saveNet/9_SAC_Q_net.pkl (torch, 543055 bytes, 7 tensors)

Linear1.weight f4 [256, 12]
1.5221921 -6.74136 -5.8940077 -6.318098 7.582894 -24.739758 0.9341274 10.38518
-16.37766 0.25422347 -0.37735233 -0.4557728 -0.985257 0.2680516 -0.8604084 0.303667
2.6856022e-05 -0.3652222 -0.58498883 1.0497155 -0.89800894 0.2669301 -0.03927356 -0.31537634
-4.116912 -9.695721 1.4431931 -6.2976656 10.157175 -3.0697978 0.7873674 -2.53701
10.816013 -0.008395359 -0.4550872 0.23044497 -0.28974324 -0.44138452 -0.045510884 -0.30646053
-0.8214292 0.28699648 -0.36813262 0.5474553 -0.709822 0.24367364 -0.034440007 -0.07554561
-0.2484138 -0.045609947 -0.22973879 -0.28801718 -0.023168674 1.5440968 -0.5614184 0.08651463
-0.034668155 -0.122342326 -0.31987154 -0.058009345 -4.158789 8.493948 -3.2583656 -5.2668777
-10.962976 -8.597849 -0.19697256 -0.39087647 -7.716349 -0.030107446 0.24653307 -0.3867059
-0.54473686 -0.47477448 -0.34609008 -0.6186698 -0.057113573 0.67445284 -0.6178437 0.8674854
-0.77926934 -0.19387686 -0.14249821 -0.041065708 -3.515979 5.310343 -1.440631 -3.1578703
-1.5182467 -47.442474 -2.0697677 -11.176794 -1.3451295 -0.15723771 0.28828815 -0.30551434
-0.6898549 -0.96485746 -0.99161744 -9.425064 -17.686485 9.4702425 -0.03177433 11.306856
3.0328555 0.015958449 -0.033737283 0.31840792 -4.2698517 6.702375 -14.576353 -1.3457854
2.3271406 6.1179595 -3.8614135 13.48336 4.553623 2.4255002 0.73023325 -1.0581914
-0.37663493 0.20804976 -0.6597302 -0.80587 -0.17813036 0.39886427 -0.36457124 0.048873577
-0.5717694 -0.015461061 0.3499701 0.039041508 1.6361878 -3.0534935 -1.0546415 -0.097784616
-4.2975173 -17.689945 0.7753108 -1.7593889 -5.5058928 -1.9992329 0.04395217 2.6921558
-0.62158483 -0.09887002 -0.3329995 -0.8506175 0.23174535 0.3022473 -0.7139926 0.20342693
-0.5784595 -0.02265918 -0.122599415 0.038760606 -2.9215627 -0.2500978 1.3497359 4.297707
-5.756299 -0.67516726 -13.106662 10.532315 10.02109 -0.19939308 -0.022685288 0.34867445
3.3542736 -12.584956 -16.366678 -1.0283511 1.1282904 5.9954314 -4.1133394 4.8411183
-2.3514667 -0.4103011 3.0051415 0.5955707 1.2495832 5.1494474 0.020196319 -0.02046225
-2.554501 94.77548 -2.359655 -1.4806433 -11.223635 -0.09956401 -0.03498606 -0.08782614
-0.7407055 -0.2867954 -0.6158404 -0.5464607 -0.6050906 -0.03251077 -1.6022004 -0.5897915
-0.40083534 -0.10447152 0.38899395 0.104097255 -0.3420688 0.22756639 -0.382469 -0.04283008
-0.25431108 -0.10441113 -0.32153797 0.15067199 -0.43393287 -0.22193444 -0.29903567 -0.16894083
2.6005695 -0.36565772 -3.4911683 -5.2542014 -4.9552083 10.118815 -4.5406165 -3.7164207
4.1781926 2.3840413 1.9132023 3.455835 -5.753232 2.0762868 -5.6924715 4.9319863
-4.264406 -7.055357 0.8828029 0.21010572 -0.6050205 -0.9895626 -2.5867336 0.12643272
-0.62824845 0.122070014 -0.098273546 -0.1280555 -0.05795959 -0.18632728 -0.532555 0.23074374
-0.2591429 -0.016332546 -0.1302175 -0.22924313 3.7752914 -6.6008196 4.7137175 -1.3118583
00000000: 31d7 c23f 39b9 d7c0 b69b bcc0 dc2d cac0
00000010: 11a7 f240 06eb c5c1 f922 6f3f b329 2641
00000020: 7305 83c1 9429 823e 5334 c1be 0d5b e9be
00000030: ce39 7cbf 0f3e 893e ba43 5cbf 3e7a 9b3e
00000040: de48 e137 67fe babe d4c1 15bf 145d 863f
00000050: eae3 65bf 10ab 883e 50dd 20bd 0279 a1be
00000060: bebd 83c0 ac21 1bc1 8dba b83f 7a86 c9c0
00000070: ca83 2241 9177 44c0 e990 493f 5f5e 22c0
00000080: 640e 2d41 b08c 09bc 3101 e9be c4f9 6b3e
00000090: 3a59 94be 27fd e1be 9f69 3abd 65e8 9cbe
000000a0: 2f49 52bf 34f1 923e e17b bcbe 0826 0c3f
000000b0: e5b6 35bf 9585 793e f710 0dbd a8b7 9abd
000000c0: 3060 7ebe 7fd1 3abd a540 6bbe fd76 93be
000000d0: 3bcc bdbc f7a4 c53f 1eb9 0fbf 952e b13d
000000e0: 3200 0ebd 9d8e fabd 34c6 a3be 359b 6dbd
000000f0: cd14 85c0 36e7 0741 1089 50c0 438a a8c0
00000100: 5a68 2fc1 ca90 09c1 2db3 49be f620 c8be
00000110: 55ec f6c0 e4a3 f6bc 2a73 7c3e 51fe c5be
00000120: e073 0bbf a415 f3be b832 b1be 2561 1ebf
00000130: ecef 69bd f1a8 2c3f 012b 1ebf 8613 5e3f
00000140: 327e 47bf a887 46be 0deb 11be 8434 28bd
00000150: cd05 61c0 54ee a940 9966 b8bf 8c1a 4ac0
00000160: e855 c2bf 18c5 3dc2 1377 04c0 26d4 32c1
00000170: 342d acbf ec02 21be 819a 933e 606c 9cbe
00000180: 559a 30bf e600 77bf a4da 7dbf 10cd 16c1
00000190: ec7d 8dc1 1d86 1741 cd25 02bd e2e8 3441
000001a0: 4e1a 4240 4bbb 823c 1b30 0abd 5d06 a33e
000001b0: a0a2 88c0 db79 d640 be38 69c1 b242 acbf
000001c0: dfef 1440 53c6 c340 6621 77c0 d8bb 5741
000001d0: 48b7 9140 653b 1b40 91f0 3a3f d172 87bf
000001e0: 4bd6 c0be ff0a 553e 14e4 28bf 7f4d 4ebf
000001f0: ce67 36be f037 cc3e 15a9 babe a92f 483d
00000200: 7b5f 12bf 6450 7dbc 482f b33e fde9 1f3d
00000210: 9a6e d13f 706c 43c0 7efe 86bf 4d43 c8bd
00000220: 4385 89c0 0285 8dc1 c57a 463f a833 e1bf
00000230: 4630 b0c0 dde6 ffbf 3107 343d 484c 2c40
00000240: 2f20 1fbf 5d7c cabd e97e aabe 12c2 59bf
00000250: a74e 6d3e 28c0 9a3e 38c8 36bf 264f 503e
00000260: ec15 14bf bf9f b9bc 6715 fbbd 71c3 1e3d
00000270: e2fa 3ac0 d20c 80be 25c4 ac3f d186 8940
00000280: 9a33 b8c0 c3d7 2cbf e3b4 51c1 5d84 2841
00000290: 6256 2041 b32d 4cbe 7fd6 b9bc 7585 b23e
000002a0: 6bac 5640 fb5b 49c1 f5ee 82c1 02a1 83bf
000002b0: d26b 903f 93da bf40 7aa0 83c0 71ea 9a40
000002c0: 6e7e 16c0 fc12 d2be 3d54 4040 5277 183f
000002d0: 58f2 9f3f 46c8 a440 c072 a53c 73a0 a7bc
000002e0: f27c 23c0 0c8d bd42 9604 17c0 b885 bdbf
000002f0: 0294 33c1 37e8 cbbd 8b4d 0fbd 31de b3bd
00000300: e09e 3dbf d9d6 92be b7a7 1dbf d9e4 0bbf
00000310: 38e7 1abf 032a 05bd e714 cdbf 93fc 16bf
00000320: 4a3a cdbe 2af5 d5bd 372a c73e f130 d53d
00000330: a423 afbe 2a07 693e fad2 c3be 986e 2fbd
00000340: 1035 82be 81d5 d5bd a0a0 a4be c249 1a3e
00000350: 732c debe c842 63be 341b 99be d3fe 2cbe
00000360: bb6f 2640 7d37 bbbe 4d6f 5fc0 6b22 a8c0
00000370: 1191 9ec0 abe6 2141 bb4c 91c0 d6d9 6dc0
00000380: c1b3 8540 2294 1840 d0e3 f43f 672c 5d40
00000390: 7a1a b8c0 e2e1 0440 ba28 b6c0 d5d2 9d40
000003a0: 0476 88c0 7cc5 e1c0 5fff 613f f425 573e
000003b0: a0e2 1abf f953 7dbf 0b8d 25c0 9477 013e
000003c0: e4d4 20bf d8ff f93d a443 c9bd fb20 03be
000003d0: 0967 6dbd 94cc 3ebe 8655 08bf 1648 6c3e
000003e0: 61ae 84be d5cb 85bc bc57 05be b6be 6abe
000003f0: 609e 7140 ea39 d3c0 c6d6 9640 f9ea a7bf

Linear1.bias f4 [256]
0.20506167 -0.7515123 -0.84460807 -0.6539508 -0.4669939 3.376791 -0.46222305 3.2648888
1.2706877 -2.7397974 -0.5675671 -3.1759756 -0.83944935 0.4842653 -3.2641373 -1.009227
-0.8829619 -0.6522306 -2.3755772 -1.2018125 -0.545103 -4.479893 -0.46237388 -1.0389228
-0.9836637 -0.78246367 -0.8476527 -4.3403006 -1.7760384 -3.0569925 -0.5606131 -0.54099125
-1.9040167 -0.97989243 -0.2975657 -2.2565634 -0.532675 0.5647321 1.306639 -0.45291767
-6.9692707 -3.8259082 -0.88397694 -0.79352176 -5.6153274 -0.33295262 -0.8913496 -1.5671833
-6.8255796 -0.9396605 2.3565416 -0.30269927 1.6134906 -7.1245046 -1.2495809 4.300996
-1.9511876 -0.62616557 -2.7381866 -0.4866929 -0.08559885 -0.83412546 -1.0289948 -0.5110355
-0.6685794 -0.6378322 -1.4276702 -1.3957596 -1.0944339 -4.337866 -3.9760447 -1.3952247
-1.6612954 -0.71262324 5.5559454 0.106145285 -0.87304354 -6.0031376 -4.5422697 0.28574905
-0.706467 -3.576438 1.6085835 -1.0572795 -0.35951507 -3.0155067 -2.4558887 -4.605424
-1.1620791 -1.031893 1.1425581 -6.2401667 -0.70307165 -1.3045596 -1.1649753 -0.80139565
-0.6962034 1.2143302 -2.0944605 -0.9259372 -3.6730227 -0.6873112 0.46740818 -1.5514404
-0.8936924 -1.3120284 -3.938794 0.12658855 -0.7505216 -0.87069046 -0.32353875 -1.4084331
-0.17217417 -4.937858 1.4084672 -2.236401 -0.5076422 -0.8110643 0.0837922 -0.78700864
-4.0398226 -0.9950739 -2.265867 -0.37145668 -0.2924474 -1.9441321 -2.3905647 2.2631857
-0.85017455 -0.7579229 -2.4072952 -0.5630066 -0.94065964 -3.2618544 -2.0246072 -2.35469
-3.2387471 1.8170173 -3.5756502 -0.6201888 0.45487115 -4.881879 -0.4714604 -1.8675907
-1.5490791 0.95385295 3.9043736 -0.30545834 -1.2454028 -4.3975 -0.45628557 -0.58111274
-4.74346 -2.9947107 -0.82634157 -0.4956547 -5.1570153 -6.454264 -1.4907494 -4.255989
-0.6799448 -0.8766602 -1.7360051 -0.8790074 -0.4942587 -0.39491984 3.4370952 -1.6259576
-3.726742 -0.73172075 -0.5613565 -0.69914067 -0.6949896 -3.4591272 -2.3676255 -0.005511992
1.5167154 -5.072862 -0.94354403 -2.001503 -3.0254278 -2.1757753 -0.74015623 -0.9237996
0.86642706 -4.361926 1.9341649 -0.18999141 -0.22200643 -3.4491909 -2.5766861 0.18041487
0.98294294 -7.000496 -0.58480954 -3.8061922 0.31473 -1.6311116 -1.0092428 -1.5344065
-0.6795161 -3.1843448 -2.4165716 -0.8162963 -0.48398867 -0.80755216 -1.9050574 -0.76018816
-0.742934 -1.6698921 -0.38928232 -1.6927743 0.7857543 -0.75481224 -0.7716244 -0.761579
-0.74100816 2.2044353 -1.5284375 -0.9613846 -1.6610776 -0.46944454 -0.34656078 -4.7608933
-3.176658 -0.9464632 -0.85267466 -2.5735693 -1.1332084 0.42402095 -0.39971724 -0.8282885
-0.49026507 -1.5718564 -0.6338574 -0.5614969 -5.417099 -3.3522952 -0.0141107915 -0.08381797
0.2617471 -0.9588122 -2.429238 -7.016346 -0.6614858 -3.6643658 -4.5728316 -0.3503624
-0.4802855 -0.6648541 -1.4207255 -3.7608092 -2.649548 -1.3705994 -1.2793343 -0.5454195
00000000: b0fb 513e 1c63 40bf 3c38 58bf 5269 27bf
00000010: d319 efbe 581d 5840 80a8 ecbe f0f3 5040
00000020: e5a5 a23f d758 2fc0 144c 11bf 2f43 4bc0
00000030: 27e6 56bf 9ff1 f73e a0e7 50c0 5a2e 81bf
00000040: cb09 62bf 96f8 26bf 7509 18c0 fed4 99bf
00000050: df8b 0bbf 495b 8fc0 45bc ecbe 6cfb 84bf
00000060: 62d1 7bbf 8a4f 48bf c4ff 58bf bee3 8ac0
00000070: 3a55 e3bf c4a5 43c0 5784 0fbf 677e 0abf
00000080: d2b6 f3bf 3bda 7abf 885a 98be 896b 10c0
00000090: 645d 08bf 4892 103f f23f a73f d3e4 e7be
000000a0: 4404 dfc0 aedb 74c0 504c 62bf 3e24 4bbf
000000b0: c3b0 b3c0 c478 aabe 7d2f 64bf 7699 c8bf
000000c0: 266b dac0 978d 70bf 94d1 1640 66fb 9abe
000000d0: dc86 ce3f f1fb e3c0 44f2 9fbf c2a1 8940
000000e0: 84c0 f9bf 634c 20bf 733e 2fc0 d02f f9be
000000f0: 734e afbd 3f89 55bf 1ab6 83bf 39d3 02bf
00000100: 0528 2bbf f948 23bf e6bd b6bf 40a8 b2bf
00000110: 6916 8cbf cccf 8ac0 8477 7ec0 b996 b2bf
00000120: 54a5 d4bf 7a6e 36bf 4eca b140 b362 d93d
00000130: c87f 5fbf b419 c0c0 465a 91c0 b34d 923e
00000140: 05db 34bf 5ce4 64c0 10e6 cd3f ef54 87bf
00000150: 5c12 b8be 10fe 40c0 482d 1dc0 a25f 93c0
00000160: 02bf 94bf 1215 84bf 583f 923f 72af c7c0
00000170: 81fc 33bf cffb a6bf e91d 95bf 4428 4dbf
00000180: 633a 32bf 2c6f 9b3f a40b 06c0 380a 6dbf
00000190: ce12 6bc0 a0f3 2fbf 2050 ef3e 9995 c6bf
000001a0: 06c9 64bf 8cf0 a7bf 3315 7cc0 6ea0 013e
000001b0: 2f22 40bf 92e5 5ebf dfa6 a5be 8947 b4bf
000001c0: 6d4e 30be ef02 9ec0 a748 b43f 3221 0fc0
000001d0: d7f4 01bf e9a1 4fbf 3f9b ab3d 6679 49bf
000001e0: 3a46 81c0 2abd 7ebf f703 11c0 922f bebe
000001f0: aabb 95be 52d9 f8bf 03ff 18c0 09d8 1040
00000200: 0aa5 59bf 3c07 42bf 2011 1ac0 3321 10bf
00000210: 12cf 70bf 39c2 50c0 2a93 01c0 3eb3 16c0
00000220: a247 4fc0 0694 e83f 74d7 64c0 b1c4 1ebf
00000230: dfe4 e83e 5a38 9cc0 4263 f1be 360d efbf
00000240: 3948 c6bf b52f 743f 42e1 7940 0965 9cbe
00000250: 5c69 9fbf 52b8 8cc0 439e e9be cec3 14bf
00000260: 6dca 97c0 57a9 3fc0 1f8b 53bf 74c6 fdbe
00000270: 4506 a5c0 5589 cec0 e0d0 bebf 1031 88c0
00000280: dd10 2ebf ce6c 60bf 6a35 debf a106 61bf
00000290: 7a0f fdbe ef32 cabe 5ef9 5b40 611f d0bf
000002a0: f182 6ec0 0d52 3bbf 0fb5 0fbf e2fa 32bf
000002b0: d7ea 31bf 5762 5dc0 2d87 17c0 f19d b4bb
000002c0: bb23 c23f e354 a2c0 1a8c 71bf a018 00c0
000002d0: 9ca0 41c0 e73f 0bc0 e17a 3dbf 217e 6cbf
000002e0: 2ace 5d3f e694 8bc0 b792 f73f 1c8d 42be
000002f0: a755 63be 8bbf 5cc0 6de8 24c0 adbe 383e
00000300: 26a2 7b3f 1004 e0c0 14b6 15bf a798 73c0
00000310: 4a24 a13e 44c8 d0bf de2e 81bf 6f67 c4bf
00000320: c4f4 2dbf 4ecc 4bc0 1ca9 1ac0 cbf8 50bf
00000330: 5dcd f7be bdbb 4ebf ecd8 f3bf b19b 42bf
00000340: ec30 3ebf 06bf d5bf 0350 c7be d4ac d8bf
00000350: 3227 493f 603b 41bf 2d89 45bf d7f6 42bf
00000360: b6b2 3dbf 7815 0d40 d7a3 c3bf 4d1d 76bf
00000370: 319e d4bf 095b f0be 6a70 b1be 3d59 98c0
00000380: 5d4e 4bc0 6a4b 72bf e348 5abf 5cb5 24c0
00000390: f90c 91bf 4619 d93e bda7 ccbe b70a 54bf
000003a0: 0604 fbbe 9732 c9bf 7b44 22bf 43be 0fbf
000003b0: e058 adc0 018c 56c0 f330 67bc c1a8 abbd
000003c0: b703 863e b774 75bf a378 1bc0 e885 e0c0
000003d0: 2257 29bf f884 6ac0 a354 92c0 b362 b3be
000003e0: fbe7 f5be e133 2abf 55da b5bf 19b1 70c0
000003f0: 3292 29c0 cd6f afbf 3ac1 a3bf 9da0 0bbf

Linear2.weight f4 [256, 256]
0.59004116 -0.008520059 -3.2583423 0.015033601 -0.092866935 7.6872377 0.08999775 -2.1773012
13.088481 2.6617098 -0.16215856 0.74836576 0.27745473 1.1999003 10.01085 -1.235198
-0.0048553273 -0.012349244 0.60710174 -7.539577 0.010962519 -16.550953 -0.47164693 -0.4120713
-0.026144082 0.20313211 -0.66316354 -7.239756 -2.303344 0.5567015 0.014407399 -0.087037966
-7.2345285 -0.36219046 -0.14699303 -14.838631 0.044366185 -4.0137005 -14.512936 -0.08883551
-2.5241835 2.3009925 -0.025339916 0.18601654 4.8390794 -0.050260764 0.29913512 -1.2538286
-3.1416671 0.030844681 -1.6179348 -0.039073896 4.834581 -1.0926521 -1.3264776 -0.5135973
-6.2975025 -4.045904 0.20920137 0.28531936 -0.7750701 -0.03361208 -1.2029203 0.28005058
-0.06842432 -0.13987476 -0.8670105 0.35338438 0.31868282 -3.022586 -3.7780333 -2.1802902
-1.0594963 0.25940576 -1.0665038 5.018077 2.125675 -2.8345401 -2.5641277 3.6975453
0.28758115 -4.558924 -5.920299 -0.1804975 -0.026406437 -2.0613215 -0.10989447 7.9812703
0.27645397 2.2695823 -7.740113 -0.49816635 0.24913415 1.9014205 -11.834878 0.022998042
0.12397508 1.5781693 -13.033875 -0.046464 -0.8704002 -0.0035384358 -6.477553 -0.020484058
0.47140518 0.16882592 -12.568811 -0.8548401 0.34037226 0.026757332 0.007428117 -0.06787103
-0.030616494 -4.095257 0.44748753 -1.6607127 -0.30493897 0.33492205 -0.31419668 -1.6039919
-4.310959 0.013248036 0.36728728 0.34201655 -0.046851322 3.1567616 -1.5984024 0.88693345
0.062752336 -0.0038825748 -2.591015 -1.174262 0.050811715 -0.014115944 1.1483108 -5.1828337
-5.7166953 -8.212197 -1.064978 0.14083615 0.18207642 -0.23784743 -7.2305527 -0.93485844
-2.9249487 3.938105 -3.1399016 -0.04302528 -0.60761154 1.9888766 0.05532565 -0.007762499
2.3356972 3.6262298 0.13539144 6.3957324 -3.1501884 -1.5641545 -2.6675465 -0.5122994
-11.220319 -0.2795096 -4.4478917 3.4092798 -0.30065337 -0.2613905 2.6667466 2.0024066
-0.1992433 0.32079014 0.24433911 -0.10751052 0.4555393 2.6091096 2.5669808 4.065945
3.385868 -3.2580066 -0.78200686 0.9089611 -0.2814206 5.7316117 0.4567844 -0.037914798
-23.32182 -1.0145255 -0.74761844 -0.009128302 0.016280457 0.25564507 0.9967654 -0.60982335
3.271685 -2.3747585 -0.06107708 -0.5339462 12.246547 1.1809309 0.175921 0.74392086
-0.39031285 0.044194207 -2.6974971 0.17742942 0.02721057 -0.010462053 0.90246254 -0.049231965
-0.73555726 0.22852024 0.00041610748 -0.8764248 1.0943629 -0.41244954 -0.8804401 0.5127669
-0.0019855008 2.5178676 0.25663328 -0.11046859 0.8879287 0.020540506 -0.06786069 3.3424234
4.821601 0.01293072 0.5943497 7.572457 0.312356 1.5328376 -0.84464264 -11.269298
-0.18407978 -1.182903 -1.9788575 0.7367623 -0.8430434 -0.45713127 -1.5555222 0.15790065
-3.794353 0.0023511504 -3.1761081 -2.2040343 6.1760244 -4.1989527 -12.254836 -3.3979602
-0.19196676 0.38325116 -0.90540856 4.4927745 2.1884599 -6.856698 0.078982316 0.23737524
00000000: f00c 173f b897 0bbc ae88 50c0 7e4f 763c
00000010: 0531 bebd dafd f540 be50 b83d e758 0bc0
00000020: 6b6a 5141 7459 2a40 e50c 26be e694 3f3f
00000030: 8c0e 8e3e 5596 993f 712c 2041 f81a 9ebf
00000040: 7019 9fbb 7c54 4abc 056b 1b3f 3744 f1c0
00000050: 239c 333c 5a68 84c1 b57b f1be 02fb d2be
00000060: 1d2c d6bc dd01 503e 16c5 29bf 15ac e7c0
00000070: fd69 13c0 fd83 0e3f 030d 6c3c f640 b2bd
00000080: 4281 e7c0 0771 b9be 5785 16be 086b 6dc1
00000090: 51b9 353d 3c70 80c0 fc34 68c1 64ef b5bd
000000a0: 398c 21c0 7643 1340 a895 cfbc 1f7b 3e3e
000000b0: bdd9 9a40 3bde 4dbd 3d28 993e 757d a0bf
000000c0: 1311 49c0 fcad fc3c 7d18 cfbf f30b 20bd
000000d0: e3b4 9a40 06dc 8bbf 05ca a9bf 1d7b 03bf
000000e0: 2485 c9c0 0c78 81c0 e238 563e 6115 923e
000000f0: fe6a 46bf d2ac 09bd 4bf9 99bf ca62 8f3e
00000100: 0d22 8cbd 543b 0fbe 66f4 5dbf ccee b43e
00000110: 652a a33e 0d72 41c0 4ccb 71c0 e089 0bc0
00000120: 939d 87bf d5d0 843e 3283 88bf 1694 a040
00000130: 0f0b 0840 1b69 35c0 ab1a 24c0 95a4 6c40
00000140: d63d 933e b5e2 91c0 1773 bdc0 56d4 38be
00000150: 5052 d8bc b1ec 03c0 5a10 e1bd 9166 ff40
00000160: 608b 8d3e d640 1140 01af f7c0 a90f ffbe
00000170: 061d 7f3e bf61 f33f a95b 3dc1 6466 bc3c
00000180: a6e6 fd3d 7401 ca3f c18a 50c1 0951 3ebd
00000190: 8cd2 5ebf 1ae5 67bb 1d48 cfc0 2fce a7bc
000001a0: 055c f13e b4e0 2c3e da19 49c1 cdd6 5abf
000001b0: 4645 ae3e 3132 db3c 9067 f33b f7ff 8abd
000001c0: 71cf fabc 580c 83c0 161d e53e 3c92 d4bf
000001d0: f620 9cbe e77a ab3e 63de a0be 9b4f cdbf
000001e0: 60f3 89c0 4a0e 593c 140d bc3e cb1c af3e
000001f0: 2ce7 3fbd 6208 4a40 7398 ccbf 120e 633f
00000200: 4c84 803d cc72 7ebb 31d3 25c0 384e 96bf
00000210: f21f 503d 8f46 67bc d9fb 923f c6d9 a5c0
00000220: 2bef b6c0 2965 03c1 3351 88bf 5a37 103e
00000230: 3e72 3a3e 478e 73be b060 e7c0 e252 6fbf
00000240: 5c32 3bc0 ea09 7c40 26f4 48c0 473b 30bd
00000250: 6e8c 1bbf 8293 fe3f 269d 623d 905c febb
00000260: 107c 1540 2614 6840 0ea4 0a3e d7a9 cc40
00000270: b09c 49c0 3736 c8bf 15b9 2ac0 0e26 03bf
00000280: 6d86 33c1 e21b 8fbe 2155 8ec0 a431 5a40
00000290: 3def 99be fad4 85be faab 2a40 6e27 0040
000002a0: 7006 4cbe 9b3e a43e 0834 7a3e 7a2e dcbd
000002b0: 723c e93e a7fb 2640 6a49 2440 391c 8240
000002c0: 10b2 5840 2e83 50c0 9a31 48bf adb1 683f
000002d0: 5c16 90be 5d69 b740 a5df e93e 8c4c 1bbd
000002e0: 1693 bac1 f9db 81bf ec63 3fbf e08e 15bc
000002f0: 985e 853c e9e3 823e 042c 7f3f 621d 1cbf
00000300: 4963 5140 0bfc 17c0 f62b 7abd b3b0 08bf
00000310: dbf1 4341 be28 973f a224 343e 9971 3e3f
00000320: 16d7 c7be fc04 353d cba3 2cc0 0fb0 353e
00000330: b4e8 de3c 0869 2bbc c907 673f 75a7 49bd
00000340: 7b4d 3cbf 3601 6a3e 0029 da39 605d 60bf
00000350: 1514 8c3f 962c d3be 8664 61bf b144 033f
00000360: 2d1f 02bb be24 2140 7065 833e 5b3d e2bd
00000370: 4c4f 633f 9044 a83c 8cfa 8abd 44ea 5540
00000380: 8e4a 9a40 5fdb 533c 4d27 183f 9151 f240
00000390: 20ed 9f3e 0634 c43f 803a 58bf 0b4f 34c1
000003a0: 697f 3cbe 5e69 97bf 344b fdbf 749c 3c3f
000003b0: b1d1 57bf 1c0d eabe 5a1b c7bf b5b0 213e
000003c0: aed6 72c0 c215 1a3b 5b45 4bc0 e60e 0dc0
000003d0: fea1 c540 d25d 86c0 cf13 44c1 2e78 59c0
000003e0: ef92 44be 7f39 c43e dbc8 67bf cfc4 8f40
000003f0: ba0f 0c40 126a dbc0 7bc1 a13d 7f12 733e

Linear2.bias f4 [256]
-3.6481702 -0.61793244 -0.010605525 -0.3187407 -0.3908342 -0.061865285 -2.922513 -4.1954246
-0.0799349 -0.26540962 -0.12181862 -8.410286 -1.2474308 -0.12445837 -0.3769678 -0.6896781
-0.26416907 -0.32194865 -0.24849032 -0.043022137 -0.49842846 -0.11444221 -0.06279012 -0.08225808
-6.916307 -0.333199 -5.9287 4.1050706 -1.9918121 -0.09445748 -0.92135507 -0.109327056
-0.7181613 -0.104561105 4.4071894 -0.30319357 -0.33070403 -0.023644757 -0.19833656 -0.6633167
-0.35683405 -0.104973905 -0.074360736 -0.36631873 -0.001154895 -0.40765706 4.23068 -0.4117065
3.2014472 4.135431 -0.10759362 -0.037626814 -0.2640748 -0.024138605 6.8903537 -0.6712466
-0.5918896 -0.04732203 -0.6467307 -0.24543396 -0.11007322 0.3261905 -0.111788474 -0.2969738
-0.40816626 -0.43509707 -2.2721498 -0.120818086 -0.7754314 -0.05843798 -0.51595324 -1.4428719
-0.052333105 -0.03360488 -1.9749516 0.77086836 -0.442683 -0.43073758 -0.32675833 -0.347864
-1.1073363 -0.10938511 -0.62927514 -0.41004768 -0.35268348 -0.2980967 -1.4160469 -0.040827006
-7.316714 -0.6007659 -7.090142 -0.004459252 -0.9029565 -3.0556238 -0.093475774 -5.8328176
-0.32503432 -0.07141119 -0.046664648 -0.07918587 -0.25546804 -0.35574737 -0.5097071 -9.625229
-0.11460657 -1.4224001 -0.60027623 -0.048866093 -1.1916857 -0.609228 -3.0777223 -0.08980463
0.1931001 -0.056375213 2.619816 -5.079473 1.2865703 -0.025273036 -0.12879924 -0.047940217
-0.041209556 3.0562196 -0.030938921 -0.31659514 -0.8331692 -0.12837231 -0.25141975 -0.3355003
-2.4917765 -9.265441 -0.11741165 -0.07762439 -0.19776718 -0.11282527 -0.03513196 -0.063828126
-0.49918577 -0.13558166 -0.08958899 -0.03088795 -0.023169681 2.028185 0.61122394 -0.12941925
-0.04672253 -0.08264531 -0.3824382 -0.027903525 -0.017884001 -0.09928166 -0.47576773 -5.6357465
-0.09689428 -0.3864399 -0.029871577 4.7418046 -0.06851229 -0.45774043 -0.89262724 -0.08462899
-0.5036447 -0.15717511 -0.119336545 -0.29254073 -1.1933987 -0.08629954 -0.25699228 -5.276709
-0.75287485 -2.521924 -6.9624276 -0.1195593 -0.0818745 -1.0455481 0.20464933 -0.122160286
-0.30651465 -0.04919724 -1.1123896 -0.29928306 -0.40406874 -0.036933653 -0.046143502 -0.36906773
-0.08586226 -0.76075685 -0.037825108 -0.32529265 -0.20122041 -7.818957 -4.4235597 4.1911697
-0.067373015 -0.115092635 -0.36392242 -0.044896107 -0.86888313 -0.44543526 -0.7544519 -0.0741886
-0.93204606 -0.24040952 5.431523 -0.28018057 -0.6253157 -0.09915538 -0.032469727 -2.5279996
-0.27588305 -4.232363 -0.033242326 -6.710001 -0.06392641 -0.008537601 -0.061684307 -0.047216527
1.6579272 -0.7127787 -0.26251203 -5.206319 -0.069899306 -4.977692 -0.10463257 -0.07642637
-0.6139729 -0.47704458 -0.29316166 -1.7361003 3.4655926 -0.371008 -0.06017618 -0.34936205
-0.02962688 -0.40986854 -0.33301196 -0.7495811 1.0921161 -0.0060743038 0.8175322 -3.1059844
-0.0033035085 4.8120723 -0.5470446 -0.3929622 -0.1025121 2.4688308 -0.013457383 -0.5585207
-0.2788247 -0.04118223 -0.07888438 -0.77402955 -0.6969916 -0.082676455 -0.32206103 -6.787218
00000000: 9f7b 69c0 d230 1ebf ccc2 2dbc fb31 a3be
00000010: 6c1b c8be 7466 7dbd 740a 3bc0 eb40 86c0
00000020: e9b4 a3bd c5e3 87be 0a7c f9bd 8890 06c1
00000030: d0ab 9fbf 08e4 febd ec01 c1be be8e 30bf
00000040: 2b41 87be 74d6 a4be 3f74 7ebe fb37 30bd
00000050: 0432 ffbe ad60 eabd 1b98 80bd ed76 a8bd
00000060: 6352 ddc0 0f99 aabe e9b7 bdc0 bd5c 8340
00000070: b3f3 febf ec72 c1bd eddd 6bbf dde6 dfbd
00000080: 6bd9 37bf 2224 d6bd b207 8d40 303c 9bbe
00000090: 0a52 a9be a6b2 c1bc bd18 4bbe 20cf 29bf
000000a0: f4b2 b6be 8ffc d6bd 714a 98bd 218e bbbe
000000b0: d95f 97ba 6db8 d0be bb61 8740 32cb d2be
000000c0: 83e4 4c40 7355 8440 0b5a dcbd 931e 1abd
000000d0: d034 87be 53be c5bc c77d dc40 d1d6 2bbf
000000e0: 1486 17bf bfd4 41bd 2590 25bf 0a53 7bbe
000000f0: 126e e1bd 7102 a73e 5bf1 e4bd f30c 98be
00000100: 2bfb d0be 0bc5 debe e76a 11c0 796f f7bd
00000110: ac82 46bf aa5c 6fbd 8315 04bf 07b0 b8bf
00000120: 3d5b 56bd 45a5 09bd 37cb fcbf a157 453f
00000130: 59a7 e2be a389 dcbe de4c a7be 3b1b b2be
00000140: 32bd 8dbf 4d05 e0bd 2d18 21bf c5f1 d1be
00000150: ee92 b4be 21a0 98be 0641 b5bf 383a 27bd
00000160: 8522 eac0 cbcb 19bf 71e2 e2c0 eb1e 92bb
00000170: 2828 67bf 578f 43c0 3a70 bfbd 71a6 bac0
00000180: e66a a6be 0840 92bd 6e23 3fbd 342c a2bd
00000190: b5cc 82be 8524 b6be 2a7c 02bf f000 1ac1
000001a0: d9b6 eabd 3511 b6bf b4ab 19bf d027 48bd
000001b0: 2889 98bf 5ef6 1bbf 67f9 44c0 7deb b7bd
000001c0: 08bc 453e b2e9 66bd 11ab 2740 0b8b a2c0
000001d0: 56ae a43f 6609 cfbc f3e3 03be f65c 44bd
000001e0: 5acb 28bd 1a99 4340 9f73 fdbc c218 a2be
000001f0: 944a 55bf 0874 03be 17ba 80be b2c6 abbe
00000200: 4479 1fc0 3f3f 14c1 8575 f0bd 89f9 9ebd
00000210: 7b83 4abe ef10 e7bd 88e6 0fbd 52b8 82bd
00000220: 4795 ffbe ebd5 0abe 6f7a b7bd ba08 fdbc
00000230: 58ce bdbc c8cd 0140 2c79 1c3f 7b86 04be
00000240: 2060 3fbd f241 a9bd f1ce c3be ef95 e4bc
00000250: 7881 92bc 2f54 cbbd d497 f3be 0958 b4c0
00000260: 8270 c6bd 73db c5be 3db5 f4bc ddbc 9740
00000270: 2c50 8cbd f45c eabe 3883 64bf f751 adbd
00000280: dcee 00bf 83f2 20be b866 f4bd e6c7 95be
00000290: 4ac1 98bf d0bd b0bd 7e94 83be cdda a8c0
000002a0: 68bc 40bf 3467 21c0 35cc dec0 82db f4bd
000002b0: d1ad a7bd 85d4 85bf 988f 513e 2c2f fabd
000002c0: 7def 9cbe 0c83 49bd c862 8ebf a13b 99be
000002d0: 19e2 cebe be47 17bd f800 3dbd 72f6 bcbe
000002e0: 8dd8 afbd f6c0 42bf 80ee 1abd c28c a6be
000002f0: b90c 4ebe e534 fac0 cd8d 8dc0 101e 8640
00000300: ddfa 89bd b0b5 ebbd 0a54 babe fbe4 37bd
00000310: 206f 5ebf 1710 e4be c223 41bf 31f0 97bd
00000320: 929a 6ebf ea2d 76be 09cf ad40 d473 8fbe
00000330: b114 20bf fa11 cbbd fafe 04bd bfca 21c0
00000340: 8b40 8dbe 856f 87c0 1b29 08bd 54b8 d6c0
00000350: daeb 82bd 4be1 0bbc afa8 7cbd 1e66 41bd
00000360: f536 d43f aa78 36bf fa67 86be 2a9a a6c0
00000370: 5e27 8fbd 4149 9fc0 9a49 d6bd 6e85 9cbd
00000380: 542d 1dbf 303f f4be 4919 96be 8938 debf
00000390: 45cc 5d40 c3f4 bdbe 4c7b 76bd 95df b2be
000003a0: 12b4 f2bc 4ada d1be 8b80 aabe 8ce4 3fbf
000003b0: 76ca 8b3f f40a c7bb ca49 513f 73c8 46c0
000003c0: ad7f 58bb 7ffc 9940 1d0b 0cbf 5732 c9be
000003d0: ddf1 d1bd 5301 1e40 5b7c 5cbc 36fb 0ebf
000003e0: 1cc2 8ebe b3ae 28bd 228e a1bd cd26 46bf
000003f0: 0b6e 32bf 4652 a9bd 2fe5 a4be e430 d9c0

Linear3.weight f4 [256, 256]
-0.072142445 -0.0010594502 -0.022606881 -0.05390022 -0.064193465 -0.040165056 -0.06336735 -0.0149799585
-0.09683714 -0.11102776 -0.034007937 -0.023205241 -0.026301144 -0.08032264 -0.036269818 0.056932494
-0.0030207965 -0.057119317 -0.10262889 -0.06118996 -0.037496872 -0.114280924 -0.0051955064 -0.012218453
-0.08438507 -0.08006568 -0.011395841 -0.09670393 -0.08433203 -0.05211209 -0.093704514 -0.11572707
-0.08586419 -0.049894765 -0.09026048 -0.11222241 -0.10464665 -0.030677123 0.01158759 -0.008408188
0.039843053 -0.10724422 -0.018875789 -0.08719061 -0.025675569 -0.014621514 -0.108998455 -0.062002245
-0.0979877 -0.093330234 -0.04879367 -0.030142637 -0.045156784 -0.10172058 -0.054138746 -0.04010941
-0.017605612 -0.051261283 -0.011735134 -0.030606173 -0.067383595 -0.040715273 -0.09933998 0.0007401869
-0.028734079 -0.11201643 -0.019497968 -0.09951764 -0.05044435 -0.014491685 0.023117244 -0.09793823
-0.08522512 -0.022201467 -0.12253969 -0.018787388 -0.054546908 -0.07197288 -0.01070707 -0.030830134
-0.0030669144 -0.08599734 -0.060129106 -0.061109856 -0.09181384 -0.11064679 -0.07642815 -0.0977671
-0.08479906 -0.00283584 -0.12050203 -0.053931467 -0.012253068 -0.07891642 -0.046616025 -0.062979564
-0.017937481 -0.019890683 -0.11620385 -0.04188309 -0.0882426 0.005167946 -0.018711388 -0.06983723
-0.07722724 -0.040457815 -0.27287355 -0.09528781 -0.05329669 -0.023284629 -0.07901009 -0.0325202
-0.094431594 -0.05019935 -0.097387455 -0.03343578 -0.051616978 -0.085807726 -0.049368907 -0.102691665
-0.038013723 -0.07384955 -0.0469344 -0.1097031 -0.025442041 -0.049440216 -0.06441002 -0.045510355
-0.033460412 -0.035490602 0.04357385 -0.032677423 0.0433342 0.011224404 -0.04370215 -0.08819581
-0.055353094 -0.05847977 -0.008711985 0.046983197 -0.08011014 -0.04179833 0.0005986281 0.026494898
-0.043450486 -0.062460154 -0.03189864 -0.06159128 -0.04499618 -0.1093132 -0.10494402 -0.01084929
0.0073614405 0.02568502 -0.0680428 -0.10739758 -0.055343244 -0.12185267 -0.0021532476 -0.05566935
0.06115231 -0.06365316 -0.037918016 -0.061556958 -0.028272122 -0.056376413 -0.056242056 -0.055520646
-0.05314164 -0.0986999 -0.022876596 -0.07501764 -0.116224855 -0.012441996 2.8796463e-05 -0.05801414
-0.013627684 -0.05929186 -0.03305348 -0.030450134 -0.052388538 -0.046176117 -0.039168637 -0.044652496
-0.059296217 0.003931895 -0.07149668 -0.10029871 -0.04200056 -0.07175674 -0.003928161 -0.043597877
-0.075679205 -0.031621262 -0.024792362 -0.11415946 -0.08283681 0.05050511 -0.068871446 -0.07821625
-0.05871846 -0.106366724 -0.021546885 -0.1129675 -0.06379444 -0.0255794 -0.06609054 -0.1045733
-0.10644867 -0.061886948 -0.07714237 0.0024456207 -0.037501484 -0.042492997 -0.0007378316 -0.12218178
-0.034881398 -0.044141814 -0.12196568 -0.08074689 -0.036331087 -0.118790984 -0.082076125 -0.1075059
-0.0928896 -0.01509809 -0.097679816 -0.03517609 -0.018258601 -0.033274695 -0.015432908 -0.0656694
-0.10014649 -0.11001063 -0.09906332 -0.025815915 -0.07547759 -0.07431907 -0.11227976 -0.07346541
-0.066693656 -0.035484344 -0.08043831 -0.02090778 -0.09856539 -0.008471352 -0.07405521 -0.10445474
-0.064643346 -0.029567432 -0.07023134 0.019389518 -0.032215457 -0.022736073 -0.04644358 -0.11945025
00000000: 6bbf 93bd 40dd 8aba 1132 b9bc 7ac6 5cbd
00000010: dd77 83bd 1d84 24bd bec6 81bd 806e 75bc
00000020: 8d52 c6bd 8662 e3bd e84b 0bbd eb18 bebc
00000030: 7f75 d7bc 3280 a4bd a98f 14bd 0c32 693d
00000040: 8ef8 45bb f2f5 69bd 182f d2bd 53a2 7abd
00000050: 5296 19bd 1e0c eabd 113f aabb e82f 48bc
00000060: 14d2 acbd 7af9 a3bd 9fb5 3abc b60c c6bd
00000070: 45b6 acbd 7d73 55bd 27e8 bfbd 5002 edbd
00000080: 90d9 afbd 745e 4cbd 7dda b8bd ddd4 e5bd
00000090: fc50 d6bd 974e fbbc e0d9 3d3c 7fc2 09bc
000000a0: 7832 233d dca2 dbbd 66a1 9abc fe90 b2bd
000000b0: 9255 d2bc 138f 6fbc 953a dfbd 11f6 7dbd
000000c0: c6ad c8bd ec23 bfbd dfdb 47bd b1ed f6bc
000000d0: 52f6 38bd e152 d0bd 97c0 5dbd c449 24bd
000000e0: a539 90bc 5af7 51bd b844 40bc ccb9 fabc
000000f0: 6900 8abd 0fc5 26bd c272 cbbd 1a09 423a
00000100: bb63 ebbc df68 e5bd 34ba 9fbc e8cf cbbd
00000110: bc9e 4ebd 886e 6dbc 6060 bd3c d793 c8bd
00000120: 828a aebd dadf b5bc 17f6 fabd 02e8 99bc
00000130: 946c 5fbd 8466 93bd b56c 2fbc 7a8f fcbc
00000140: 49fe 48bb 601f b0bd f049 76bd 544e 7abd
00000150: e508 bcbd c99a e2bd 5d86 9cbd 1e3a c8bd
00000160: 21ab adbd 80d9 39bb c5c9 f6bd 3ee7 5cbd
00000170: 18c1 48bc ef9e a1bd 72f0 3ebd 6efb 80bd
00000180: a0f1 92bc c9f1 a2bc 49fc edbd 9a8d 2bbd
00000190: 89b8 b4bd e057 a93b a048 99bc d206 8fbd
000001a0: 5129 9ebd 18b7 25bd 15b6 8bbe 4126 c3bd
000001b0: a14d 5abd 68bf bebc 0bd0 a1bd e733 05bd
000001c0: 5a65 c1bd d59d 4dbd 1373 c7bd f5f3 08bd
000001d0: 536c 53bd f6bb afbd 0d37 4abd 0250 d2bd
000001e0: 47b4 1bbd 6f3e 97bd 493e 40bd 05ac e0bd
000001f0: d46b d0bc d381 4abd 67e9 83bd 1169 3abd
00000200: c90d 09bd 985e 11bd 7e7a 323d c3d8 05bd
00000210: 347f 313d 90e6 373c 0701 33bd 01a0 b4bd
00000220: edb9 62bd 7c88 6fbd b7bc 0ebc 7471 403d
00000230: c910 a4bd ba34 2bbd 40ed 1c3a d40b d93c
00000240: 23f9 31bd 38d6 7fbd 26a8 02bd 2347 7cbd
00000250: ea4d 38bd 99df dfbd e4ec d6bd 38c1 31bc
00000260: 3d38 f13b 6469 d23c 065a 8bbd 43f3 dbbd
00000270: 99af 62bd e58d f9bd 801d 0dbb 8b05 64bd
00000280: d87a 7a3d 975c 82bd ec4f 1bbd 2623 7cbd
00000290: f09a e7bc f4ea 66bd 125e 66bd 9e69 63bd
000002a0: 0cab 59bd 2c23 cabd b367 bbbc d9a2 99bd
000002b0: 4c07 eebd 83d9 4bbc ef8f f137 3ca0 6dbd
000002c0: a646 5fbc 05dc 72bd 1663 07bd 8f72 f9bc
000002d0: 5d95 56bd 2b23 3dbd 4b6f 20bd 89e5 36bd
000002e0: 97e0 72bd 20d7 803b da6c 92bd 6969 cdbd
000002f0: c708 2cbd 33f5 92bd ceb7 80bb b093 32bd
00000300: b3fd 9abd 4c85 01bd 5a19 cbbc 6fcc e9bd
00000310: 58a6 a9bd 72de 4e3d 790c 8dbd d72f a0bd
00000320: c582 70bd ccd6 d9bd 1883 b0bc 815b e7bd
00000330: a9a6 82bd e48b d1bc 7a5a 87bd 872a d6bd
00000340: c301 dabd 2b7d 7dbd d2fc 9dbd b546 203b
00000350: 289b 19bd 230d 2ebd 0a6b 41ba 713a fabd
00000360: ccdf 0ebd 0cce 34bd 24c9 f9bd a05e a5bd
00000370: e8cf 14bd b048 f3bd 8717 a8bd 0e2c dcbd
00000380: e73c bebd fb5d 77bc 5b0c c8bd ce14 10bd
00000390: 1093 95bc 0c4b 08bd 4fda 7cbc ae7d 86bd
000003a0: 9a19 cdbd 414d e1bd b6e1 cabd e67b d3bc
000003b0: ff93 9abd 9934 98bd eef2 e5bd 0875 96bd
000003c0: af96 88bd 0858 11bd d7bc a4bd cb46 abbc
000003d0: a7dc c9bd 6dcb 0abc 42aa 97bd 5eec d5bd
000003e0: bb63 84bd 6637 f2bc 73d5 8fbd c4d6 9e3c
000003f0: 5bf4 03bd 0041 babc a03b 3ebd 55a2 f4bd

Linear3.bias f4 [256]
-0.38247207 -2.9921 -1.1711937 -1.8480254 -1.7362933 -1.6430118 -1.1918235 -0.9443128
-0.34865823 -3.3567848 -0.40604708 -2.6512635 -1.8720138 -0.35112146 -2.7408917 -2.4307215
-3.347944 -2.3581266 -2.7064946 -2.11901 -0.9541395 -0.58623385 -4.937554 -2.1266706
-0.46716765 -2.6179714 -0.31985524 -1.9539409 -1.1714982 -3.835249 -0.36807528 -2.1909268
-1.5750431 -1.8690338 -1.1840243 -1.0254445 -2.4716923 -0.22197083 -0.3948743 -0.90237164
-4.7290654 -1.2636234 -0.4956147 -0.5428638 -1.1356052 -2.75179 -0.37860164 -0.35424632
-0.4962529 -2.2541335 -1.8411196 -0.48147985 -1.2543136 -4.211354 -0.3214668 -1.9767449
-2.4635243 -3.2312412 -4.5585237 14.171769 -2.6071348 -2.3415978 -0.07042789 -2.3676229
-2.114577 -0.6805819 -2.106493 -1.5163413 -1.0489546 -0.36258915 -0.66978836 -1.7761637
-2.5001948 -1.1812065 -1.0141548 -2.5301502 -2.8037539 -1.9432657 -0.677922 -1.388176
-1.7222524 -1.3049887 -1.2699028 -2.0983937 -3.3991506 -0.2958086 -1.9675156 -2.0948496
-1.9794476 -0.07625469 -2.32976 -1.0008717 -0.4552295 -0.34002396 -1.7627791 -2.0959253
-1.1403899 -1.0869031 -2.7229044 -2.4848225 -3.0211117 -0.88590544 -0.39300582 -0.34563226
-0.08991298 -3.8916264 -0.36164784 -1.5850533 -1.3735696 -2.113462 -2.9624863 -0.7203163
-0.34705144 -0.39143223 -2.1279595 -1.0650485 -2.0851328 -0.76973695 -2.117393 -0.7126148
-2.721684 -0.3939025 -2.304538 -0.39564952 -1.5284064 -2.0944884 -2.5718734 -0.35587704
-1.6817912 -3.5631125 -1.7775563 -0.35959446 -0.91709274 -0.8211238 -0.71590495 -1.7474551
-1.914923 -1.4835349 -0.64705527 -1.8135142 -0.6229706 -6.4607286 -2.1091795 -1.0757415
-0.4010203 -1.9176553 -0.9078854 -2.4984033 -1.7358268 -1.7733173 -2.1038976 -1.3109466
-1.9076788 -2.9026217 -3.3777559 -1.3755385 -4.3699884 -1.0154474 -1.7288947 -1.6944643
-2.9756942 -1.0235742 -3.2004642 -1.9511327 -1.9372176 -2.162923 -0.31774253 -2.3273208
-2.6664422 -1.90221 -2.6461804 -0.6511234 -2.0923748 -7.7075796 -11.449272 -1.6496252
-0.7031571 -1.017403 -1.3322711 -1.987918 -0.8792315 -0.69257975 -1.0653863 -0.43359068
-2.5341873 -1.6707568 -2.1527662 -1.09057 -1.8629969 -4.981618 -1.4856157 -2.1850646
-4.300216 -1.9963217 -3.2325108 -1.8653909 -8.920412 -2.0722039 -1.964908 -2.3550591
-1.8019968 -0.32210273 -2.3556314 -2.9781554 -1.782958 -0.35581622 -2.170985 -1.2720956
-6.6317835 -0.6705529 -2.1931813 -2.5900435 -1.766406 -1.0325468 -0.65437114 -4.9912777
-2.5345097 -0.5765012 -0.98471683 -2.2523186 -2.0480204 -1.9122028 -1.6321027 -0.6626695
-0.91837883 -2.7770188 -0.94487536 -5.885786 -1.0309591 -0.7487462 -1.0961579 -0.8351992
-1.998531 -2.9403298 -4.669385 -2.2658322 -3.3517513 -1.7928355 -1.532857 -6.391531
-2.4012616 -0.6498823 -0.7950493 -0.33983693 -0.7120373 -2.2135396 -2.8524146 -0.79125756
-1.1855698 -1.6515242 -2.5581932 -1.1977007 -1.8749418 -1.738016 -2.131778 -0.7621343
00000000: 61d3 c3be 917e 3fc0 ade9 95bf 198c ecbf
00000010: dc3e debf 364e d2bf ac8d 98bf 7cbe 71bf
00000020: 5583 b2be 90d5 56c0 67e5 cfbe 4dae 29c0
00000030: 269e efbf 31c6 b3be c56a 2fc0 f190 1bc0
00000040: b744 56c0 8ceb 16c0 3537 2dc0 dc9d 07c0
00000050: 7c42 74bf 6c13 16bf 7100 9ec0 5f1b 08c0
00000060: 9930 efbe d88c 27c0 11c4 a3be bc1a fabf
00000070: a7f3 95bf b874 75c0 5d74 bcbe 2538 0cc0
00000080: 039b c9bf 803c efbf 1c8e 97bf c441 83bf
00000090: 3530 1ec0 524c 63be f72c cabe d401 67bf
000000a0: 8154 97c0 69be a1bf 36c1 fdbe 1ff9 0abf
000000b0: 835b 91bf 541d 30c0 13d8 c1be c65f b5be
000000c0: dc14 febe b943 10c0 cfa9 ebbf 8784 f6be
000000d0: 598d a0bf 69c3 86c0 4c97 a4be fa05 fdbf
000000e0: 62aa 1dc0 a8cc 4ec0 6ddf 91c0 91bf 6241
000000f0: 4cdb 26c0 bddc 15c0 7f3c 90bd 2287 17c0
00000100: 3b55 07c0 9e3a 2ebf c8d0 06c0 7917 c2bf
00000110: 2544 86bf 49a5 b9be 4077 2bbf 5559 e3bf
00000120: 3103 20c0 c631 97bf d3cf 81bf fbed 21c0
00000130: b470 33c0 eebc f8bf 4c8c 2dbf c0af b1bf
00000140: c472 dcbf df09 a7bf 2d8c a2bf 154c 06c0
00000150: af8b 59c0 3a74 97be 8dd7 fbbf 0412 06c0
00000160: 8a5e fdbf 6b2b 9cbd ca1a 15c0 901c 80bf
00000170: d713 e9be 9f17 aebe bfa2 e1bf a423 06c0
00000180: 4cf8 91bf a41f 8bbf 1144 2ec0 5507 1fc0
00000190: e559 41c0 b3ca 62bf 0f38 c9be b6f6 b0be
000001a0: 4c24 b8bd 6810 79c0 e829 b9be 07e3 cabf
000001b0: 21d1 afbf f642 07c0 6099 3dc0 a666 38bf
000001c0: bab0 b1be ce69 c8be 7d30 08c0 8253 88bf
000001d0: d172 05c0 7b0d 45bf 5e83 07c0 ec6d 36bf
000001e0: 1230 2ec0 97ad c9be 8d7d 13c0 9392 cabe
000001f0: d2a2 c3bf 190c 06c0 9399 24c0 8435 b6be
00000200: ef44 d7bf 090a 64c0 f786 e3bf c41c b8be
00000210: 97c6 6abf 2b35 52bf 8c45 37bf 9cac dfbf
00000220: 321c f5bf 79e4 bdbf 6aa5 25bf 3c21 e8bf
00000230: 007b 1fbf 4abe cec0 ccfc 06c0 e6b1 89bf
00000240: 8852 cdbe bb75 f5bf 2d6b 68bf d7e5 1fc0
00000250: 932f debf 10fc e2bf 42a6 06c0 19cd a7bf
00000260: d22e f4bf 8ec4 39c0 272d 58c0 a511 b0bf
00000270: f2d6 8bc0 2efa 81bf 6c4c ddbf 35e4 d8bf
00000280: c671 3ec0 7b04 83bf 68d4 4cc0 b7be f9bf
00000290: bff6 f7bf 556d 0ac0 26af a2be d3f2 14c0
000002a0: fda6 2ac0 9e7b f3bf 055b 29c0 06b0 26bf
000002b0: 78e9 05c0 7ea4 f6c0 3830 37c1 eb26 d3bf
000002c0: 1b02 34bf 433a 82bf dc87 aabf 1974 febf
000002d0: 5115 61bf e84c 31bf 945e 88bf 99ff ddbe
000002e0: 2030 22c0 5cdb d5bf ecc6 09c0 cc97 8bbf
000002f0: af76 eebf 6a69 9fc0 a828 bebf 19d8 0bc0
00000300: 5f9b 89c0 7887 ffbf 75e1 4ec0 21c5 eebf
00000310: 02ba 0ec1 fd9e 04c0 1b82 fbbf 4ab9 16c0
00000320: d5a7 e6bf a6ea a4be aac2 16c0 199a 3ec0
00000330: f837 e4bf 8b2d b6be 6bf1 0ac0 07d4 a2bf
00000340: 9237 d4c0 5ba9 2bbf 155d 0cc0 46c3 25c0
00000350: 9819 e2bf 7e2a 84bf de84 27bf 8cb8 9fc0
00000360: 6835 22c0 9595 13bf 6716 7cbf fd25 10c0
00000370: c412 03c0 10c3 f4bf bee8 d0bf b5a4 29bf
00000380: e01a 6bbf adba 31c0 5ae3 71bf 5c58 bcc0
00000390: 78f6 83bf d5ad 3fbf e74e 8cbf 9dcf 55bf
000003a0: ddcf ffbf 5d2e 3cc0 9a6b 95c0 6503 11c0
000003b0: 1883 56c0 a27b e5bf a834 c4bf 6c87 ccc0
000003c0: 45ae 19c0 b05e 26bf 5a88 4bbf 1bff adbe
000003d0: 1448 36bf a2aa 0dc0 f68d 36c0 db8f 4abf
000003e0: c0c0 97bf 2565 d3bf 70b9 23c0 424e 99bf
000003f0: 18fe efbf 4f77 debf 0d6f 08c0 3c1b 43bf

Linear4.weight f4 [1, 256]
0.27437964 0.042029236 0.17619511 0.16835546 -0.13161603 0.068367094 -0.17591903 -0.21268226
0.0685804 -0.10719105 0.20056738 0.036284484 0.050137617 0.2754512 0.088023216 0.010055559
-0.2216241 -0.24450164 0.028821222 0.16561784 0.30086547 0.27250874 -0.28577915 0.2235802
-0.25516465 -0.07698587 -0.17686975 -0.20887819 0.3077563 0.1631652 0.2744347 0.11365877
0.013102411 -0.1470606 -0.12757048 -0.012338542 -0.09604279 -0.11661655 -0.015079256 -0.05356608
-0.1344327 0.21851799 -0.11760998 0.044512134 -0.09891993 -0.20039257 -0.05538236 0.2878112
0.09221564 0.25190055 -0.092487335 0.09981838 0.17042387 0.091782555 0.30259895 -0.13708025
-0.24717607 0.0815649 0.094449684 0.058350712 -0.24991 -0.10009521 -0.02267884 -0.2025709
-0.17197071 -0.12099036 -0.095819555 -0.09387704 0.23090029 -0.27527735 -0.044080164 0.15337382
-0.061210778 0.16197394 0.019944983 0.19594844 0.29589522 -0.06336194 -0.42373794 0.25057366
0.25429183 0.24844532 0.2002426 0.06426791 -0.11002539 0.31457624 0.012198093 -0.00998035
0.030383702 0.0012465144 0.07043701 0.015417436 -0.19780555 0.2468389 -0.059420533 0.14265124
-0.26428893 0.014875435 0.074777536 0.2566962 0.0068457765 0.047641713 0.27896592 -0.31618783
0.05547146 -0.18157504 -0.4110392 -0.15293121 -0.30529374 0.27080497 -0.27985817 0.0006988144
0.26542637 0.2605033 -0.20491658 -0.16196457 -0.14806868 -0.28477123 0.1659697 -0.23146
-0.11979712 -0.29398745 0.15788905 0.26535416 0.18496756 0.039300285 0.10493771 0.30538097
0.14257257 -0.23487721 -0.29190582 -0.052361786 -0.08274875 -0.09717764 0.03918862 -0.051688943
-0.19657624 0.27909374 -0.17399135 0.04923034 -0.10407358 -0.3134199 -0.04911634 0.10905187
-0.08147911 0.18641606 0.12246394 -0.20355323 0.29123676 0.18875498 -0.080576986 0.21092701
0.26822755 0.06519213 -0.30968946 0.2798997 0.67554104 -0.04634881 0.22401251 0.123997256
-0.027836792 -0.31681833 -0.2335753 -0.213343 -0.29919216 -0.1741811 0.26608536 -0.14562653
-0.049450234 0.13772477 -0.2699309 -0.04533021 0.085416414 0.47640526 -0.18408257 0.22823973
-0.043503232 -0.27072603 0.10688025 -0.27509105 -0.2875269 -0.19800764 -0.084898576 -0.1051168
0.30294392 -0.029130794 0.02731689 -0.0693389 0.09384962 -0.3117638 -0.17772518 -0.20585708
-0.21651351 0.004207121 -0.14186181 0.12384183 0.022509772 0.21148528 0.19483219 -0.09800578
0.08364675 0.27751657 0.13926812 0.22103591 -0.2283697 0.29708335 -0.06174869 -0.24455388
-0.036194306 0.13185096 -0.0014477592 0.065084554 0.030715678 -0.27520803 -0.23785087 0.00023091967
-0.080408856 -0.20673072 0.006550119 -0.2215647 0.07488714 -0.1443984 -0.030027315 0.07111672
0.02781899 0.16383196 -0.120534666 0.29535943 -0.24685572 0.23679034 -0.2907457 -0.08052877
0.18198735 -0.12697792 0.032983214 0.19605602 -0.28534365 -0.29022887 0.06855512 -0.010064164
0.042323925 -0.21222067 0.081903204 -0.30548516 -0.08562231 -0.099585675 -0.024739688 -0.11649476
0.053839438 -0.107744254 -0.3094406 0.036827534 -0.062925875 0.02280278 -0.07383943 0.028600538
00000000: 7d7b 8c3e d926 2c3d 7e6c 343e 6065 2c3e
00000010: 5ac6 06be 0c04 8c3d 1e24 34be 61c9 59be
00000020: e173 8c3d fb86 dbbd 8961 4d3e 0a9f 143d
00000030: 1a5d 4d3d f107 8d3e 8445 b43d 12c0 243c
00000040: 6ef1 62be a35e 7abe 7c1a ec3c b997 293e
00000050: 0a0b 9a3e 4486 8b3e a551 92be 35f2 643e
00000060: f1a4 82be c5aa 9dbd 581d 35be 2ae4 55be
00000070: 3c92 9d3e c714 273e b482 8c3e eec5 e83d
00000080: 7fab 563c 0e97 16be d6a1 02be 9927 4abc
00000090: 15b2 c4bd a8d4 eebd fc0e 77bc 1b68 5bbd
000000a0: baa8 09be 2ec3 5f3e 80dd f0bd 5b52 363d
000000b0: 8896 cabd b633 4dbe 9dd8 62bd fd5b 933e
000000c0: 8edb bc3d 1cf9 803e 006a bdbd 946d cc3d
000000d0: 9883 2e3e 7ef8 bb3d 40ee 9a3e c45e 0cbe
000000e0: b91b 7dbe 800b a73d d66e c13d 2801 6f3d
000000f0: 68e8 7fbe b8fe ccbd fac8 b9bc bf6e 4fbe
00000100: 1719 30be cbc9 f7bd 0b3d c4bd 9b42 c0bd
00000110: 2071 6c3e 27f1 8cbe 678d 34bd 070e 1d3e
00000120: 27b8 7abd 7fdc 253e a963 a33c b5a6 483e
00000130: 947f 973e e8c3 81bd 2ef4 d8be 314b 803e
00000140: 8a32 823e 7368 7e3e 650c 4d3e e59e 833d
00000150: fe54 e1bd 2310 a13e 83da 473c 9f84 23bc
00000160: 3ee7 f83c 1562 a33a 4741 903d 6a99 7c3c
00000170: 8a8d 4abe 56c3 7c3e f262 73bd 2b13 123e
00000180: e150 87be 19b8 733c f724 993d af6d 833e
00000190: 8952 e03b f523 433d 9fd4 8e3e 5fe3 a1be
000001a0: 0b36 633d cfee 39be bb73 d2be 009a 1cbe
000001b0: 764f 9cbe f3a6 8a3e 9249 8fbe a430 373a
000001c0: f7e5 873e b060 853e a7d5 51be 0ada 25be
000001d0: 519f 17be 89cd 91be f6f3 293e da03 6dbe
000001e0: 3158 f5bd 8685 96be abad 213e 80dc 873e
000001f0: 2368 3d3e 56f9 203d 95e9 d63d e55a 9c3e
00000200: 8bfe 113e a783 70be ae74 95be 5079 56bd
00000210: 2d78 a9bd 1205 c7bd 3f84 203d c9b7 53bd
00000220: 484b 49be 60e5 8e3e ca2a 32be c1a5 493d
00000230: 8724 d5bd 9378 a0be 372e 49bd 9656 df3d
00000240: 85de a6bd dae3 3e3e 60ce fa3d 4270 50be
00000250: fc1c 953e fc48 413e 8c05 a5bd 40fd 573e
00000260: 1f55 893e 7483 853d 9e8f 9ebe 034f 8f3e
00000270: 42f0 2c3f 40d8 3dbd 8963 653e 46f2 fd3d
00000280: fc09 e4bc 0336 a2be 5d2e 6fbe 9676 5abe
00000290: b72f 99be 885c 32be 573c 883e 1f1f 15be
000002a0: 548c 4abd b907 0d3e 6234 8abe 2cac 39bd
000002b0: cdee ae3d 64eb f33e 2480 3cbe adb7 693e
000002c0: 7230 32bd 9a9c 8abe 08e4 da3d bcd8 8cbe
000002d0: ba36 93be 84c2 4abe 4edf adbd 7a47 d7bd
000002e0: 771b 9b3e b4a3 eebc acc7 df3c 8e01 8ebd
000002f0: 3b34 c03d 819f 9fbe 97fd 35be 33cc 52be
00000300: b8b5 5dbe e4db 893b 3944 11be c9a0 fd3d
00000310: 6a66 b83c 998f 583e 1782 473e 41b7 c8bd
00000320: fd4e ab3d a716 8e3e 4d9c 0e3e 3d57 623e
00000330: bfd9 69be 4f1b 983e 32ec 7cbd 556c 7abe
00000340: 7b40 14bd f003 073e bdc2 bdba 0d4b 853d
00000350: 729f fb3c 11e8 8cbe 2e8f 73be 0723 7239
00000360: 66ad a4bd 38b1 53be 61a2 d63b dbe1 62be
00000370: 6e5e 993d 2ddd 13be d8fb f5bc a5a5 913d
00000380: a7e4 e33c 91c3 273e e1da f6bd 5a39 973e
00000390: bfc7 7cbe 2b79 723e 9fdc 94be 45ec a4bd
000003a0: e45a 3a3e 8006 02be 6819 073d e9c2 483e
000003b0: 9018 92be e198 94be a066 8c3d 2ae4 24bc
000003c0: da5b 2d3d 6050 59be debc a73d 8d68 9cbe
000003d0: c05a afbd 93f3 cbbd e3aa cabc ce94 eebd
000003e0: be86 5c3d 05a9 dcbd 006f 9ebe 78d8 163d
000003f0: 48df 80bd e5cc ba3c 2139 97bd ad4b ea3c
