dataBase/loadNet/198_actor_net.pkl (torch, 550223 bytes, 8 tensors)

Linear1.weight f4 [256, 13]
0	0xc04b10ab	-3.1728923
1	0xbf17e9a6	-0.59340894
2	0xbe2c9d4c	-0.16856879
3	0xbe948c34	-0.29013216
4	0xbf2a35d7	-0.66488403
5	0x3e1e578f	0.15463088
6	0x3e1abcff	0.15111159
7	0x3e81497f	0.25251386
8	0xbeffdc7b	-0.499729
9	0xbe26ceba	-0.16289797
10	0xbf1db025	-0.615969
11	0x3f060af2	0.5236045
12	0xbf85090f	-1.039339
13	0xbecc86a1	-0.39946464
14	0x401bedb7	2.436384
15	0xbf113758	-0.5672507
16	0xbee465cd	-0.44608918
17	0xbec04e01	-0.37559512
18	0xbd2bc0eb	-0.041932028
19	0xbe36c286	-0.17847642
20	0xbec821f8	-0.39088416
21	0x3f1f44d8	0.6221442
22	0xbcb2ace3	-0.021810954
23	0x3f31480b	0.69250554
24	0xc0ac0c3f	-5.376495
25	0xbf0a9b9f	-0.5414371
26	0xbefd6027	-0.4948742
27	0xbe206eef	-0.15667318
28	0xc0018282	-2.0235906
29	0x3faa19e0	1.3289146
30	0xbf2f383c	-0.6844518
31	0x3f25deec	0.64793277
32	0x3ddf4358	0.10901517
33	0x3d45cc11	0.048290316
34	0xbe32c23f	-0.17456912
35	0x3d5ec244	0.054384485
36	0xbffb0d64	-1.9613461
37	0x3f552a4d	0.8326767
38	0xbfc14201	-1.5098268
39	0xbf84e1e2	-1.0381434
40	0x3e9f2d11	0.3108907
41	0xbf989ef2	-1.1923506
42	0xbebd7a5d	-0.37007418
43	0xbfa3b62a	-1.2789967
44	0x3f81aca5	1.0130812
45	0x3e81dbf9	0.25363138
46	0xbe37ce39	-0.17949761
47	0xbf5d2ee5	-0.8639968
48	0xbe14de52	-0.14537933
49	0xc00211a2	-2.0323262
50	0x3aa099a4	0.001225282
51	0xbe1cabc8	-0.15299904
52	0xbe8d4542	-0.27591902
53	0xbf19b19c	-0.60036635
54	0xbfcbc154	-1.5918374
55	0xbf28af1d	-0.658922
56	0xbf993797	-1.197009
57	0x3d98b55a	0.07456465
58	0x3ef2d7a1	0.47430137
59	0xbdad3fd9	-0.084594436
60	0x3e79ad5d	0.24382539
61	0x3df4ad4a	0.11947115
62	0xbfb69f29	-1.4267322
63	0x3fe2654d	1.7687165
64	0xbf354d97	-0.7082152
65	0xbf67bfdf	-0.9052715
66	0x3f343f6d	0.7040928
67	0xbf8d1ed6	-1.1025035
68	0xbd7d64e7	-0.061863806
69	0x3f05adf5	0.5221856
70	0xbfa1f713	-1.2653526
71	0x3fa2c2d8	1.2715712
72	0xbf254af7	-0.6456751
73	0xbd3c968a	-0.046042003
74	0x3e20feb5	0.15722163
75	0xbf6eee7a	-0.93332636
76	0xbfc4a58a	-1.5363019
77	0xc0331809	-2.798342
78	0xbf2e6435	-0.68121654
79	0xbf0b4557	-0.5440268
80	0xbf78c034	-0.9716828
81	0x3d14125b	0.036150318
82	0xbec26227	-0.3796551
83	0x3eca9aef	0.3957133
84	0x3ecb8683	0.39751062
85	0x3d8a0da9	0.06740887
86	0x3a6d84af	0.0009060604
87	0xbc1b93c6	-0.009495681
88	0xbf348357	-0.7051291
89	0xbeb260ff	-0.34839627
90	0xbf8be636	-1.092963
91	0x3dedd4cb	0.11612853
92	0x3f9dfd0d	1.234285
93	0xbfa8f901	-1.320099
94	0xbea9e89d	-0.33185282
95	0xbe9521bd	-0.29127303
96	0x3e5df688	0.21676075
97	0x3f0dfa1a	0.5545975
98	0x3cfed161	0.031105699
99	0x3e080691	0.13283755
100	0x3e2c5578	0.16829479
101	0xbf7b8338	-0.982471
102	0x3f505234	0.8137543
103	0xbf51c9fa	-0.81948817
104	0xbedfe6a7	-0.4373066
105	0x3ec8560d	0.39128152
106	0xbfb94898	-1.4475279
107	0x3e6c7dfc	0.23094934
108	0xbf39ac13	-0.7252819
109	0x3e2159b7	0.1575688
110	0x3f78c744	0.97179055
111	0x3e8fb978	0.2807119
112	0x3e3b930a	0.1831781
113	0x3da5bff1	0.080932505
114	0xbf494b67	-0.7863068
115	0xbf5c3e6b	-0.8603274
116	0xbfe981e6	-1.8242767
117	0xbf32beeb	-0.6982257
118	0xbe636380	-0.22205925
119	0xbe90026c	-0.28126848
120	0x3e8f14ca	0.27945548
121	0xbe5dc285	-0.21656235
122	0xbda8539b	-0.082190715
123	0x3e98c02d	0.29834118
124	0xbda2dddc	-0.079524726
125	0x3e87b2bf	0.2650356
126	0xbdd3986d	-0.10331807
127	0xbf7692dc	-0.9631784
128	0xbf444b8d	-0.7667778
129	0xbfd04639	-1.627143
130	0xbd4e0545	-0.050297994
131	0xbfee4504	-1.8614812
132	0xbf9c25b1	-1.2199003
133	0xbf888bb6	-1.0667636
134	0xbf9aa42d	-1.2081352
135	0xbf10e874	-0.56604695
136	0x405a1e08	3.408083
137	0x3dc2e43c	0.095161885
138	0x3ecc576b	0.39910445
139	0xbe6c30b7	-0.23065458
140	0xbe2cd615	-0.16878541
141	0x3fefdda2	1.8739512
142	0x3f848044	1.0351644
143	0xbf474444	-0.7783854
144	0x3f504691	0.81357676
145	0xbf05d27c	-0.522743
146	0xbe521d52	-0.20518997
147	0xbf1b0c12	-0.6056529
148	0x3e578c37	0.21049581
149	0x3bdfab17	0.0068258154
150	0xbe736b88	-0.23771489
151	0xbe8f0d39	-0.27939776
152	0xbe20df25	-0.15710123
153	0xbe8b17c8	-0.2716658
154	0x3ea132a9	0.31483963
155	0xbfe54576	-1.7911823
156	0x3f09b037	0.5378451
157	0xc03393d4	-2.8058977
158	0x3e8dbebc	0.2768458
159	0xbec4b03c	-0.38415706
160	0xbf6c7cdc	-0.9237802
161	0xbe07335e	-0.13203189
162	0x3ee7cc2b	0.45272955
163	0xbdb404b5	-0.0878996
164	0xbe616511	-0.2201121
165	0x3e9c586a	0.30536205
166	0xc02ece7e	-2.7313533
167	0x408b799b	4.3585944
168	0xc0105c09	-2.2556174
169	0xbf503757	-0.8133444
170	0x3f50c074	0.8154366
171	0xbf4c8a04	-0.79898095
172	0x3dd12bbe	0.10213421
173	0xbf2d13f3	-0.67608565
174	0xbd2d9d45	-0.042386312
175	0x3fbd6283	1.4795688
176	0x3dc05cd0	0.093927026
177	0xbf0efc4c	-0.55853724
178	0x3ddb7e8f	0.107174985
179	0xbfd29f18	-1.6454802
180	0xbf3b7514	-0.7322552
181	0xbe8d8547	-0.27640745
182	0xbe0b4852	-0.13601807
183	0xbe88fe2e	-0.26756424
184	0xbdfb3fa7	-0.12268
185	0xbd5614fc	-0.052266106
186	0xbf0c88d2	-0.5489627
187	0x3ea53bdd	0.32272235
188	0x3d62bd04	0.05535604
189	0x3d443541	0.04790235
190	0xbe8833e3	-0.26602086
191	0x3e14ef6f	0.14544462
192	0xbf24bdbf	-0.6435203
193	0x3ed6baf1	0.419395
194	0xbf6934ca	-0.91096175
195	0xbfe7ab99	-1.8099242
196	0xbe9943cf	-0.29934546
197	0xc00564e5	-2.084283
198	0xbef2818d	-0.47364464
199	0xbec5ed52	-0.38657624
200	0x3d8afbae	0.06786285
201	0x3f272042	0.65283597
202	0xbe0ad1c9	-0.13556589
203	0xbd8fceba	-0.07021852
204	0x3bccb163	0.006246732
205	0xbec22c64	-0.37924492
206	0xbda29f4e	-0.07940541
207	0xbf837251	-1.0269262
208	0xbf868e29	-1.0512134
209	0xbde4612f	-0.11151349
210	0xc051f7a3	-3.2807395
211	0xbeb0f04f	-0.3455834
212	0xbeec8c83	-0.46200952
213	0xbf2582e1	-0.6465283
214	0x3eda518c	0.4264034
215	0xbd47c42b	-0.048771065
216	0x3db839ea	0.08995421
217	0xbcc646db	-0.024203708
218	0xbc9808e0	-0.01855892
219	0x3ec496ab	0.383962
220	0xbf9d605f	-1.2295035
221	0xbf8faa12	-1.1223776
222	0xbfc8d0a8	-1.5688677
223	0xbfb60944	-1.4221578
224	0xbfdfba30	-1.7478695
225	0x3f1148d6	0.56751764
226	0x3e4349b0	0.19071078
227	0xbe2ee179	-0.17078198
228	0xbd293059	-0.041305874
229	0x3d19ed95	0.03758009
230	0xbd180efa	-0.037123658
231	0xbecb9ec3	-0.39769563
232	0x3fdd8cdb	1.7308611
233	0xbfb67819	-1.4255401
234	0xbf9a38d0	-1.2048588
235	0x3f90beaf	1.1308192
236	0x3c258691	0.010102884
237	0xbe3ed40f	-0.18635581
238	0xbf38974c	-0.7210586
239	0x3d787beb	0.060665052
240	0x3ef411e4	0.476699
241	0xbdb72d62	-0.08944203
242	0xbf120b53	-0.5704853
243	0x3cd836d2	0.026393328
244	0xbf8b5fbe	-1.0888593
245	0xbc938649	-0.018008368
246	0xbfdab094	-1.7085137
247	0xbf87229b	-1.0557436
248	0xc016db49	-2.357134
249	0x3e903c49	0.28170994
250	0x3f93a59c	1.1534915
251	0xbf3a4f3c	-0.7277715
252	0x3f176559	0.5913902
253	0x3fcad9bd	1.5847698
254	0x3f304277	0.6885142
255	0x3e0e5933	0.13901214

Linear1.bias f4 [256]
0	0xbf62fda6	-0.88668287
1	0xbe26dd06	-0.16295251
2	0xbf8acf45	-1.0844504
3	0xbfa3ed8d	-1.280687
4	0xbf97f4da	-1.1871598
5	0xbf94ece5	-1.1634794
6	0xbf8a656b	-1.08122
7	0xbf993b97	-1.197131
8	0xbf8f1371	-1.1177808
9	0xbef29d4a	-0.47385627
10	0xbfd0c26e	-1.6309335
11	0xbf3ac3a2	-0.7295476
12	0xbde214e6	-0.11039142
13	0xbf858550	-1.0431309
14	0xbed95614	-0.42448485
15	0xbfad63ac	-1.3546042
16	0xbf9f5907	-1.2449044
17	0xbf0ed42f	-0.55792516
18	0xbfb13e1c	-1.3847079
19	0xbfa5b410	-1.2945576
20	0xbf03ec35	-0.515323
21	0xbee99a98	-0.45625758
22	0xbf675347	-0.90361446
23	0xbf6f8c55	-0.93573505
24	0xbf375ed6	-0.71629083
25	0xbf8b57e1	-1.0886194
26	0xbeb855d0	-0.3600297
27	0xbf892a6e	-1.0716074
28	0xbf16ea21	-0.58951
29	0xbe9cd550	-0.30631495
30	0xbf507876	-0.8143381
31	0xbf4ce4a2	-0.80036366
32	0xbf399367	-0.72490543
33	0xbebdb2c5	-0.37050453
34	0xbf370f2e	-0.7150754
35	0xbf8da56d	-1.1066109
36	0xbf05f7f2	-0.5233146
37	0xbfb1e1d3	-1.3897041
38	0xbf380e70	-0.7189703
39	0xbfaf0ee3	-1.3676418
40	0xbf32d51a	-0.6985642
41	0xbed22abc	-0.4104823
42	0xbf90e935	-1.1321169
43	0xbf97db83	-1.1863865
44	0xbf4a7dd1	-0.7909823
45	0xbf90f4af	-1.1324672
46	0xbee9cfbe	-0.45666307
47	0xbd030b6d	-0.03199332
48	0xbf57a115	-0.84230167
49	0xbf1098c2	-0.5648309
50	0xbf8387fc	-1.0275874
51	0xbfadf766	-1.3591125
52	0xbf6e6bd5	-0.9313329
53	0xbe3c1ce2	-0.18370393
54	0xbe824c56	-0.25448865
55	0xbf45a742	-0.7720834
56	0xbee427bb	-0.44561562
57	0xbf231bb8	-0.6371417
58	0xbea4f41f	-0.322175
59	0xbef979f0	-0.48725843
60	0xbef29fa5	-0.47387424
61	0xbea21728	-0.31658292
62	0xbf9da57b	-1.2316126
63	0xbf61481c	-0.88000655
64	0xbf068f5b	-0.52562493
65	0xbf1a1f84	-0.6020434
66	0xbf3a69aa	-0.7281748
67	0xbf85060b	-1.0392469
68	0xbf26ffb3	-0.65233916
69	0xbe03a357	-0.12855278
70	0xbf3364d1	-0.7007571
71	0x3ec96b01	0.3933945
72	0x3f185c21	0.5951558
73	0xbf23a019	-0.63916165
74	0xbf49f680	-0.78891754
75	0xbf98bfc7	-1.1933526
76	0xbe554895	-0.20828469
77	0xbf055055	-0.520757
78	0xbf45d629	-0.7727991
79	0xbf37fee5	-0.71873313
80	0xbf3147f2	-0.69250405
81	0xbda3744b	-0.079811655
82	0xbef4f63c	-0.47844112
83	0xbf37a16e	-0.717307
84	0xbf091d30	-0.5356016
85	0x3ed237ba	0.4105814
86	0xbf277fcc	-0.6542938
87	0xbf6c9f5e	-0.92430675
88	0xbed3bc56	-0.41354626
89	0xbf27cc53	-0.6554615
90	0xbf4a7e77	-0.7909922
91	0xbf3aa8d4	-0.7291386
92	0xbeaf59fa	-0.34248334
93	0xbf159016	-0.5842298
94	0xbf35d22d	-0.7102383
95	0xbf134dd4	-0.5754063
96	0xbefaddb8	-0.48997283
97	0xbe9bd31d	-0.30434504
98	0xbede92ba	-0.43471318
99	0xbf54f744	-0.831898
100	0xbf81889c	-1.0119815
101	0xbf1fe875	-0.62464076
102	0xbfa4881f	-1.2854041
103	0xbf839b61	-1.0281793
104	0xbe244f8a	-0.16045967
105	0xbf3bd683	-0.73374194
106	0xbf930ede	-1.1488912
107	0x3ef14521	0.47123054
108	0xbf1b6f0b	-0.60716313
109	0xbf388cdb	-0.7208993
110	0xbebe43f0	-0.37161207
111	0x3c237809	0.009977349
112	0xbf8de56d	-1.108564
113	0xbec609cc	-0.3867935
114	0xbf7a7f4d	-0.97850496
115	0xbf0e81ff	-0.5566711
116	0xbf857bdc	-1.0428424
117	0xbf1e8a76	-0.61930025
118	0xbf1a441c	-0.60260177
119	0xbe2fdbd8	-0.17173707
120	0xbf89bcaf	-1.0760707
121	0xbedd7662	-0.4325438
122	0xbf170f49	-0.590077
123	0xbf87fc30	-1.0623837
124	0xbee39a02	-0.44453436
125	0xbf1c811a	-0.61134493
126	0xbf9102e3	-1.1329006
127	0xbf0c626a	-0.5483767
128	0x3f07ec2c	0.53094745
129	0xbf0b17f3	-0.5433342
130	0x3e76b20d	0.24091358
131	0xbf2baeaa	-0.6706339
132	0xbfcb53df	-1.588497
133	0xbf793bd6	-0.9735693
134	0xbf6f12a8	-0.9338784
135	0xbf0a4244	-0.54007363
136	0xbf0f33a4	-0.5593817
137	0xbf3b0055	-0.7304738
138	0xbe9506b5	-0.2910668
139	0xbf8a8e52	-1.0824683
140	0xbf35eac8	-0.7106137
141	0xbee9e6c1	-0.45683864
142	0xbf9ec617	-1.2404202
143	0xbeef6351	-0.4675546
144	0xbfd33672	-1.650099
145	0xbf3c52a2	-0.7356359
146	0xbef23907	-0.47309133
147	0xbf032871	-0.51233584
148	0xbf843d37	-1.0331181
149	0xbf54f2fa	-0.8318325
150	0xbda4c87d	-0.080460526
151	0xbf833fc1	-1.0253831
152	0x3eca686f	0.39532802
153	0xbf574981	-0.84096533
154	0xbf9541ba	-1.1660683
155	0xbfb29dec	-1.3954444
156	0xbf36be6c	-0.7138431
157	0xbf81299c	-1.0090823
158	0xbf3d4bf5	-0.73944026
159	0xbf62bfef	-0.8857412
160	0xbf2f7929	-0.6854425
161	0xbf7d4406	-0.9893192
162	0xbf92567d	-1.1432644
163	0xbf3d53f4	-0.7395623
164	0xbe014c48	-0.12626755
165	0xbf4f58c3	-0.80994815
166	0xbf33858e	-0.70125663
167	0xbf273562	-0.6531583
168	0xbedc63ea	-0.43044978
169	0xbe949bbc	-0.29025066
170	0xbfae025b	-1.3594469
171	0xbf47cd93	-0.78048056
172	0xbeeb31c9	-0.4593642
173	0xbfa675bb	-1.3004678
174	0xbf5f92b8	-0.8733325
175	0x3f896ee1	1.0736963
176	0xbf6d4b04	-0.9269259
177	0xbf527641	-0.8221169
178	0xbf06f9b1	-0.5272475
179	0xbed8edca	-0.4236892
180	0xbf184b93	-0.5949032
181	0xbefcd2f4	-0.49379694
182	0xbf6b11dc	-0.91824126
183	0xbf85afe0	-1.0444298
184	0xbecb6cf2	-0.39731556
185	0xbee91abc	-0.4552821
186	0xbf0ae068	-0.54248667
187	0xbfbbb7ac	-1.4665427
188	0xbf93ce0c	-1.1547256
189	0xbf91c117	-1.1387051
190	0x3f463dff	0.7743835
191	0xbf8429c1	-1.0325242
192	0x3e3f2d5d	0.18669648
193	0x3d8df36a	0.06931193
194	0xbf9646a0	-1.1740303
195	0xbf6c170e	-0.9222268
196	0xbef813ff	-0.48452756
197	0xbf20ebd5	-0.6285985
198	0xbefb7c05	-0.49118057
199	0xbee792c0	-0.4522915
200	0xbf55c8c3	-0.83509463
201	0xbf6950d1	-0.9113894
202	0xbf507bef	-0.8143911
203	0xbf274054	-0.6533253
204	0xbf87dea5	-1.0614821
205	0xbee98ef0	-0.45616865
206	0xbd17305c	-0.036911353
207	0xbfe3972a	-1.7780507
208	0x3d455911	0.048180643
209	0xbf780713	-0.96885794
210	0xbeab4fe3	-0.33459386
211	0xbf8a2ac4	-1.0794301
212	0xbf770d0d	-0.9650429
213	0xbf13b9a1	-0.5770512
214	0xbf0499ac	-0.51796985
215	0xbf2e979e	-0.682001
216	0xbf6bb1a2	-0.9206792
217	0xbf235899	-0.63807064
218	0xbf343c01	-0.7040406
219	0xbf758e42	-0.95920193
220	0xbeeffd3d	-0.46872893
221	0x3eb8539e	0.36001295
222	0xbf18beee	-0.59666336
223	0xbf3fb8c4	-0.74891305
224	0xbf487ea3	-0.7831823
225	0xbecf5e72	-0.40501744
226	0xbf83fb00	-1.0310974
227	0xbf5e7c94	-0.8690884
228	0xbf41bcb9	-0.7567859
229	0xbf20daff	-0.6283416
230	0xbf61ae0c	-0.881562
231	0xbf79fdea	-0.9765307
232	0xbf185d11	-0.5951701
233	0xbeff33c7	-0.4984419
234	0xbf916803	-1.1359867
235	0xbf48a86f	-0.7838201
236	0x3e1c0a1a	0.15238228
237	0xbf11e485	-0.5698932
238	0xbedc7549	-0.4305823
239	0xbf7f5866	-0.9974426
240	0xbf6a4a42	-0.9151956
241	0xbfa9aa09	-1.3255016
242	0xbfaebe08	-1.3651743
243	0xbf8c3c7b	-1.0955957
244	0xbeeae648	-0.45878816
245	0xbeaf9be6	-0.3429863
246	0xbf98586e	-1.1901987
247	0xbf0cee9f	-0.55051607
248	0xbf96ab2a	-1.1770985
249	0xbfe1151a	-1.7584565
250	0xbf48eea8	-0.7848916
251	0x3b32278c	0.0027184216
252	0xbf3b3d32	-0.7314025
253	0xbf738f08	-0.95140123
254	0xbf8a6ad2	-1.0813849
255	0xbe4a35f8	-0.1974715

Linear2.weight f4 [256, 256]
0	0xbd6250ae	-0.055252723
1	0xbf297151	-0.6618853
2	0x3e59f96b	0.21286552
3	0x3f06aa06	0.52603185
4	0xbd131ee0	-0.035918117
5	0xbc58e674	-0.013238538
6	0x3e896edf	0.268424
7	0x3ec43067	0.38318178
8	0x3d3ef6f2	0.046622224
9	0xbd081ce2	-0.03323067
10	0x3e9d3469	0.30704048
11	0xbd572643	-0.052526724
12	0x3c59f782	0.013303639
13	0x3b5ceee5	0.0033711728
14	0xbd934390	-0.07190621
15	0xbeeb5929	-0.4596646
16	0x3e7d2b3e	0.24723527
17	0xbe309e7c	-0.17247957
18	0x3d4fe36f	0.050754007
19	0x3e836fd8	0.25671268
20	0xbf29bea4	-0.6630652
21	0xbe8c09a5	-0.27351108
22	0x3dad641b	0.08466359
23	0xbdafb05c	-0.0857856
24	0x3cfbba36	0.03072844
25	0xbd4f6274	-0.050631
26	0x3e653c49	0.22386278
27	0xbe1c80a9	-0.15283455
28	0xbc2b4cfd	-0.010455367
29	0x3e788701	0.2427025
30	0xbcf31484	-0.029672869
31	0xbe1f8db8	-0.15581405
32	0xbdd2b0cc	-0.102876276
33	0xbedc861b	-0.43071064
34	0xbf2d1ccb	-0.6762206
35	0xbe58e443	-0.21180825
36	0x3f7e5b21	0.993578
37	0xbe1fac09	-0.1559297
38	0xbce924d1	-0.028459938
39	0xbf606691	-0.87656504
40	0x3c8866fa	0.016650666
41	0xbf9d31af	-1.2280787
42	0xbea26edf	-0.31725213
43	0xbf5c49e1	-0.8605023
44	0x3e579155	0.21051534
45	0xbd914e53	-0.07095017
46	0xbe791d5f	-0.2432761
47	0x3f0b369c	0.543802
48	0xbd70cc4a	-0.058788575
49	0xbb88b057	-0.004171412
50	0xbe423bdd	-0.18968149
51	0xbea96fab	-0.33093008
52	0xbd1687ed	-0.036750723
53	0xbd5e3505	-0.054249782
54	0xbf875ad2	-1.0574591
55	0xbcb8da2d	-0.022564972
56	0xbd108509	-0.035283122
57	0xbdaef177	-0.085421495
58	0xbd37379f	-0.04473078
59	0x3d8898a1	0.06669737
60	0x3d202ea9	0.039107
61	0xbd6f4ad0	-0.058420956
62	0xbf4f7993	-0.8104488
63	0xbe67eb6c	-0.226484
64	0x3c4c5e1d	0.01247361
65	0x3d0ff982	0.03515006
66	0xbce50a91	-0.02795914
67	0xbe965c93	-0.29367504
68	0x3db6bc98	0.0892269
69	0xbeba6e8b	-0.36412463
70	0xbc79c5d0	-0.015244916
71	0xbeda21b1	-0.4260383
72	0xbed8674e	-0.42266315
73	0xbb2ad23d	-0.0026065253
74	0xbc26c2e8	-0.010178305
75	0xbf24f995	-0.6444333
76	0xbddc1f52	-0.107481614
77	0xbeeb5147	-0.45960447
78	0x3e2b4b01	0.1672783
79	0x3dc01f5c	0.09380981
80	0xbd06da29	-0.032922897
81	0x3e814d4e	0.2525429
82	0x3e9ade08	0.3024752
83	0xbf24acc6	-0.6432613
84	0xbd013824	-0.03154768
85	0xbdc08ca6	-0.094018266
86	0xbe8d927e	-0.27650827
87	0xbf204489	-0.62604576
88	0xbde8af85	-0.11361603
89	0xbef3872e	-0.4756407
90	0xbd80fc43	-0.06298115
91	0xbda9e818	-0.082962215
92	0x3e85a542	0.26102644
93	0x3d13f7b8	0.036124915
94	0xbf40b9e8	-0.7528367
95	0x3dbaadc0	0.091151714
96	0xbce43bd6	-0.027860563
97	0xbebb3c11	-0.36569265
98	0xbe81ab6f	-0.25326106
99	0x3f493e09	0.78610283
100	0x3d2df1f9	0.04246709
101	0xbda4a224	-0.08038738
102	0x3e33110a	0.17486969
103	0xbefc097d	-0.4922599
104	0xbdb280df	-0.087159865
105	0x3d0f180d	0.034935046
106	0xbf0af0af	-0.54273504
107	0xbea02315	-0.31276765
108	0x3c5efd4c	0.013610195
109	0xbb90eb41	-0.0044225757
110	0x3c60af3b	0.013713653
111	0xbf1d09c5	-0.6134303
112	0xbf351a53	-0.7074329
113	0xbd6cb3b2	-0.05778856
114	0x3e36df19	0.17858543
115	0xbdc3d50f	-0.09562122
116	0x3e2054b4	0.15657312
117	0x3e175c9f	0.14781426
118	0xbd1c21bc	-0.03811811
119	0x3dd7e6f4	0.10542098
120	0x3cc5952e	0.024118986
121	0xbbaec158	-0.005333107
122	0x3ddbbc02	0.10729219
123	0x3d9b08c6	0.07570033
124	0xbda75343	-0.08170178
125	0x3c32b8dc	0.010908332
126	0x3d9d1aa7	0.07671099
127	0xbf7777c9	-0.9666715
128	0xbf773693	-0.9656765
129	0xbf2963b9	-0.6616779
130	0xbdf324f2	-0.11872281
131	0x3e1625dd	0.14662881
132	0xbd742d6b	-0.059613626
133	0x3e97dceb	0.29660735
134	0xbd1d5411	-0.03841025
135	0xbc3722ea	-0.011177758
136	0xbe2ddfce	-0.16979906
137	0x3d28dbfd	0.041225422
138	0x3d35c37b	0.044375878
139	0xbdd82884	-0.10554603
140	0xbe85fa7c	-0.26167667
141	0xbe2e2345	-0.17005642
142	0xbdf985fe	-0.1218376
143	0xbc95340f	-0.0182133
144	0xbea51761	-0.322444
145	0xbf36749c	-0.7127168
146	0x3d50b220	0.050951123
147	0xbe1eadbf	-0.15495966
148	0x3d94c4a1	0.072640665
149	0x3f95ded8	1.1708632
150	0x3e8d3153	0.27576694
151	0x3e9ec70c	0.31011236
152	0xbf2b8387	-0.6699757
153	0x3f245ae1	0.6420117
154	0xbd4346c7	-0.04767492
155	0xbe87d7c3	-0.265318
156	0xbb61a290	-0.003442917
157	0xbd2542c9	-0.040346894
158	0xbe97414f	-0.29542014
159	0x3df03f9f	0.11730885
160	0xbd1313b6	-0.03590747
161	0xbca7568c	-0.020427011
162	0x3bbd973b	0.0057858503
163	0x3e43a760	0.19106817
164	0xbeccf145	-0.40027824
165	0xbd244144	-0.040101305
166	0x3cdfe3ad	0.027330244
167	0xbd9459e9	-0.072437115
168	0xbd7dd11f	-0.06196701
169	0x3f1b0258	0.6055045
170	0x3f24e776	0.6441568
171	0x3f635dfa	0.8881527
172	0xbc7adcf4	-0.015311468
173	0xbead59e1	-0.33857635
174	0x3ec5a990	0.38605928
175	0xbf1aa469	-0.6040712
176	0x3d95188a	0.07280071
177	0x3c0e39f4	0.008680809
178	0x3d5e93e5	0.054340262
179	0xbd04d4f0	-0.032429636
180	0x3d1e479c	0.03864251
181	0xbdc594c2	-0.09647514
182	0xbccde56e	-0.025133815
183	0xbc29e673	-0.010369885
184	0xbec8634b	-0.39138255
185	0xbd87ed9c	-0.06637117
186	0xbe1c0485	-0.15236099
187	0x3e5e19e5	0.21689565
188	0x3df82e1d	0.121181704
189	0xbd2834ff	-0.041066166
190	0xbf0249fa	-0.5089413
191	0xbf43854c	-0.7637527
192	0xbecaf8df	-0.39643
193	0xbe895ca4	-0.26828492
194	0x3d749d35	0.059720237
195	0xbe0247c4	-0.12722689
196	0xbea0bd2d	-0.3139433
197	0xbf0e3892	-0.5555507
198	0xbd43e529	-0.047825966
199	0x3d25c03e	0.04046654
200	0xbe60cdb2	-0.21953467
201	0xbd0c8a72	-0.03431172
202	0x3f050d7c	0.519737
203	0xbd19d1a4	-0.037553445
204	0x3cf3a528	0.029741839
205	0x3c1490e7	0.009067751
206	0xbc990187	-0.018677486
207	0xbf64c695	-0.8936551
208	0x3e4c9a0e	0.19980642
209	0x3d516953	0.051125836
210	0xbe67e520	-0.22645998
211	0xbed9b28c	-0.42519033
212	0xbec2f863	-0.3808013
213	0x3d20b1f1	0.0392322
214	0xbe03f09b	-0.12884752
215	0x3c5c69e4	0.013452981
216	0xbd5add57	-0.053433742
217	0xbd3b71b1	-0.04576272
218	0x3f0f6d6f	0.5602636
219	0x3d09fbf3	0.033687543
220	0xbdc3186e	-0.09526144
221	0xbf06ce29	-0.52658325
222	0x3cfb485f	0.030674158
223	0x3ead1e97	0.338124
224	0xbe0fe1b7	-0.14050947
225	0xb8c96cf9	-9.6047246e-05
226	0xbf3ee0eb	-0.7456195
227	0xbfdf625b	-1.7451891
228	0x3e256743	0.16152672
229	0xbd88bb1d	-0.06676314
230	0xbe4796f7	-0.19491182
231	0xbc570836	-0.013124516
232	0xbf22708f	-0.63453
233	0xbda4a5b3	-0.08039417
234	0xbf00a5a5	-0.50252753
235	0xbe4ae5b8	-0.19814193
236	0xbe89dc84	-0.26926053
237	0x3e7cab2e	0.24674675
238	0xbd76b759	-0.060233448
239	0xbe299992	-0.16562489
240	0x3bc3201d	0.005954756
241	0x3da8b480	0.08237553
242	0x3ef7cff5	0.48400846
243	0x3e570ca3	0.21000914
244	0xbbdb185f	-0.006686255
245	0xbceec52d	-0.029146755
246	0x3ec924af	0.392858
247	0x3c46bd47	0.012130088
248	0xbee04a5d	-0.43806735
249	0x3e24a80d	0.16079731
250	0xbe561424	-0.2090612
251	0x3e700dd0	0.23442769
252	0x3c279924	0.010229383
253	0xbee8091e	-0.45319456
254	0xbd782bd1	-0.06058866
255	0xbe04a845	-0.12954815

Linear2.bias f4 [256]
0	0xbfa1263e	-1.2589796
1	0xbed84136	-0.42237252
2	0xbdba8755	-0.09107844
3	0xbf247c9d	-0.64252645
4	0xbe19640e	-0.14979574
5	0xbf605b5c	-0.87639403
6	0x3ebb8f33	0.3663269
7	0xbc222989	-0.009897598
8	0x3f9a8e46	1.2074668
9	0xbe2531dc	-0.16132301
10	0xbe2cf9dc	-0.16892189
11	0xbd1ea811	-0.0387345
12	0x3f60496c	0.8761203
13	0x3f702c61	0.93817717
14	0xbeb7dafb	-0.35909256
15	0xbe28fe02	-0.16503146
16	0xbe073d18	-0.13206899
17	0xbe17726d	-0.14789744
18	0xbe23cc2b	-0.15995853
19	0x3ead906a	0.33899242
20	0xbe2b4250	-0.16724515
21	0xbebfb475	-0.37442365
22	0xbf3a715a	-0.7282921
23	0x3f91d38c	1.1392684
24	0x3ef2a699	0.4739273
25	0xbeeda88d	-0.46417657
26	0xbde3688c	-0.11103925
27	0xbf0a4679	-0.5401378
28	0xbcbd52da	-0.023110796
29	0xbeaa3b6b	-0.33248457
30	0xbe0a07a6	-0.1347948
31	0xbe8f2805	-0.2796022
32	0xbf5571c7	-0.83376735
33	0xbe7b868c	-0.24563044
34	0xbeda7f96	-0.42675465
35	0xbe6670da	-0.22503987
36	0xbec29877	-0.38006946
37	0xbf3a7914	-0.72841
38	0x3f8abafe	1.0838315
39	0xbe97c71a	-0.2964409
40	0xbdc7642b	-0.097359024
41	0xbe1c0b32	-0.15238646
42	0xbdcc6775	-0.0998067
43	0xbe927660	-0.28605938
44	0xbf29b9de	-0.66299236
45	0xbdb4a7e5	-0.08821086
46	0xbd625b2b	-0.055262726
47	0xbeda4632	-0.4263168
48	0x3f9fcc58	1.2484236
49	0x3f873711	1.056368
50	0xbeef55db	-0.4674519
51	0xbd9b6d6c	-0.0758923
52	0xbf82c9b2	-1.0217803
53	0x3f7765c0	0.96639633
54	0xbf0e72b5	-0.5564378
55	0xbdec9e82	-0.115536705
56	0xbec6f8e3	-0.3886176
57	0xbe82e96f	-0.2556872
58	0x3f47edb1	0.78097063
59	0xbe66ea92	-0.22550419
60	0x3e2b0af7	0.16703402
61	0xbf53698c	-0.82582927
62	0xbf26d2e9	-0.65165573
63	0xbdbfb2f3	-0.09360304
64	0xbef51fcc	-0.47875822
65	0x3ef0aad0	0.4700532
66	0xbe00af3f	-0.12566851
67	0xbdba6511	-0.09101308
68	0xbe12a58c	-0.14320964
69	0x3f874384	1.0567479
70	0xbf53f1c8	-0.82790804
71	0xbf1d2993	-0.6139156
72	0xbe3a56c7	-0.18197165
73	0xbe0fce41	-0.14043523
74	0xbdc05f4b	-0.09393176
75	0xbe09845d	-0.13429399
76	0x3eb1bda0	0.34714985
77	0xbe8ae512	-0.27127892
78	0xc01e3285	-2.4718335
79	0xbecb6d7a	-0.3973196
80	0xbee4b19c	-0.44666755
81	0x3fe5f706	1.796601
82	0xbe894150	-0.26807642
83	0xbede0746	-0.43364924
84	0xbcfaf0f9	-0.030632483
85	0x3f3a886e	0.72864425
86	0xbdefe1aa	-0.11712964
87	0xbf56af6d	-0.8386143
88	0xbd4da7ba	-0.050208785
89	0xbec9a1b1	-0.39381173
90	0xbd88c6a8	-0.06678516
91	0x3f71cda5	0.94454414
92	0x3f0783eb	0.52935666
93	0xbe49df83	-0.19714169
94	0x3e9226d6	0.28545254
95	0xbee8e037	-0.45483562
96	0xbebec61f	-0.3726053
97	0xbf0ac497	-0.5420622
98	0x3f465e34	0.7748749
99	0xbfad92ae	-1.3560388
100	0x3fc034c0	1.5016098
101	0x3d04378b	0.032279532
102	0xbdefec4a	-0.117149904
103	0xbefec6b2	-0.49760967
104	0x3db5ba41	0.08873416
105	0x3f05937b	0.5217816
106	0x3f3061f3	0.6889946
107	0x3e1ea262	0.15491632
108	0xbde54d98	-0.111964405
109	0xbd9b33a8	-0.07578212
110	0xc013a65b	-2.3070285
111	0xbf1eecd5	-0.62080127
112	0xbe6572dd	-0.22407098
113	0xbf5d01b5	-0.8633073
114	0xbe55c561	-0.20876075
115	0xc039be20	-2.9022293
116	0xbe90ae1a	-0.2825783
117	0xbf5cb581	-0.86214453
118	0xbe03f867	-0.12887727
119	0xbdd96631	-0.106151946
120	0xbe3fbed2	-0.18725136
121	0xbe5afef8	-0.21386325
122	0xbfe9e7b5	-1.8273836
123	0xbe7a90c4	-0.24469286
124	0xbe1af2a8	-0.15131629
125	0x3f6ab214	0.91677976
126	0xbe63cb98	-0.22245634
127	0xbf8193bf	-1.0123214
128	0x3e91a89f	0.2844896
129	0xbe922399	-0.28542784
130	0xbe0a51a5	-0.13507707
131	0x3ea1a253	0.31569156
132	0xbdddbea1	-0.10827375
133	0xbf6790e1	-0.9045544
134	0xbdd1baea	-0.10240729
135	0xbf0a8489	-0.5410848
136	0xbefb382b	-0.4906629
137	0xbfedac00	-1.8568115
138	0xbe98f0d7	-0.29871246
139	0xbf0b5ac8	-0.54435396
140	0xbe051cbc	-0.12999243
141	0xbf16ac71	-0.58856875
142	0x3f1d04c5	0.613354
143	0xbf4722bf	-0.77787393
144	0xbe22b25c	-0.15888351
145	0xbe8dbed2	-0.27684647
146	0x3f34db16	0.706468
147	0xbdf534af	-0.11972939
148	0xbef9c65d	-0.48784152
149	0xbe33b5bf	-0.175498
150	0xbf1a34d9	-0.6023689
151	0xbe9d40a9	-0.30713394
152	0xbf2ac659	-0.66708905
153	0x3ef05034	0.4693619
154	0xbf993425	-1.1969038
155	0xbf0496e5	-0.51792747
156	0xbde11cff	-0.10991859
157	0xbf17c320	-0.5928211
158	0xbeacce86	-0.33751315
159	0xbe03377e	-0.12814137
160	0x3f9deef0	1.2338543
161	0xbeca82e8	-0.39553
162	0xbe006e56	-0.1254209
163	0x3cf91097	0.030403418
164	0xbd39870d	-0.04529481
165	0xbf2c199d	-0.6722658
166	0xbd8d9690	-0.06913483
167	0x3f599e5d	0.8500727
168	0xbd71629e	-0.05893194
169	0xbe8c735b	-0.2743176
170	0xbead70b1	-0.3387504
171	0xbdc88a47	-0.09791999
172	0xbe562d5a	-0.20915738
173	0xbe130eda	-0.14361134
174	0xbf9ecc82	-1.2406161
175	0xbecc0706	-0.39849108
176	0xbe456a3b	-0.19278805
177	0xbdea0fa5	-0.11428765
178	0xbfd33c9e	-1.6502874
179	0xbe0481c4	-0.12940127
180	0xbe14641e	-0.14491317
181	0xbe60b870	-0.21945357
182	0x3ce895ee	0.028391805
183	0x3f07a08e	0.5297936
184	0xbe040dc0	-0.1289587
185	0xbe16ecf0	-0.14738822
186	0x3fb0eeab	1.3822836
187	0x3ecb1bc6	0.39669627
188	0xbe472201	-0.19446565
189	0xbe3345c2	-0.17507079
190	0x3ca7dd91	0.020491393
191	0x3f7b009a	0.9804779
192	0xbef62f88	-0.48083138
193	0x3fef9aff	1.8719176
194	0xbec03103	-0.37537393
195	0xbdf953fb	-0.12174221
196	0xbec13993	-0.37739238
197	0x3f171b1e	0.5902575
198	0xbe14161b	-0.14461558
199	0xbf58f161	-0.84743315
200	0x3d4373db	0.04771791
201	0xbe00d856	-0.12582526
202	0xbfa694d6	-1.3014171
203	0xbded4ff6	-0.11587517
204	0xbeac7f71	-0.3369098
205	0xbe194430	-0.14967418
206	0xbf64f834	-0.8944123
207	0xbe90c577	-0.28275654
208	0x3eee2e50	0.4651971
209	0x3fa3b49d	1.2789494
210	0xbeeecfa4	-0.46642792
211	0xbde727f1	-0.11286915
212	0xbf935e75	-1.1513201
213	0xbf4a3dd1	-0.79000574
214	0x3f15e0b4	0.58545995
215	0xbecd4b96	-0.4009673
216	0xbf861e93	-1.047808
217	0xbdc2b703	-0.09507563
218	0xbdafd244	-0.08585027
219	0xbe0d8c91	-0.13823153
220	0xbf856262	-1.0420649
221	0xbf55d267	-0.83524173
222	0xbf957192	-1.1675284
223	0xbe31f516	-0.17378649
224	0x3de77f48	0.11303574
225	0xbdb163cc	-0.08661613
226	0xbe92030c	-0.2851795
227	0xbd55603a	-0.052093722
228	0xbec933e6	-0.39297408
229	0x3f54f8f0	0.8319235
230	0xbd5e4881	-0.054268364
231	0xbdb5dcd7	-0.088800125
232	0xbfaffc18	-1.3748808
233	0xbf5543e5	-0.83306724
234	0xbd922886	-0.071366355
235	0xbf2cc8b6	-0.6749376
236	0xbd417e7f	-0.047239777
237	0x3f81d8c6	1.0144279
238	0xbfe65903	-1.7995914
239	0xbdf70d5e	-0.120630965
240	0xbe0416e7	-0.12899362
241	0xbf42929e	-0.7600497
242	0xbefec72c	-0.4976133
243	0xbedf698e	-0.4363522
244	0x3f2450c6	0.6418575
245	0x3f7e9493	0.99445456
246	0xbe6385fd	-0.22219081
247	0xbecd9e1f	-0.401597
248	0xbe7962ab	-0.24354045
249	0x3f63f162	0.89040196
250	0xbf972f05	-1.1811224
251	0x3e42a5c6	0.1900855
252	0x3ea33899	0.31879118
253	0x3db293f4	0.08719626
254	0xbe059525	-0.13045175
255	0xbdbc92e0	-0.09207702

Linear3.weight f4 [256, 256]
0	0xbe9bb849	-0.30414036
1	0xbe349a99	-0.176371
2	0xbdc52a18	-0.09627169
3	0x3d01eec3	0.03172184
4	0xbd5f7d81	-0.05456305
5	0xc013f788	-2.311983
6	0x3d2e34a7	0.042530682
7	0xbdfcfbe2	-0.1235273
8	0x3e240bbf	0.16020106
9	0xbda38381	-0.07984067
10	0x3c1bb0e8	0.009502627
11	0xbf809bd4	-1.0047555
12	0xbebac12a	-0.36475497
13	0x3fa76abb	1.3079447
14	0xbd0a1bb5	-0.03371783
15	0xbce44e01	-0.027869226
16	0xbce2d438	-0.027689084
17	0xbf51a7cb	-0.81896657
18	0x3dfc2eae	0.12313591
19	0xc02b4974	-2.6763582
20	0xbe1dc815	-0.15408356
21	0x3e581ce5	0.21104772
22	0xbf6b319d	-0.9187258
23	0xbf8def46	-1.1088645
24	0x3e4000f9	0.18750371
25	0xbe14fd7d	-0.14549823
26	0x3d4ee6fb	0.05051325
27	0xbe83a23b	-0.2570971
28	0x3c5b8cce	0.01340027
29	0x3e2837de	0.16427562
30	0xbea5dd60	-0.32395458
31	0x3db73a14	0.089466244
32	0xbde78626	-0.11304884
33	0xbdd1f77a	-0.102522805
34	0x3d6a2e27	0.05717292
35	0xbd60bc94	-0.054867342
36	0xbc8aba8e	-0.01693466
37	0xbf09e17e	-0.538597
38	0xbfc6df4e	-1.5536897
39	0x3cc7f42f	0.024408428
40	0xbcf71f74	-0.030166365
41	0xbb58e20e	-0.0033093723
42	0xbe422aa8	-0.18961585
43	0xbd2dfdc1	-0.042478327
44	0x3dcbda09	0.09953696
45	0xbf66add3	-0.90108985
46	0xbcbce375	-0.023057679
47	0xbd8cd1da	-0.068759635
48	0xc01321ee	-2.298946
49	0xbfca4a44	-1.5803914
50	0xbea3f414	-0.32022154
51	0xbcfe7218	-0.031060264
52	0x3daec255	0.0853316
53	0x3c89fad3	0.016843235
54	0xbefb496d	-0.49079457
55	0x3db37632	0.08762778
56	0xbe055247	-0.13019668
57	0xbc931a27	-0.017956806
58	0x3f797ee5	0.9745925
59	0x3e469f90	0.19396806
60	0xbfbc86ed	-1.4728676
61	0xbd3d97cd	-0.046287347
62	0xbdd4f0ee	-0.10397516
63	0x3cd0dc68	0.025495723
64	0xbe5ec8fd	-0.21756358
65	0xbf1df740	-0.617054
66	0xbd0cb1f6	-0.034349404
67	0x3d4c2793	0.04984243
68	0x3cf0d788	0.029399648
69	0x3dc6eb64	0.09712866
70	0xbe02bb81	-0.1276684
71	0x3ca382d1	0.019959839
72	0xbe353c0c	-0.17698687
73	0x3c340f6b	0.010990004
74	0xbd574ea4	-0.052565232
75	0xb9c92c09	-0.00038370516
76	0xbd9e2944	-0.077227145
77	0xbf9446d7	-1.1584119
78	0xbef96045	-0.4870626
79	0xbe2f6357	-0.17127739
80	0x3e53855c	0.20656341
81	0xbfa26222	-1.2686198
82	0xbf288db6	-0.65841234
83	0xbd9d6ec7	-0.07687145
84	0xbd6e0562	-0.058110602
85	0xc059f58e	-3.4056125
86	0x3cfa81e0	0.030579507
87	0xbe0c37eb	-0.13693206
88	0xbcb9554c	-0.02262368
89	0xbf1d53d1	-0.6145602
90	0xbd5992c6	-0.05311849
91	0xbf00d291	-0.503213
92	0xbf0377bb	-0.5135457
93	0xbde5bc33	-0.11217537
94	0x3e9b5773	0.30340156
95	0xbed4d3af	-0.41567752
96	0xbd8f2e3a	-0.06991239
97	0x3daf3a08	0.085559905
98	0xbf429eae	-0.76023376
99	0xbe7dc439	-0.24781884
100	0xbc001017	-0.007816336
101	0xbeb1ffa6	-0.34765357
102	0xbdca8379	-0.09888358
103	0x3d191719	0.037375543
104	0x3b6010ca	0.0034189695
105	0xbfa21b14	-1.2664514
106	0xbe47ecd4	-0.19523937
107	0xbf86eb89	-1.054063
108	0x3e4d7222	0.2006307
109	0xbcdc7dc3	-0.026915437
110	0xbeadb23f	-0.33925053
111	0xbeef8189	-0.46778515
112	0xbdc2f82c	-0.09519991
113	0x3e901892	0.28143746
114	0x3e17924b	0.148019
115	0x3ce43dce	0.027861502
116	0x3cbed92b	0.023296913
117	0xc01e9139	-2.4776137
118	0xbb35231c	-0.0027639335
119	0x3d2f7f96	0.042846285
120	0xbea99237	-0.33119366
121	0x3d1e8ce9	0.0387086
122	0xbf4bcf9b	-0.79613656
123	0xbd0f05ef	-0.034917768
124	0xbc493e14	-0.012282867
125	0x3f46c96e	0.7765111
126	0x3d4a13a3	0.049335133
127	0x3d2b1372	0.04176659
128	0xbe8e7e3a	-0.27830678
129	0x3cd2ec3d	0.025747413
130	0xbd01740b	-0.031604808
131	0xbfb9d045	-1.4516684
132	0xbcb5a4d4	-0.022173323
133	0x3d386e5e	0.04502713
134	0xbd9bb630	-0.07603109
135	0xbcdeeae0	-0.027211607
136	0xbd9e9788	-0.07743746
137	0xbe912fbd	-0.28356734
138	0x3cbf7993	0.0233734
139	0x3c5d78ce	0.013517572
140	0xbf5f1e59	-0.8715568
141	0xbfbfb124	-1.4975934
142	0xbf659db6	-0.8969377
143	0xbea75b3a	-0.32686788
144	0x3d536ed2	0.05161936
145	0xbd396c97	-0.045269575
146	0x3ddae437	0.1068806
147	0xbb817b6e	-0.0039514815
148	0xbe21b9f2	-0.15793589
149	0xbcd932cf	-0.026513485
150	0xbbd7b6e3	-0.006583081
151	0xbd0de618	-0.034643263
152	0xbc89f908	-0.01684238
153	0xbf3f5606	-0.74740636
154	0xbd9f3735	-0.07774202
155	0x3f18d080	0.59693146
156	0x3c6366eb	0.013879518
157	0xbdcf170f	-0.1011182
158	0xbcda30b2	-0.026634548
159	0x3a2d7e00	0.0006618202
160	0x3e9efbaf	0.31051394
161	0x3d33616c	0.04379408
162	0xbd6d504b	-0.0579379
163	0xbfb36d6a	-1.4017766
164	0x3de5e04e	0.11224423
165	0xbea9f11b	-0.3319176
166	0xbdb1048b	-0.08643445
167	0x3dfc475d	0.12318299
168	0x3d64fdb2	0.055906005
169	0xbc13f48d	-0.009030473
170	0xbe44474e	-0.19167826
171	0xbc8537b9	-0.016261922
172	0xbf9bd40e	-1.2174089
173	0x3cc97dae	0.024596062
174	0xbc4ef651	-0.012631969
175	0x3c362644	0.011117522
176	0x3d373934	0.044732288
177	0x3c3af80d	0.011411679
178	0xbf1199ab	-0.56875104
179	0x3cbf359c	0.023340993
180	0xbdad54a4	-0.084634095
181	0xbe5ef862	-0.21774438
182	0x3e7a81a8	0.24463522
183	0x3f5c1f68	0.8598542
184	0xbd638155	-0.055543263
185	0x3c1ec678	0.009690873
186	0xbf32059f	-0.6953983
187	0x3e6702b7	0.2255963
188	0x3cb8ebfc	0.022573464
189	0xbe0fa1a4	-0.14026505
190	0x3e10fb52	0.14158371
191	0xbeadd448	-0.3395102
192	0xbe045e2b	-0.12926547
193	0xbd8880b3	-0.066651724
194	0xbc090ff2	-0.008365618
195	0xbc1b4283	-0.009476307
196	0x3d6ed40e	0.0583077
197	0xbfe14521	-1.7599221
198	0xbcbd98bd	-0.02314412
199	0xbe9c3f88	-0.3051722
200	0xbfaeeec4	-1.3666615
201	0x3e3aec89	0.18254294
202	0x3ee2ec5e	0.4432096
203	0xbd49125b	-0.04908977
204	0xbe3f7673	-0.18697529
205	0xbd4d0d53	-0.050061535
206	0xbd4bce3f	-0.04975724
207	0xbd24198c	-0.040063426
208	0xbed9f1ad	-0.42567196
209	0xbf36f36b	-0.71465176
210	0xbd66dc7b	-0.05636261
211	0xbbc4ad80	-0.006002128
212	0xbf0a1511	-0.53938395
213	0xbea3e7a4	-0.32012665
214	0x3ee88642	0.4541493
215	0x3e5f4c8c	0.21806544
216	0xbd093ebc	-0.033507094
217	0x3c36d500	0.011159182
218	0x3d0177f4	0.031608537
219	0xbd16504c	-0.03669767
220	0xbdbd9b8d	-0.092581846
221	0xbe98ce08	-0.2984469
222	0xbf22e32a	-0.63627875
223	0xbdb47a8e	-0.08812438
224	0xbf8970e8	-1.0737581
225	0xbd7e882c	-0.062141582
226	0x3e12c314	0.14332229
227	0x3d78c7be	0.060737364
228	0xbd19bc6b	-0.037533205
229	0xbf91efa6	-1.140126
230	0xbbec5197	-0.0072118747
231	0x3b1a59e0	0.0023552105
232	0xbe6327e9	-0.22183193
233	0xbe8dcd5d	-0.27695742
234	0x3d3188b0	0.043343246
235	0x3cd4c15c	0.025971107
236	0xbc442978	-0.011972778
237	0x3eed25d0	0.4631791
238	0xbf3b1652	-0.73080933
239	0xbc8f4190	-0.017487317
240	0xbd2aa3ec	-0.041660234
241	0xbea46259	-0.32106283
242	0x3dad368c	0.084576696
243	0xbe7aea40	-0.24503422
244	0xbff087db	-1.879146
245	0xbff73ec0	-1.9316025
246	0xbd1f54b4	-0.03889914
247	0x3dfea378	0.12433523
248	0x3e0b36dd	0.13595147
249	0xbf8ce905	-1.1008612
250	0xbcd84134	-0.026398279
251	0xbf057dce	-0.5214509
252	0xbdf0282a	-0.11726411
253	0xbd313632	-0.043264575
254	0x3c34a138	0.011024766
255	0xbd2e367a	-0.04253242

Linear3.bias f4 [256]
0	0xbeacf1b9	-0.3377817
1	0xbf0ba8e5	-0.5455459
2	0xbf2b8df6	-0.6701349
3	0xbf469ac6	-0.77579916
4	0xbf583f78	-0.84471846
5	0xbee57c38	-0.44821334
6	0xbebeb2ea	-0.37245876
7	0xbe95003b	-0.29101738
8	0xbe9ae0ff	-0.30249783
9	0xbf0846ab	-0.5323283
10	0xbf4e4b03	-0.8058321
11	0xbf3edc65	-0.74555045
12	0xbf6f967f	-0.93589014
13	0xbe1d8a5f	-0.15384816
14	0xbf506dda	-0.8141762
15	0xbf1be468	-0.60895395
16	0xbf0f2584	-0.5591662
17	0xbf872d60	-1.0560722
18	0xbfacebc7	-1.3509454
19	0x3f462410	0.77398777
20	0xbf3e5ea3	-0.74363154
21	0xbf6a2c48	-0.9147382
22	0xbf962bf9	-1.1732169
23	0xbf47ba18	-0.7801833
24	0xbef469a4	-0.47736847
25	0xbf3c135e	-0.7346705
26	0xbf262a07	-0.6490788
27	0xbe7c0093	-0.24609594
28	0xbf19c5df	-0.6006755
29	0xbf216e18	-0.63058615
30	0xbf637046	-0.8884319
31	0xbec2b5d7	-0.38029358
32	0xbf0410e6	-0.51588285
33	0xbf7787b5	-0.9669145
34	0xbf4d2d6e	-0.80147445
35	0xbf3af5f8	-0.7303157
36	0xbf0003e4	-0.50005937
37	0xbf3d3737	-0.73912376
38	0xbeeb90d4	-0.46008933
39	0xbf45b37d	-0.77227
40	0xbf172816	-0.5904554
41	0xbf80d35a	-1.0064499
42	0x3d18f36c	0.03734152
43	0xbf7baed3	-0.98313636
44	0xbeca590a	-0.39521056
45	0xbf517d57	-0.8183188
46	0xbf8cb6f5	-1.0993334
47	0xbe9cdb74	-0.3063618
48	0xbf81414b	-1.0098051
49	0xbf5e1acb	-0.8675963
50	0xbf4ca01e	-0.7993182
51	0xbf21fcdd	-0.63276464
52	0xbf550f40	-0.83226395
53	0xbed2226a	-0.4104188
54	0xbeea86ab	-0.45805869
55	0xbf86e7b5	-1.0539461
56	0xbf0f6234	-0.5600922
57	0xbddb6011	-0.107116826
58	0xbfa10eaf	-1.2582606
59	0xbf807bea	-1.0037816
60	0xbf3e51b0	-0.74343395
61	0xbf4e309b	-0.80542916
62	0xbf5085e5	-0.81454307
63	0xbf8ae1fb	-1.0850214
64	0xbf82157a	-1.0162804
65	0xbec11af2	-0.3771587
66	0xbe792c9a	-0.2433342
67	0xbf52af47	-0.822987
68	0xbf645e3a	-0.8920628
69	0xbf9885b2	-1.19158
70	0xbf490a84	-0.7853167
71	0xbf28409b	-0.6572358
72	0xbf00d1cd	-0.5032013
73	0xbf33eb2f	-0.70280737
74	0xbf0a8a69	-0.5411745
75	0xbf752751	-0.9576312
76	0xbf652a4c	-0.89517665
77	0xbeebf187	-0.46082708
78	0xbeb27cf7	-0.34860966
79	0xbfa9d0b6	-1.3266819
80	0xbed8a793	-0.4231535
81	0xbf7aa501	-0.97908026
82	0xbe3420f8	-0.17590702
83	0xbfa576c3	-1.2926868
84	0xbf21497f	-0.6300277
85	0xbf151c78	-0.58246565
86	0xbf9fb476	-1.2476947
87	0xbf3cd8d5	-0.7376836
88	0xbf98eab6	-1.1946628
89	0xbf6087b2	-0.87707055
90	0xbf2e1b7c	-0.6801069
91	0xbf94d19d	-1.1626469
92	0xbf963870	-1.1735973
93	0xbfc50625	-1.53925
94	0xbec4c8a9	-0.38434342
95	0xbfa5ef78	-1.2963705
96	0xbefe4e31	-0.4966903
97	0xbf7b5167	-0.98171085
98	0xbee8cebf	-0.45470235
99	0xbf71afcd	-0.94408876
100	0xbed128eb	-0.4085153
101	0xbf837f57	-1.0273236
102	0xbf9e8d24	-1.2386823
103	0xbf7e7de0	-0.9941082
104	0xbf558e90	-0.8342066
105	0xbfa42923	-1.2825054
106	0xbf12c9c3	-0.57339114
107	0xbe574720	-0.21023226
108	0xbfae6704	-1.3625188
109	0xbf69f10f	-0.9138345
110	0xbf84c41c	-1.0372348
111	0xbf2ad87b	-0.66736573
112	0x3ce95fdb	0.02848809
113	0xbf8e6801	-1.112549
114	0xbfbe9ec6	-1.4892204
115	0xbf240f2a	-0.6408564
116	0xbf581847	-0.84412044
117	0xbf1ef097	-0.6208586
118	0xbfa97f8e	-1.3242052
119	0xbf6058c4	-0.87635446
120	0xbe7d7f6b	-0.24755637
121	0xbfeebad0	-1.8650761
122	0xbf317280	-0.6931534
123	0x3def2ac9	0.116780825
124	0xbf8c2aa7	-1.0950516
125	0xbed64861	-0.41852096
126	0xbf04538e	-0.51689994
127	0xbed49fb8	-0.41528106
128	0xbf42fe41	-0.7616921
129	0xbfbee1e0	-1.4912682
130	0xbfe77eed	-1.808561
131	0xbf01c9aa	-0.5069834
132	0xbf5f6e1f	-0.87277406
133	0xbf8543ef	-1.0411357
134	0xbe680895	-0.22659524
135	0xbf37d400	-0.7180786
136	0xbebe8975	-0.37214246
137	0xbf2e020a	-0.6797186
138	0xbf51c9b3	-0.81948394
139	0xbfb2bfbe	-1.3964765
140	0xbf0973d5	-0.5369237
141	0xbe931c3a	-0.28732473
142	0xbf61c185	-0.8818591
143	0xbf8b6d8b	-1.0892805
144	0xbf841e77	-1.0321797
145	0xbf5adf5b	-0.85497063
146	0xbec3d3a3	-0.38247404
147	0xbf9b1476	-1.2115619
148	0xbf4e82e9	-0.80668503
149	0xbf3aea13	-0.7301342
150	0xbfa86a6a	-1.3157475
151	0xbec2b7cb	-0.38030848
152	0xbf7499e3	-0.9554731
153	0xbfc2dd90	-1.5223866
154	0xbf8135c7	-1.0094537
155	0xbf20a8a1	-0.6275731
156	0xbf507a26	-0.81436384
157	0xbe934059	-0.2876003
158	0xbf06c8ec	-0.5265033
159	0xbf8e8b6b	-1.1136297
160	0xbf30d0d0	-0.6906862
161	0xbf521922	-0.820696
162	0xbeccb4d1	-0.39981702
163	0xbfab5e29	-1.338811
164	0xbf42bb3b	-0.7606694
165	0xbf74d865	-0.9564269
166	0xbf4aae0d	-0.7917183
167	0xbf19734b	-0.5994155
168	0xbe7b5a47	-0.24546157
169	0xbf6b36d6	-0.9188055
170	0xbf2c9510	-0.6741495
171	0xbf00e02c	-0.5034206
172	0xbf6f3cfc	-0.9345243
173	0xbf417356	-0.75566614
174	0x3f76d047	0.96411556
175	0xbef8d1de	-0.48597616
176	0xbf33e92e	-0.7027768
177	0xbf6ff45f	-0.93732256
178	0xbed3973f	-0.4132633
179	0xbf84b3ff	-1.036743
180	0xbd9ee014	-0.07757583
181	0xbf4f1696	-0.8089384
182	0xbf114534	-0.5674622
183	0xbf2c3813	-0.6727306
184	0xbea4ddf2	-0.3220058
185	0xbf13af0a	-0.57688963
186	0xbf79b7ed	-0.97546273
187	0xbeb53131	-0.35389093
188	0xbef408a0	-0.4766283
189	0xbf30222a	-0.6880213
190	0xbf86b6b8	-1.0524511
191	0xbf639672	-0.88901436
192	0xbf07df19	-0.53074795
193	0xbeef25b5	-0.46708456
194	0xbf0504b8	-0.51960325
195	0xbf4cd5d9	-0.80013806
196	0xbf2179fc	-0.6307676
197	0xbf1430fa	-0.5788723
198	0xbf006fbc	-0.50170493
199	0xbf87c077	-1.0605611
200	0xbf79673a	-0.97423136
201	0xbe56ac26	-0.20964107
202	0xbf6a0298	-0.9141021
203	0xbef2f781	-0.47454455
204	0xbf251823	-0.64489955
205	0xbe5b0aa4	-0.21390778
206	0xbfa6a75c	-1.3019824
207	0xbf2b9414	-0.67022824
208	0xbedecd20	-0.43515873
209	0xbfb97fbd	-1.4492108
210	0xbf04a98e	-0.5182122
211	0xbfa7c8e7	-1.3108186
212	0xbe7d917a	-0.24762526
213	0xbf5886ee	-0.84580886
214	0xbe8566e7	-0.2605507
215	0xbf4ac5d0	-0.7920809
216	0xbf584158	-0.84474707
217	0xbf112fa5	-0.56713325
218	0xbf7954b7	-0.9739489
219	0xbd4714e0	-0.048603892
220	0xc00dd7fa	-2.2163072
221	0xbf734d3e	-0.9503974
222	0xbf313dff	-0.69235224
223	0xbf253e96	-0.64548624
224	0xbf2663c0	-0.64995956
225	0xbee683f1	-0.45022538
226	0xbec9adda	-0.3939045
227	0xbf100b6c	-0.5626743
228	0xbea8af7b	-0.3294638
229	0xbf800891	-1.0002614
230	0xbf49d0a2	-0.78833973
231	0xbf19d678	-0.6009288
232	0xbf82e758	-1.022685
233	0xbf55b62f	-0.83481115
234	0xbe9e3693	-0.30901012
235	0xbfa05fad	-1.2529198
236	0xbf3e4375	-0.7432168
237	0xbf86309f	-1.0483588
238	0xbf25ed1c	-0.64814925
239	0xbf789f9f	-0.9711856
240	0xbdc0b0ab	-0.09408697
241	0xbf28e660	-0.65976524
242	0xbf51af24	-0.8190787
243	0xbf3273f3	-0.69708174
244	0xbf349cb0	-0.70551586
245	0xbf05f7c5	-0.5233119
246	0xbf4b6876	-0.7945627
247	0xbee02864	-0.43780816
248	0xbf03f7ba	-0.51549876
249	0xbeed55b0	-0.46354437
250	0xbf734229	-0.9502283
251	0xbf396842	-0.7242471
252	0xc019ae02	-2.4012456
253	0xbf6da135	-0.9282411
254	0xbf5779b0	-0.84170055
255	0xbf483cdb	-0.7821786

Linear4.weight f4 [7, 256]
0	0xbf1aa222	-0.60403645
1	0x3e77891c	0.24173397
2	0x3dada4b0	0.08478677
3	0xbe99a328	-0.3000729
4	0xbdd0a59d	-0.10187838
5	0x3c9a81da	0.018860746
6	0x3cc4c867	0.02402134
7	0xbdf71f94	-0.1206657
8	0x3d84bc76	0.064812586
9	0x3c836ca6	0.016043019
10	0x3e2be497	0.16786419
11	0xbfbaaa82	-1.4583285
12	0xbd95d06c	-0.07315144
13	0xbe7d4de2	-0.24736741
14	0x3e834a1d	0.2564248
15	0xbe106df0	-0.14104438
16	0xbcc16042	-0.02360547
17	0xbd00bc67	-0.031429674
18	0x3e546693	0.20742254
19	0x3e83d803	0.2575074
20	0xbb93c80c	-0.0045099314
21	0xbd5930c0	-0.053025007
22	0x3cd9b2d3	0.026574528
23	0xbd910a9c	-0.07082102
24	0xbd11eb33	-0.035624694
25	0xbdf29221	-0.11844278
26	0x3c5218f3	0.012823331
27	0x3cab6b1f	0.020925103
28	0xbed0e2e8	-0.40798116
29	0xbe6e238f	-0.23255752
30	0x3cf1f120	0.029533923
31	0xbdd0656d	-0.101755954
32	0x3e1b7d2f	0.15184473
33	0x3e200a00	0.15628815
34	0x3e908a6e	0.28230613
35	0x3e474fe8	0.19464076
36	0x3d3f0ff0	0.04664606
37	0xbd56acae	-0.052410774
38	0x3c87fa7f	0.016598938
39	0x3c557ad4	0.013029773
40	0x3f1634f0	0.58674526
41	0xbdcb78b9	-0.099351354
42	0x3e440567	0.19142686
43	0x3e56f4a0	0.20991755
44	0xbd62bf17	-0.05535802
45	0x3c08e4e8	0.008355357
46	0x3df98059	0.121826835
47	0xbe591af3	-0.21201687
48	0xbe662d4b	-0.22478215
49	0xbd5b7762	-0.05358065
50	0xbe800803	-0.25006112
51	0xbd63b93f	-0.055596586
52	0xbd0025de	-0.031286113
53	0x3ce681d6	0.028138082
54	0xbf033045	-0.5124553
55	0xbeb37bd7	-0.3505542
56	0xbdb13458	-0.08652562
57	0xbe5d2f4a	-0.2160007
58	0xbead2e06	-0.33824176
59	0x3c37693e	0.011194525
60	0xbd11f93b	-0.035638075
61	0xbddb0193	-0.1069366
62	0xbe6f6ab7	-0.23380552
63	0xbe0c32aa	-0.13691202
64	0xbe4f7e9d	-0.20263143
65	0xbcb1bcb7	-0.021696432
66	0xbe928cb3	-0.2862297
67	0x3e222907	0.15835963
68	0xbd4ef5db	-0.050527435
69	0x3d10726c	0.03526537
70	0xbd543fe6	-0.05181875
71	0x3e22826b	0.15870063
72	0x3daa3788	0.08311373
73	0x3defea55	0.11714617
74	0xbbe037e5	-0.0068426006
75	0xbc1cf247	-0.009579248
76	0x3cb0588f	0.021526603
77	0x3e8f557d	0.2799491
78	0x3e617e4f	0.22020839
79	0x3e0c3af6	0.13694367
80	0x3dfc6650	0.12324202
81	0xbea043b3	-0.3130165
82	0x3d2f3dc6	0.04278352
83	0x3ecffba8	0.40621686
84	0x3c0be064	0.008537386
85	0x3db3f6d6	0.087873146
86	0xbe50e09a	-0.20398179
87	0xbe9bd7a1	-0.3043795
88	0x3dbf6777	0.09345906
89	0x3d1e7f23	0.038695466
90	0x3b58f0d6	0.0033102534
91	0x3e8e7a86	0.27827853
92	0x3dfbf1f1	0.12302006
93	0x3df1b6a2	0.118024126
94	0xbf17d149	-0.5930372
95	0xbb1f8b81	-0.0024344625
96	0xbaf77080	-0.0018878132
97	0xbd9cbd49	-0.07653291
98	0x3ddcfa28	0.10789901
99	0x3ea388cc	0.31940305
100	0x3f16a13c	0.58839774
101	0x3d038940	0.032113314
102	0x3e85499a	0.26032716
103	0x3e23322a	0.15937105
104	0x3ccba9bd	0.024861211
105	0x3e93249f	0.28738877
106	0xba6aaa2b	-0.00089517486
107	0xbe0367bd	-0.12832542
108	0x3efb303f	0.49060246
109	0xbd9ac072	-0.07556237
110	0x3cf1b67e	0.029505964
111	0xbdfd0afc	-0.12355611
112	0xbe4e05b3	-0.20119362
113	0x3dd3d023	0.10342433
114	0x3ce49020	0.027900755
115	0xbd294836	-0.04132863
116	0x3e1dd860	0.15414572
117	0xbe06c0ca	-0.1315948
118	0xbe243739	-0.16036691
119	0xbe2d46bc	-0.16921514
120	0x3d2e0168	0.04248181
121	0xbe179093	-0.14801244
122	0xbc5169ba	-0.012781555
123	0xbd223fac	-0.039611503
124	0xbe7495c7	-0.2388526
125	0x3cd5e6d2	0.02611104
126	0x3e4c770d	0.1996729
127	0x3d8168b6	0.063188
128	0xbd05f2e3	-0.032702338
129	0x3cfbd159	0.030739473
130	0xba843036	-0.0010085169
131	0x3ea8be09	0.32957485
132	0xbde8bd87	-0.113642745
133	0xbf14822e	-0.5801114
134	0xbdea2e6c	-0.114346355
135	0xbe58dc25	-0.21177728
136	0xbd22a3db	-0.039707046
137	0x3d7f1c83	0.06228305
138	0xbd800eba	-0.06252809
139	0xbf8ec5e8	-1.1154146
140	0x3d76c7f6	0.06024929
141	0xbdeee102	-0.116640106
142	0x3fc72aac	1.5559897
143	0xbd1d9cac	-0.038479492
144	0xbe801bd3	-0.25021228
145	0x3a331e0e	0.00068327866
146	0xbdc0de2d	-0.09417377
147	0xbe334856	-0.17508063
148	0xbd06a19c	-0.032868966
149	0x3dbbf307	0.09177213
150	0x3e898dbc	0.26865947
151	0xbd5df429	-0.054187927
152	0xbe07c37b	-0.13258164
153	0xbed29698	-0.4113052
154	0xbd30f192	-0.04319913
155	0xbdbde870	-0.092728496
156	0x3e51886b	0.20462196
157	0x3cd0213e	0.025406476
158	0x3de5c1da	0.11218615
159	0x3e05d042	0.13067725
160	0xbda343e2	-0.07971932
161	0xbed6cdab	-0.41953787
162	0x3c8213e1	0.01587862
163	0xbd04928a	-0.032366313
164	0xbe776345	-0.24158962
165	0x3eb7172d	0.3575987
166	0xbe016426	-0.1263586
167	0xbe2ea17a	-0.17053786
168	0xbd0d8a99	-0.034556005
169	0x3d4d2012	0.050079413
170	0xbd87d1c0	-0.066318035
171	0xbe7728b8	-0.24136627
172	0xbf5d8ae7	-0.86540073
173	0x3e87f44c	0.2655357
174	0x3d4cb004	0.04997255
175	0x3e6bf4b1	0.23042561
176	0xbda7b3b3	-0.08188572
177	0x3d9d225a	0.07672568
178	0xbe0f9b53	-0.14024095
179	0x3c947eac	0.018126808
180	0x3dc6e7d8	0.097121894
181	0x3e72d8ca	0.23715511
182	0xbc35796a	-0.011076311
183	0xbeec4fab	-0.46154532
184	0x3e2e7088	0.17035115
185	0x3e1a48fa	0.15066901
186	0x3ea56835	0.32306066
187	0x3d51c755	0.05121549
188	0xbd2123f9	-0.039340947
189	0xbbac11e6	-0.005251157
190	0xbde488e5	-0.11158923
191	0xbe6cffdb	-0.23144476
192	0xbe0267a2	-0.12734845
193	0x3d022a35	0.031778533
194	0xbe34dfc2	-0.17663482
195	0x3dba72e7	0.09103947
196	0x3b995f99	0.0046805856
197	0xbdf00c2d	-0.11721072
198	0xbe7b228d	-0.24524899
199	0xbc97af1a	-0.018516112
200	0xbd251242	-0.040300615
201	0x3e8f8727	0.280328
202	0x3e119dd5	0.14220364
203	0xbb2664ee	-0.0025389749
204	0xbe253093	-0.16131811
205	0xbc98beb4	-0.018645622
206	0x3e38b61b	0.18038218
207	0xbd1f1359	-0.03883681
208	0xbd4f8f6a	-0.05067388
209	0x3fcb1e6e	1.5868661
210	0xbe5980cf	-0.21240543
211	0xbe7b49ae	-0.24539825
212	0xbea37d86	-0.31931704
213	0x3cac9ab3	0.02106986
214	0x3c3527cd	0.0110568525
215	0xbd03c1fc	-0.03216742
216	0xbe3a2950	-0.18179822
217	0x3dea59fb	0.11442944
218	0xbe8664e4	-0.26248848
219	0xbd1fbdeb	-0.03899948
220	0xbf1346fd	-0.57530195
221	0x3da9b9c6	0.082873866
222	0x3d5a97a8	0.053367287
223	0x3dc293d4	0.09500852
224	0xbe74ae54	-0.23894626
225	0xbd28884b	-0.041145604
226	0xbf0156c2	-0.50523007
227	0xbe02e456	-0.12782416
228	0x3af992ac	0.0019040904
229	0x3c706b3c	0.014674004
230	0x3e69d623	0.22835593
231	0xbf0315ef	-0.51205343
232	0x3db23900	0.08702278
233	0x3ddcd392	0.10782541
234	0x3d588553	0.052861523
235	0xbdf1b009	-0.11801154
236	0x3f0929e8	0.5357957
237	0x3e30d1ec	0.17267579
238	0xbcaf0bf3	-0.021368003
239	0x3e0325e6	0.12807426
240	0xbd8c8add	-0.068624236
241	0xbd8b8363	-0.068121694
242	0xbdd72786	-0.10505585
243	0xbe13c1c4	-0.14429384
244	0x3e2b86de	0.16750666
245	0xbd787be7	-0.060665037
246	0xbe25e93a	-0.1620225
247	0x3c9a25f4	0.018816926
248	0x3d939c55	0.07207552
249	0x3d52d9c9	0.051477227
250	0x3f03c1a2	0.51467335
251	0x3e23b28f	0.15986083
252	0x3c8d76eb	0.017268619
253	0x3c41ef27	0.0118368035
254	0x3eb3fd85	0.35154358
255	0xbb471f46	-0.003038363

Linear4.bias f4 [7]
0	0x3e1290e7	0.14313088
1	0x3e9bfce4	0.30466378
2	0x3e34db8a	0.17661873
3	0x3d662002	0.05618287
4	0xbc967f50	-0.018371254
5	0xbe74110c	-0.23834628
6	0xbebe253f	-0.37137792
