dataBase/loadNet/88_actor_target_net.pkl (torch, 550223 bytes, 8 tensors)

Linear1.weight f4 [256, 13]
0	0xbfc67458	-1.5504255
1	0x3d6676e3	0.056265723
2	0xbe86bfbd	-0.2631816
3	0xbe63147a	-0.2217578
4	0xbf1f3d46	-0.6220287
5	0x3d7c034c	0.06152658
6	0x3e574509	0.21022429
7	0x3e35b988	0.17746556
8	0x3ce7fbf2	0.02831838
9	0x3e75c1bb	0.23999684
10	0xbf03965d	-0.5140131
11	0x3ee7733b	0.452051
12	0xbf7077d4	-0.93932843
13	0xbf9e6788	-1.2375345
14	0x3f65de27	0.897921
15	0xbebb7f4f	-0.36620566
16	0xbf825ee9	-1.0185214
17	0xbf6ec063	-0.9326231
18	0x3e321211	0.17389704
19	0x3dec63ea	0.115424946
20	0x3e76e0fb	0.2410926
21	0x3e3cfe8c	0.18456477
22	0xbf15c6b5	-0.5850633
23	0xbeaca317	-0.33718178
24	0xc019618c	-2.3965788
25	0xbf58848d	-0.84577256
26	0xbe0db51c	-0.13838619
27	0x3e307751	0.17233016
28	0xbf9b45e0	-1.2130699
29	0x3f01cdf4	0.50704885
30	0xbeb7da22	-0.3590861
31	0x3eab8e8e	0.33507198
32	0x3ea3b414	0.31973326
33	0xbeb48c8c	-0.3526348
34	0xbe09bffe	-0.13452145
35	0xbe2d5d53	-0.16930132
36	0xbf66b3c9	-0.9011808
37	0x3f8251d8	1.0181227
38	0xbd0ce09a	-0.034393884
39	0xbeaeaba7	-0.34115335
40	0x3c9946dc	0.018710546
41	0xbf3b784c	-0.73230433
42	0xbe49ff3f	-0.19726275
43	0xbdf91f23	-0.12164142
44	0x3f9227d2	1.1418402
45	0x3d0191e0	0.031633258
46	0xbdc2391e	-0.094835505
47	0xbe8df383	-0.27724847
48	0x3ee07dc9	0.43845966
49	0xbf057c6c	-0.5214298
50	0xbe2585e2	-0.16164353
51	0x3ea16e61	0.31529525
52	0xbf32d358	-0.69853735
53	0xbf819c1c	-1.0125766
54	0xbf8b2715	-1.0871302
55	0xbef500c3	-0.47852144
56	0xbf3125a8	-0.69198084
57	0xbe1c5715	-0.15267594
58	0x3e38eb7f	0.18058585
59	0x3ccc0c61	0.024908246
60	0x3e3e281f	0.18569992
61	0x3d5153f1	0.051105443
62	0xbf94143e	-1.1568677
63	0x3feec252	1.8653052
64	0xbec54ab1	-0.38533548
65	0xbf662c50	-0.89911366
66	0x3f8e797e	1.1130826
67	0xbf261401	-0.64874274
68	0xbeff75d5	-0.49894586
69	0x3ed3f3eb	0.41397032
70	0xbf19a6f4	-0.60020375
71	0x3fa44986	1.2834938
72	0x3e441371	0.19148041
73	0x3e28adab	0.16472499
74	0xbeac7bba	-0.33688146
75	0xbf42f915	-0.7616132
76	0xbfbf799f	-1.4958991
77	0xc00becbe	-2.1863246
78	0xbf05fa15	-0.5233472
79	0xbf143da5	-0.5790656
80	0xbf5cbdd2	-0.8622714
81	0xbde0028a	-0.10937984
82	0xbeb461c8	-0.3523085
83	0x3f256126	0.6460136
84	0x3ed5ad3a	0.41733724
85	0xbc4150b8	-0.01179903
86	0x3e2fb996	0.17160639
87	0x3e4d6cb8	0.20061004
88	0xbef0fd6c	-0.47068346
89	0xbefb0ba3	-0.49032316
90	0xbf5e63b2	-0.8687087
91	0xbea6ebaf	-0.32601687
92	0x3f72714c	0.9470413
93	0xbfb70bcf	-1.4300479
94	0xbf0b9dd4	-0.545377
95	0xbecd21b9	-0.4006479
96	0x3eb5564f	0.3541741
97	0x3e91f79d	0.28509226
98	0xbbf3b4bb	-0.0074373162
99	0x3db20387	0.08692079
100	0x3e831574	0.25602305
101	0xbf52e96a	-0.8238741
102	0x3f10c87e	0.56555927
103	0xbf2f678f	-0.6851739
104	0xbeb262d8	-0.34841037
105	0x3e9f124d	0.3106865
106	0xbfad4ed7	-1.3539685
107	0x3e50f249	0.20404924
108	0xbf191006	-0.59790075
109	0x3e867d55	0.26267496
110	0x3f8b24bc	1.0870585
111	0x3ea56e6e	0.32310814
112	0x3e8c4694	0.27397597
113	0x3e3b8457	0.18312202
114	0xbf2ddf5f	-0.6791896
115	0xbf7726c4	-0.96543527
116	0xbfdd5c6a	-1.7293828
117	0xbf269b37	-0.6508059
118	0xbe261b16	-0.1622127
119	0xbf080d54	-0.5314534
120	0x3e893d3d	0.26804534
121	0xbe2efc87	-0.17088519
122	0xbc2f9f07	-0.010719067
123	0x3e867d54	0.26267493
124	0xbe13284d	-0.14370842
125	0x3d7f68d4	0.06235583
126	0xbe289896	-0.16464457
127	0xbf6affd3	-0.91796607
128	0xbf436a38	-0.7633395
129	0xbfc956a1	-1.5729562
130	0xbeb5565e	-0.35417455
131	0xbf960f89	-1.1723491
132	0xc001212d	-2.01765
133	0xbf24846e	-0.6426457
134	0xbec62ddf	-0.38706872
135	0x3eb99090	0.36243105
136	0x3f9c8fdb	1.2231401
137	0xbdc8484d	-0.09779415
138	0x3ce61a40	0.028088689
139	0x3e51b0d8	0.20477617
140	0xbd069f5a	-0.032866813
141	0x3fb7373e	1.4313734
142	0x3f0e2c55	0.55536395
143	0xbf51e929	-0.819964
144	0x3f41d8a8	0.75721216
145	0xbf136dd5	-0.57589465
146	0xbe547ee1	-0.20751525
147	0xbf06eb7d	-0.52703077
148	0x3e3dbabf	0.18528269
149	0x3c9d8635	0.019229034
150	0xbe52c3ea	-0.20582548
151	0xbe118bcd	-0.14213486
152	0xbdb934ef	-0.090432994
153	0xbe8c588d	-0.2741131
154	0x3e7b6644	0.2455073
155	0xbfe5a3f3	-1.7940658
156	0x3f026354	0.5093281
157	0xc04f2ad0	-3.236988
158	0xbd807d97	-0.06273954
159	0xbe847ff4	-0.2587887
160	0xbf4015e1	-0.75033385
161	0x3d05e5c5	0.03268983
162	0x3e10f2ad	0.14155073
163	0x3d8db115	0.06918541
164	0xbdd4e921	-0.10396028
165	0xbd9848ce	-0.074357614
166	0xc01f9336	-2.49336
167	0x4058f6a1	3.390053
168	0xc014eb16	-2.3268485
169	0xbeea011e	-0.45703977
170	0x3fc4ec4d	1.5384613
171	0xbf9c6972	-1.2219679
172	0xbf90de31	-1.1317807
173	0xbde5ebc8	-0.11226612
174	0x3dc94700	0.09827995
175	0x3fd70d23	1.6800884
176	0xbed8e665	-0.42363277
177	0xbe17485d	-0.14773698
178	0xbe8cef05	-0.27526107
179	0xbf95d7ec	-1.1706519
180	0xbeca0823	-0.39459333
181	0xbe2f4799	-0.17117156
182	0xbea1226e	-0.3147158
183	0xbe8d8eb5	-0.2764794
184	0xbe069a3d	-0.13144775
185	0xbc86b0e4	-0.01644177
186	0xbea8882e	-0.32916397
187	0x3e9a5695	0.30144182
188	0x3db5758f	0.08860313
189	0xbcd9aca9	-0.026571589
190	0xbe1ae0de	-0.15124843
191	0x3d227d4f	0.039670285
192	0xbf3bedd0	-0.7340975
193	0x3e9783ee	0.29592842
194	0xbf7ceb54	-0.9879658
195	0xbfde64b3	-1.7374481
196	0x3e0a7e41	0.13524725
197	0xc003c566	-2.0589232
198	0xbea935c1	-0.33048823
199	0xbe8d597d	-0.27607337
200	0x3e803a1f	0.25044343
201	0x3f1a6772	0.60314095
202	0xbe7d8df5	-0.24761184
203	0xbe6caa2d	-0.23111792
204	0xbdd70c68	-0.10500413
205	0xbe5bd4df	-0.21467923
206	0xbcfcb2e2	-0.030847017
207	0xbf54a1fb	-0.8305966
208	0xbfe016db	-1.7506975
209	0x3f35f8d0	0.7108278
210	0xbfbc7b38	-1.4725103
211	0x3e6ca293	0.23108892
212	0xbedebfe2	-0.4350577
213	0xbe7f842b	-0.24952762
214	0x3e9c17cd	0.3048691
215	0x3cc66bc0	0.024221301
216	0xbf0d17f4	-0.55114675
217	0xbdebcfa2	-0.11514212
218	0xbccd4a59	-0.025059866
219	0x3f113ce6	0.5673355
220	0xbfa4e8d7	-1.2883557
221	0xbf0e10a9	-0.5549417
222	0xbf0b2f6f	-0.5436925
223	0xbee92e53	-0.45543155
224	0xbf84a09a	-1.0361512
225	0xbe1c0552	-0.15236405
226	0x3d279ba5	0.04091992
227	0x3f304d4d	0.6886795
228	0xbe9b9614	-0.30387938
229	0xbdd5d30a	-0.10440643
230	0xbe559d55	-0.20860799
231	0xbeca0654	-0.39457953
232	0x3f1da780	0.6158371
233	0xbf22ea54	-0.63638806
234	0xbefeb524	-0.49747574
235	0x3fa0de76	1.256789
236	0x3e0407a4	0.1289354
237	0xbee0a1ea	-0.4387353
238	0xbf47d000	-0.7805176
239	0x3e9f85ee	0.31156868
240	0x3e658e12	0.22417477
241	0x3dd8e892	0.10591234
242	0xbe8ef54c	-0.27921522
243	0x3e0dc30c	0.13843936
244	0xbf547afa	-0.8300015
245	0xbe4d70a0	-0.20062494
246	0xbfbbda48	-1.4675989
247	0xbec41980	-0.38300705
248	0xbfca4c11	-1.5804464
249	0x3f924bbf	1.1429366
250	0x3f8c0174	1.0937943
251	0xbf011154	-0.50417066
252	0x3dadbf05	0.084837
253	0x400167b0	2.0219536
254	0x3dc92884	0.09822181
255	0x3ad18d56	0.0015987556

Linear1.bias f4 [256]
0	0xbf4cfe91	-0.8007594
1	0xbf585ff0	-0.8452139
2	0xbec4703f	-0.38366887
3	0xbe7d8ac5	-0.24759968
4	0xbf67b66b	-0.9051272
5	0xbf6e568c	-0.9310081
6	0xbf569dda	-0.8383461
7	0xbf808053	-1.0039161
8	0xbf814ba5	-1.010121
9	0xbedb140a	-0.42788726
10	0xbf8f8c1c	-1.1214633
11	0xbf3be470	-0.7339544
12	0xbda51d2f	-0.08062207
13	0xbf0a1e63	-0.53952616
14	0xbef14eac	-0.47130334
15	0xbf9f363a	-1.2438424
16	0xbf9cc476	-1.2247455
17	0xbf422c0a	-0.7584845
18	0xbf90ca0e	-1.1311662
19	0xbf684b50	-0.9073992
20	0xbeb9a2d3	-0.36257038
21	0xbe7b1f4a	-0.24523655
22	0xbf3882cf	-0.720746
23	0xbf3e9260	-0.744421
24	0xbf148ee6	-0.58030546
25	0xbf44fa39	-0.7694431
26	0xbe9ad5eb	-0.3024133
27	0xbecde28b	-0.402119
28	0xbf184356	-0.59477746
29	0xbf55a88a	-0.83460295
30	0xbf31f320	-0.69511604
31	0xbf32ede8	-0.69894266
32	0xbea9b99f	-0.3314943
33	0xbeb4bc22	-0.35299784
34	0xbf29cfd0	-0.6633272
35	0xbf768f2e	-0.96312225
36	0xbf117dcc	-0.56832576
37	0xbf1bc84b	-0.608525
38	0xbf380e68	-0.7189698
39	0xbf702423	-0.9380514
40	0xbda3db70	-0.08000839
41	0xbe2d67ea	-0.16934171
42	0xbf0c0f1d	-0.5471056
43	0xbf8fd9cb	-1.123834
44	0xbf45d8e1	-0.77284056
45	0xbf648153	-0.89259833
46	0xbece70e1	-0.40320495
47	0xbce15b0e	-0.027509239
48	0xbf0a47a5	-0.5401557
49	0xbf10980e	-0.5648202
50	0xbf4c4249	-0.79788643
51	0xbf8a4516	-1.0802333
52	0xbf768a84	-0.9630511
53	0xbe3c1cb0	-0.18370318
54	0xbdff67e2	-0.12470986
55	0xbf2b04c1	-0.6680413
56	0xbee4277b	-0.4456137
57	0xbecdc1e1	-0.4018698
58	0xbe803232	-0.25038296
59	0xbf2d2957	-0.67641205
60	0xbeecb3c3	-0.46230897
61	0xbea216f7	-0.31658146
62	0xbea0df2c	-0.31420267
63	0xbc17a7a9	-0.009256282
64	0xbf068f4d	-0.5256241
65	0xbf0d1345	-0.5510753
66	0xbf4217f1	-0.7581778
67	0xbf3d0a56	-0.73843896
68	0xbf1424a6	-0.5786842
69	0x3eb20561	0.3476973
70	0xbf3bd660	-0.73373985
71	0x3eb59451	0.3546472
72	0x3e51b587	0.20479403
73	0xbf0bf875	-0.5467599
74	0xbf49f601	-0.78891
75	0xbf929956	-1.1453044
76	0xbf1f525d	-0.6223505
77	0xbebf63c0	-0.3738079
78	0xbf2720cf	-0.65284437
79	0xbf1bbb9e	-0.60833156
80	0xbf314740	-0.69249344
81	0x3de80d09	0.11330611
82	0xbeea42c3	-0.4575406
83	0xbe9261e6	-0.28590316
84	0xbf011a6d	-0.5043095
85	0xbe07a24d	-0.13245507
86	0xbf1fb4ce	-0.6238526
87	0xbf180caf	-0.59394354
88	0xbe9beae7	-0.30452654
89	0xbf219640	-0.6311989
90	0xbf4395f9	-0.76400715
91	0xbf2e4107	-0.68067974
92	0xbf074d0a	-0.5285193
93	0xbf158fee	-0.58422744
94	0xbf0ad5c5	-0.54232436
95	0xbe841084	-0.2579385
96	0xbefadd8c	-0.48997152
97	0x3e964f73	0.2935749
98	0xbf1d4210	-0.6142893
99	0xbeecd575	-0.46256605
100	0xbbea0d70	-0.007142715
101	0xbe6be676	-0.23037133
102	0xbf68174b	-0.9066054
103	0xbf58648a	-0.8452841
104	0xbdf58579	-0.119883485
105	0xbbe6a89e	-0.0070391437
106	0xbf88a28d	-1.0674607
107	0x3e6d11e7	0.2315136
108	0xbf1b6f0e	-0.6071633
109	0xbf2e0caf	-0.67988104
110	0xbe2fffba	-0.17187396
111	0xbe92377e	-0.28557962
112	0xbf0c2adf	-0.54752916
113	0xbec618f1	-0.38690904
114	0xbf1380c4	-0.57618356
115	0xbf056285	-0.52103454
116	0xbf4aeb51	-0.79265314
117	0xbf16a15e	-0.58839977
118	0xbf0519dd	-0.5199259
119	0xbe54c20b	-0.20777147
120	0xbf85ae4d	-1.0443817
121	0xbeac9d7f	-0.3371391
122	0xbf170ebe	-0.5900687
123	0xbf63629b	-0.88822335
124	0xbef8920c	-0.48548925
125	0xbf037975	-0.51357204
126	0xbf44c334	-0.76860356
127	0xbf2d4639	-0.67685276
128	0xbe99fba0	-0.30074787
129	0xbf04e3f7	-0.51910347
130	0xbf711cec	-0.94184756
131	0xbf23aec7	-0.63938564
132	0xbfb50a88	-1.4143839
133	0xbf4a61d2	-0.7905551
134	0xbf18dc76	-0.59711397
135	0xbf02a685	-0.5103534
136	0xbe8b9df3	-0.27268943
137	0xbf3b0050	-0.7304735
138	0xbe84ff4d	-0.2597603
139	0xbf8afc1d	-1.0858189
140	0xbf2d95ef	-0.67806906
141	0xbece0a89	-0.40242413
142	0xbf80e615	-1.0070215
143	0xbeef6343	-0.46755418
144	0xbfac9d03	-1.3485416
145	0xbe97d921	-0.29657844
146	0xbee659fb	-0.44990525
147	0xbf864fca	-1.04931
148	0xbf1becd6	-0.6090826
149	0xbf4c06fa	-0.79698145
150	0xbe9bab6a	-0.30404216
151	0xbeed5e20	-0.46360874
152	0x3ec53b7c	0.38521945
153	0xbe6e32c3	-0.23261552
154	0xbeffd33f	-0.49965855
155	0xbf7f0d6c	-0.99629855
156	0xbf16f816	-0.589723
157	0xbf43b84b	-0.76453084
158	0xbf0ecad3	-0.55778235
159	0xbf62bf53	-0.8857319
160	0xbf2f78bf	-0.6854362
161	0xbf5052fe	-0.81376636
162	0xbf71b11c	-0.9441087
163	0xbf29e7bf	-0.6636924
164	0xbf6a0862	-0.9141904
165	0xbf31d4a8	-0.6946511
166	0xbed518c9	-0.41620472
167	0xbf1e1146	-0.6174511
168	0xbedc6332	-0.4304443
169	0xbebf54df	-0.3736944
170	0xbf44edd9	-0.76925427
171	0xbf087fad	-0.5331982
172	0xbecaf579	-0.39640406
173	0xbf949048	-1.1606531
174	0xbefaa235	-0.4895188
175	0x3f078a9d	0.5294588
176	0xbf57f022	-0.8435079
177	0xbf1b9ace	-0.6078309
178	0xbef9555c	-0.48697937
179	0xbed8ed42	-0.42368513
180	0xbf1e9b8e	-0.6195611
181	0xbed69aba	-0.41914922
182	0xbf5bb36a	-0.8582064
183	0xbf4d7a00	-0.8026428
184	0xbec2c34e	-0.3803963
185	0xbee91aab	-0.4552816
186	0xbf0adffd	-0.5424803
187	0xbf4287d9	-0.7598854
188	0xbf7f7554	-0.99788404
189	0xbf6febfb	-0.9371945
190	0x3f35e2b5	0.7104905
191	0xbf6f4d63	-0.9347746
192	0x3eb37a7c	0.35054386
193	0xbe69d134	-0.22833711
194	0xbf980b16	-1.1878383
195	0xbf132916	-0.5748457
196	0xbe580c80	-0.21098518
197	0xbf264097	-0.64942306
198	0xbebde1d0	-0.37086344
199	0xbee7927b	-0.45228943
200	0xbf4da431	-0.8032866
201	0xbf48dd89	-0.78463036
202	0xbf4cfe91	-0.8007594
203	0xbf27400f	-0.6533212
204	0xbf525d92	-0.82174027
205	0xbeeebf33	-0.46630248
206	0xbec35d02	-0.38156897
207	0xbfa74d15	-1.3070399
208	0xbf095255	-0.53641254
209	0xbf4768e0	-0.778944
210	0xbee7eb2e	-0.45296615
211	0xbf2225c0	-0.6333885
212	0xbf54b65a	-0.83090746
213	0xbed599b2	-0.41718823
214	0xbef11fcc	-0.47094572
215	0xbf11538e	-0.5676812
216	0xbf2d5e77	-0.67722267
217	0xbf1b41be	-0.6064719
218	0xbf44fea4	-0.7695105
219	0xbf29d906	-0.66346776
220	0xbedfc27a	-0.4370306
221	0x3db4f2ed	0.08835397
222	0xbf2411b2	-0.640895
223	0xbf420d01	-0.7580109
224	0xbe3f8f5e	-0.18707034
225	0xbedf5cea	-0.43625575
226	0xbf8a198d	-1.0789047
227	0xbf57b4bb	-0.8426015
228	0xbece634e	-0.40310138
229	0xbf20da8f	-0.62833494
230	0xbf6dc9fc	-0.9288633
231	0xbf4c4631	-0.79794604
232	0xbef2132d	-0.47280255
233	0xbeff33b4	-0.49844134
234	0xbf6ea633	-0.9322235
235	0x3d9b6bd1	0.07588924
236	0x3c1a1662	0.009404751
237	0xbf4ae4ed	-0.79255563
238	0xbedc752a	-0.4305814
239	0xbf6fc99b	-0.93667
240	0xbf6a49cb	-0.9151885
241	0xbf9c5e1e	-1.2216222
242	0xbf80fb90	-1.0076771
243	0xbf7c179b	-0.9847352
244	0xbf825730	-1.0182858
245	0xbea84e5f	-0.32872292
246	0xbf4785c8	-0.7793851
247	0xbf0cee8d	-0.550515
248	0xbf5220f6	-0.82081544
249	0xbf5ae923	-0.8551199
250	0xbf4d7619	-0.8025833
251	0xbeca6a69	-0.3953431
252	0xbf4fe7e1	-0.81213194
253	0xbf543bb2	-0.8290359
254	0xbf6d5e13	-0.9272167
255	0xbe116d20	-0.14201784

Linear2.weight f4 [256, 256]
0	0xbd625063	-0.055252444
1	0xbda650ff	-0.081209175
2	0x3e18baf7	0.14915071
3	0x3ec41a8f	0.38301513
4	0xbd131e26	-0.035917424
5	0x3dec039e	0.115241274
6	0x3e9da0c5	0.3078672
7	0x3ec430a8	0.38318372
8	0x3c8af44c	0.016962193
9	0x3aaef3ef	0.0013347844
10	0x3dbecbeb	0.09316238
11	0xbd5725ca	-0.052526273
12	0xbdcfee21	-0.10152841
13	0xbe9e26e9	-0.3088906
14	0xbd9342de	-0.07190488
15	0xbf3861ff	-0.7202453
16	0x3e7d2b63	0.24723582
17	0xbf48e125	-0.78468543
18	0x3d4fe3f8	0.050754517
19	0x3e210afc	0.15726846
20	0xbe8bfd42	-0.27341658
21	0xbe8bd0e6	-0.27307814
22	0x3dad64b6	0.08466475
23	0xbdafb037	-0.08578532
24	0x3cfbbaa3	0.030728644
25	0xbd4f6249	-0.05063084
26	0x3ee5608e	0.44800228
27	0x3d3ec343	0.046572935
28	0xbc2b4d8e	-0.010455502
29	0x3d48e558	0.049046844
30	0xbcf3155a	-0.029673267
31	0xbe1f8e85	-0.1558171
32	0xbdbd612b	-0.09247049
33	0xbed52627	-0.4163067
34	0xbef66779	-0.48125818
35	0xbe5e8014	-0.21728545
36	0x3f00b208	0.50271654
37	0x3e05c0c0	0.1306181
38	0xbce924d3	-0.028459942
39	0xbf669b25	-0.9008048
40	0x3e934b61	0.28768447
41	0xbf4dac01	-0.8034058
42	0xbd43a0d8	-0.047760814
43	0xbf63ebcc	-0.8903167
44	0x3e579199	0.21051635
45	0xbdb83c7f	-0.08995914
46	0xbc1d31d5	-0.0095944
47	0x3e93279d	0.2874116
48	0xbd70cc34	-0.058788493
49	0xbb88afd5	-0.0041713514
50	0xbe423be1	-0.18968154
51	0x3e1fb934	0.15597993
52	0xbd168796	-0.0367504
53	0xbd5e352e	-0.054249935
54	0xbf5c44ba	-0.8604237
55	0x3b34fd87	0.0027616934
56	0xbd10854d	-0.035283376
57	0xbd73b32c	-0.059497043
58	0xbd373790	-0.044730723
59	0x3d0f3df4	0.034971192
60	0x3d202eaf	0.03910702
61	0xbd6f4a43	-0.05842043
62	0xbf53fc43	-0.82806796
63	0xbd95cc99	-0.073144145
64	0x3c4c5da1	0.012473495
65	0x3d0ffa3c	0.03515075
66	0xbce50a0b	-0.02795889
67	0xbead037a	-0.33791715
68	0x3db6bc20	0.08922601
69	0x3e04a0e0	0.12951994
70	0xbc79c6a3	-0.015245113
71	0x3c5181ff	0.012787341
72	0xbe2bd2d3	-0.16779642
73	0xbb2ad21f	-0.0026065183
74	0xbc26c247	-0.010178155
75	0xbf247087	-0.64234203
76	0x3e085f57	0.1331762
77	0xbeeb5113	-0.45960292
78	0x3e2b4b36	0.1672791
79	0x3dc01f41	0.09380961
80	0xbd06d985	-0.032922287
81	0x3ec8ff9b	0.39257511
82	0x3e9ade85	0.30247894
83	0xbf14a22b	-0.5805995
84	0xbd01381d	-0.031547654
85	0xbdc4a2b9	-0.096013494
86	0xbe8d91d5	-0.27650324
87	0xbee2f489	-0.4432719
88	0xbe937796	-0.28802174
89	0xbdb0601c	-0.086120814
90	0xbd80fbf5	-0.06298057
91	0xbda9e7bf	-0.08296155
92	0xbb5c2834	-0.00335933
93	0x3d13f81d	0.03612529
94	0xbf318fe8	-0.6936021
95	0xbd5f6298	-0.054537386
96	0xbce43bcb	-0.027860543
97	0xbe1a3d9c	-0.15062565
98	0xbe1f6daf	-0.15569185
99	0x3ee7f0f5	0.45301023
100	0x3e3a9469	0.18220676
101	0xbd860375	-0.06543628
102	0x3e3311d7	0.17487274
103	0xbefc0a52	-0.49226624
104	0x3e7712b6	0.24128231
105	0xbd643d91	-0.055722777
106	0xbf08e29d	-0.53470784
107	0xbe68c257	-0.22730385
108	0x3c5efd99	0.013610267
109	0xbb90eade	-0.0044225296
110	0xbd13b296	-0.036058985
111	0xbdd5b216	-0.10434358
112	0xbe444d19	-0.19170035
113	0xbd6cb2fb	-0.057787877
114	0xbea64a91	-0.32478765
115	0xbdc3d540	-0.095621586
116	0x3e2054f6	0.1565741
117	0x3e26447f	0.16237067
118	0xbd1c212e	-0.03811758
119	0x3e992ad1	0.2991548
120	0x3cc595b0	0.024119228
121	0xbbaec1ee	-0.005333177
122	0x3ddbbcc9	0.10729367
123	0x3d9b08b6	0.07570021
124	0xbda752cf	-0.08170091
125	0x3c32b98f	0.010908498
126	0x3d9d1a66	0.07671051
127	0xbf527e0f	-0.822236
128	0xbf29af04	-0.6628268
129	0xbebc1a34	-0.3673874
130	0xbc6f4cbf	-0.0146057
131	0x3e1625ed	0.14662905
132	0xbd742dd3	-0.059614014
133	0x3e97dcfd	0.29660788
134	0xbd934aad	-0.07191978
135	0xbc37233f	-0.011177837
136	0x3dc003b1	0.09375704
137	0x3d28dc8e	0.041225962
138	0x3d35c2e8	0.04437533
139	0xbdd82929	-0.10554726
140	0xbe85fa55	-0.2616755
141	0xbe2e228f	-0.1700537
142	0xbdf985cc	-0.12183723
143	0xbc9533be	-0.01821315
144	0xbede4922	-0.4341517
145	0xbeee254a	-0.46512824
146	0x3d50b239	0.050951216
147	0x3ed2d023	0.4117442
148	0x3d94c406	0.07263951
149	0x3f3a57b6	0.72790086
150	0x3e5e1b21	0.21690036
151	0x3e55a811	0.20864893
152	0xbe2b3e81	-0.16723062
153	0x3f221c56	0.6332449
154	0xbd5bf906	-0.053704284
155	0xbe87d76d	-0.26531544
156	0xbb61a22b	-0.0034428935
157	0xbdfec21f	-0.124393694
158	0xbe8cb33d	-0.27480498
159	0x3df03f94	0.117308766
160	0xbd131336	-0.035906993
161	0xbe113827	-0.14181577
162	0x3bbd9797	0.005785893
163	0x3e43a729	0.19106735
164	0xbe409602	-0.18807223
165	0xbd244144	-0.040101305
166	0x3cdfe411	0.02733043
167	0xbd945a8d	-0.07243834
168	0xbd7dd104	-0.06196691
169	0x3ed8838e	0.42287868
170	0x3ecd7836	0.40130776
171	0x3ecc839d	0.39944163
172	0xbc7adcc4	-0.015311424
173	0xbf2a9489	-0.66632897
174	0x3d5a2165	0.053254504
175	0xbecd329c	-0.40077674
176	0x3d95192d	0.072801925
177	0x3c0e3a94	0.008680958
178	0x3d5e9421	0.054340485
179	0xbd04d455	-0.032429058
180	0x3d1e47f5	0.038642842
181	0xbd60d89a	-0.054894067
182	0xbccde5d0	-0.025133997
183	0xbc29e6f6	-0.010370007
184	0xbc4b4499	-0.012406492
185	0xbd87ed4d	-0.066370584
186	0xbe1c0446	-0.15236005
187	0x3dc5c997	0.09657591
188	0x3df82e0c	0.12118158
189	0xbd28355e	-0.04106652
190	0xbe9fc113	-0.3120199
191	0xbed1d282	-0.40980917
192	0x3e43fd08	0.19139493
193	0xbe573920	-0.21017885
194	0x3d749d8b	0.059720557
195	0xbd777b24	-0.06042017
196	0xbe0c30ed	-0.13690539
197	0xbf0e3904	-0.5555575
198	0xbd43e4e1	-0.047825698
199	0x3d25c076	0.04046675
200	0xbe60ce72	-0.21953753
201	0xbd0c8a72	-0.03431172
202	0x3f04e715	0.51915103
203	0xbd19d1c5	-0.037553567
204	0x3cf3a5e3	0.029742187
205	0x3c14913d	0.009067831
206	0xbd76287f	-0.060097214
207	0xbf23ef9e	-0.640375
208	0x3efb3443	0.4906331
209	0x3d5169d1	0.051126305
210	0xbf03d4dd	-0.5149668
211	0xbe64978c	-0.22323436
212	0xbec2f829	-0.38079956
213	0x3d20b2b6	0.039232932
214	0xbe03f035	-0.128846
215	0x3c5c6a39	0.01345306
216	0xbd5add5a	-0.053433754
217	0xbd3b7198	-0.04576263
218	0x3f0c0f56	0.547109
219	0xbe782ed3	-0.24236612
220	0xbdc31831	-0.095260985
221	0xbdde7d8a	-0.108637884
222	0xbed8cc72	-0.4234348
223	0x3ead1e67	0.33812258
224	0x3d903948	0.070421755
225	0xb8c96d48	-9.604782e-05
226	0xbf42ff31	-0.7617064
227	0xbfc03a98	-1.5017881
228	0xbe74e271	-0.23914506
229	0xbd88bac5	-0.066762485
230	0xbdd15afa	-0.102224305
231	0xbc57081a	-0.01312449
232	0xbe5dd106	-0.21661767
233	0xbda4a66e	-0.080395564
234	0xbf00a53d	-0.50252134
235	0xbe64979e	-0.22323462
236	0x3cde71c5	0.027153859
237	0x3eae5deb	0.3405603
238	0xbd76b7d3	-0.060233902
239	0xbe29999e	-0.16562507
240	0x3bc320c8	0.0059548356
241	0x3da8b3ef	0.082374446
242	0xbe15be06	-0.1462327
243	0x3e570cc9	0.21000971
244	0x3eb56909	0.35431698
245	0xbceec4ab	-0.029146513
246	0x3eb5ab77	0.3548238
247	0x3c46bdc8	0.012130208
248	0xbe37c72d	-0.17947073
249	0x3e0c367c	0.13692659
250	0xbe561392	-0.20905903
251	0x3e3df6e7	0.18551217
252	0x3c2799e6	0.010229563
253	0xbee8093a	-0.4531954
254	0xbd782c7b	-0.060589295
255	0xbe9b827f	-0.30372998

Linear2.bias f4 [256]
0	0xbf2fd057	-0.68677276
1	0xbed8409a	-0.42236787
2	0xbd74492c	-0.059640095
3	0xbf247c3f	-0.64252084
4	0xbe19639e	-0.14979407
5	0xbf22a6c2	-0.635357
6	0xbef55dbc	-0.47923076
7	0xbe38456c	-0.17995232
8	0xbe8194ff	-0.25308987
9	0xbe25317f	-0.16132163
10	0xbe0e5395	-0.13899072
11	0xbed755b2	-0.42057568
12	0xbe990dd7	-0.2989337
13	0x3ef9282a	0.48663455
14	0xbeb7dad8	-0.35909152
15	0xbe0a1a55	-0.13486607
16	0xbe073cbd	-0.13206764
17	0x3e305889	0.17221273
18	0xbe09cc35	-0.13456805
19	0xbe287db3	-0.164542
20	0xbe0b15e5	-0.13582571
21	0xbebfb438	-0.37442183
22	0xbf12c998	-0.5733886
23	0x3ea349fe	0.3189239
24	0xbcab452f	-0.020907013
25	0xbec947c9	-0.3931258
26	0xbda5c77f	-0.080946915
27	0x3e898406	0.26858538
28	0xbcbe1880	-0.023205042
29	0xbf7ddd84	-0.9916613
30	0x3d6950ca	0.056961812
31	0xbe86a914	-0.2630087
32	0xbee23da2	-0.44187647
33	0xbe5b8939	-0.21439065
34	0xbf232ea7	-0.6374306
35	0xbe53fada	-0.20701161
36	0xbec29811	-0.38006642
37	0xbf292cc2	-0.6608392
38	0xbe99de73	-0.30052528
39	0xbe5f2aea	-0.21793714
40	0xbdc76431	-0.09735907
41	0xbe1c0a86	-0.1523839
42	0xbef33878	-0.4750402
43	0xbe85ce55	-0.2613398
44	0xbf32b418	-0.6980605
45	0xbe0bf875	-0.13668998
46	0xbd625a8b	-0.05526213
47	0xbeda45ca	-0.4263137
48	0x3ed9121e	0.42396635
49	0x3f61c0f9	0.8818508
50	0xbeef55fa	-0.46745282
51	0xbd9b6cb6	-0.07589094
52	0xbf7b9074	-0.9826729
53	0x3f154ec7	0.5832333
54	0xbd97d0d4	-0.07412878
55	0xbdec9de3	-0.11553552
56	0xbebbc3dd	-0.3667287
57	0xbe82ed9d	-0.2557191
58	0x3f33b122	0.7019216
59	0xbe1051be	-0.14093682
60	0x3f1f094e	0.6212357
61	0xbf111cdc	-0.5668466
62	0xbd7d91bc	-0.06190656
63	0xbdbfb2a8	-0.09360248
64	0xbee53d9b	-0.44773564
65	0x3f37a69d	0.71738607
66	0xbdc2da79	-0.095143266
67	0xbdba64d8	-0.09101266
68	0xbe12a50e	-0.14320776
69	0x3f0785b0	0.52938366
70	0xbf604cc3	-0.8761713
71	0xbd343cdf	-0.044003364
72	0xbf23b156	-0.6394247
73	0xbe0fcdb5	-0.14043315
74	0xbd5d837a	-0.054080464
75	0xbe098455	-0.13429387
76	0x3e9e4db3	0.30918655
77	0xbf0c5835	-0.54822093
78	0xbfdb54ac	-1.7135215
79	0xbecb6d01	-0.397316
80	0xbee4b0fb	-0.44666275
81	0xbe54b520	-0.20772219
82	0xbe8ce825	-0.27520862
83	0xbede06ba	-0.43364507
84	0xbcfaf04c	-0.03063216
85	0x3f362271	0.71146303
86	0xbda58387	-0.080817275
87	0xbe8038f1	-0.25043443
88	0xbd4da751	-0.050208393
89	0x3cea4402	0.028596882
90	0xbd88c67d	-0.06678484
91	0xbefdfab7	-0.49605343
92	0xbeaf26b7	-0.34209225
93	0xbdcac441	-0.09900714
94	0x3e922745	0.28545585
95	0xbf3ca0b8	-0.7368274
96	0xbebec5f0	-0.3726039
97	0xbe136d22	-0.143971
98	0x3ead9c2e	0.33908218
99	0xbf864ce5	-1.0492216
100	0x3eaf2e24	0.3421489
101	0x3e71beca	0.23607937
102	0xbdefebfb	-0.117149316
103	0xbefec654	-0.49760687
104	0x3ea6bb9b	0.32565007
105	0x3f146e1a	0.579805
106	0x3f1951e2	0.5989057
107	0xbd536efa	-0.051619507
108	0xbdd8535a	-0.10562773
109	0xbd9b33ae	-0.075782165
110	0xc001750e	-2.0227695
111	0xbf0b070d	-0.54307634
112	0xbf0de7c5	-0.5543178
113	0xbf55ce0a	-0.83517516
114	0x3eea37b2	0.45745617
115	0xbfe8e7ed	-1.8195778
116	0xbe6f12cb	-0.23347013
117	0xbf46b9bd	-0.77627164
118	0xbe03f805	-0.1288758
119	0xbd991a2e	-0.074756965
120	0x3e5780bd	0.21045204
121	0xbe135ba6	-0.1439043
122	0xbfa7aada	-1.3099015
123	0xbe7a9034	-0.24469072
124	0xbe1af20e	-0.15131399
125	0x3eb9588f	0.36200377
126	0xbe63cb4b	-0.22245519
127	0xbf471c51	-0.7777758
128	0xbe12041e	-0.14259383
129	0xbe92235e	-0.28542608
130	0xbe0a5105	-0.13507469
131	0x3eba0632	0.36332852
132	0xbdddbe12	-0.10827269
133	0xbed97a75	-0.4247624
134	0xbdd1ba4a	-0.1024061
135	0xbf15ffa6	-0.58593214
136	0xbeda85da	-0.42680246
137	0xbf5d3f74	-0.86424947
138	0xbf660e33	-0.89865416
139	0xbed19bd2	-0.40939194
140	0xbe051c35	-0.12999041
141	0xbe225659	-0.15853252
142	0xbcbfe061	-0.023422422
143	0xbf1e0d5e	-0.61739147
144	0xbe22b26e	-0.15888378
145	0xbe8dbe5d	-0.27684298
146	0x3ef96eeb	0.48717436
147	0xbdbef1b0	-0.09323442
148	0xbed6f0aa	-0.41980487
149	0xbe33b520	-0.17549562
150	0xbf1a3436	-0.6023592
151	0xbe8f8c15	-0.28036562
152	0xbf117c2e	-0.5683011
153	0xb9d03884	-0.0003971496
154	0xbf511e0a	-0.8168646
155	0xbef31d2c	-0.47483194
156	0xbde11c93	-0.10991778
157	0xbe527e62	-0.20556024
158	0xbeaccdef	-0.33750865
159	0xbe03370d	-0.12813969
160	0x3f09e690	0.53867435
161	0xbe4007ac	-0.18752927
162	0xbe006df7	-0.12541948
163	0xbee449ad	-0.4458746
164	0x3e92c64d	0.28666916
165	0xbf16a745	-0.58848983
166	0xbd3b29b7	-0.04569408
167	0x3edba492	0.42898995
168	0xbd716234	-0.058931544
169	0xbe8c731d	-0.27431574
170	0x3e118040	0.1420908
171	0xbdc889f1	-0.09791935
172	0xbbe3ad88	-0.006948177
173	0xbe130e86	-0.14361009
174	0xbf675960	-0.9037075
175	0xbed680f1	-0.4189525
176	0xbe4569f1	-0.19278695
177	0xbda91c9f	-0.08257412
178	0xbf50bfb0	-0.8154249
179	0xbdc7f581	-0.09763623
180	0x3d741753	0.059592556
181	0xbe4149b1	-0.18875767
182	0x3dd4b87d	0.10386751
183	0x3f5e9372	0.86943734
184	0xbe040d1d	-0.12895627
185	0xbe16ec5e	-0.14738604
186	0x3ec3068c	0.38090932
187	0x3e9a4b4c	0.30135572
188	0xbf0f4fed	-0.5598133
189	0xbea739cf	-0.32661292
190	0xbe68f39b	-0.22749178
191	0x3e85f5df	0.26164147
192	0xbe9a5696	-0.30144185
193	0x3f1cc981	0.6124497
194	0xbec03071	-0.37536958
195	0xbdb9eaf7	-0.09078019
196	0xbec13949	-0.37739018
197	0xbdf0d71e	-0.1175978
198	0xbdf94d8c	-0.12172994
199	0xbf115ff7	-0.56787056
200	0xbf0acb57	-0.5421652
201	0xbe00d805	-0.12582405
202	0xbf36c13a	-0.7138859
203	0xbdca77b1	-0.098861106
204	0xbe68e333	-0.2274292
205	0xbe11bc3e	-0.14231965
206	0xbf705d44	-0.9389231
207	0xbe797ba4	-0.24363571
208	0x3e8630c4	0.2620908
209	0x3f398c2f	0.7247953
210	0xbecef4e9	-0.40421227
211	0xbde72773	-0.11286821
212	0xbf53a03a	-0.8266636
213	0xbf35b0f0	-0.7097311
214	0x3f7f2e91	0.9968043
215	0xbe84630d	-0.2585682
216	0xbf68b453	-0.9090015
217	0xbdc2b689	-0.09507472
218	0xbdafd1cf	-0.0858494
219	0xbddd2cc2	-0.107995525
220	0xbf3e2d98	-0.7428832
221	0xbf5445da	-0.82919085
222	0xbf5f2920	-0.87172127
223	0xbe31f4b0	-0.17378497
224	0x3e964e35	0.29356542
225	0xbdb16360	-0.086615324
226	0xbe92028e	-0.28517574
227	0xbd555fe2	-0.052093394
228	0xbec93379	-0.39297083
229	0x3f070367	0.52739567
230	0xbd5e485a	-0.05426822
231	0xbdb5dcb0	-0.088799834
232	0xbf4fd841	-0.8118935
233	0xbec9eb41	-0.39437297
234	0xbd92280e	-0.07136546
235	0xbe9903c1	-0.29885677
236	0xbd417e09	-0.047239337
237	0x3e63fcb0	0.22264361
238	0xbf8f4ec3	-1.1195911
239	0xbdf70cfc	-0.120630234
240	0xbdc73939	-0.09727711
241	0xbf8ce785	-1.1008154
242	0xbf07134d	-0.52763826
243	0xbe0a3ebc	-0.13500494
244	0x3c12c1b9	0.00895732
245	0x3f59780a	0.8494879
246	0xbe6385c3	-0.22218995
247	0xbecd9df1	-0.40159562
248	0xbe576061	-0.2103286
249	0x3f77940d	0.9671028
250	0xbf451fa7	-0.7700142
251	0x3f286dfb	0.65792817
252	0xbf3505d8	-0.7071204
253	0xbe7ca75c	-0.24673218
254	0xbe059485	-0.13044937
255	0xbdbc92a8	-0.0920766

Linear3.weight f4 [256, 256]
0	0xbe1d905e	-0.15387103
1	0xbe349a08	-0.17636883
2	0xbdc529e1	-0.096271284
3	0x3d01eeec	0.031721994
4	0xbd5f7db9	-0.054563258
5	0xbfbff9bf	-1.4998091
6	0x3c259d4e	0.010108305
7	0xbddc0bb1	-0.107444175
8	0xbf7912a1	-0.9729405
9	0xbda38307	-0.07983976
10	0x3c1bb175	0.009502758
11	0xbdc86151	-0.09784187
12	0xbec858b8	-0.39130187
13	0x3ea6c6ef	0.3257365
14	0xbd0a1b1d	-0.033717263
15	0xbce44dc3	-0.02786911
16	0xbce2d3a3	-0.027688807
17	0xbf0c82bc	-0.54886985
18	0x3dfc2e44	0.12313512
19	0xbdbe25c8	-0.0928455
20	0xbe1dc7d6	-0.15408263
21	0x3e581d71	0.21104981
22	0xbf6b310b	-0.9187171
23	0xbf89243d	-1.0714184
24	0x3e4ab16c	0.19794244
25	0xbe14fd0e	-0.14549658
26	0x3d4ee7a0	0.050513864
27	0xbee995c7	-0.45622084
28	0x3c5b9440	0.013402045
29	0xbcff9ebb	-0.031203618
30	0x3e1efba5	0.15525682
31	0x3db73aaf	0.0894674
32	0xbde786c2	-0.11305
33	0xbdd1f801	-0.10252381
34	0x3d6a2e72	0.0571732
35	0xbd60bd42	-0.05486799
36	0xbc8aba7d	-0.016934628
37	0x3cb5b59f	0.02218133
38	0xbea046e6	-0.3130409
39	0xbd956816	-0.072952434
40	0xbcf71f74	-0.030166365
41	0xbb58e18a	-0.0033093416
42	0xbe211b67	-0.1573311
43	0xbd2dfd0f	-0.042477664
44	0x3dcbda60	0.09953761
45	0xbcf2e35b	-0.029649427
46	0xbcbce3e7	-0.023057891
47	0xbd8cd26c	-0.06876072
48	0xbf242353	-0.641164
49	0xbf6022da	-0.8755318
50	0xbea3f44e	-0.32022327
51	0xbcfe72bb	-0.031060567
52	0x3daec2b6	0.08533232
53	0xbf24b849	-0.64343697
54	0xbea1fd61	-0.31638625
55	0x3db375d8	0.08762711
56	0xbf1f4b42	-0.6222421
57	0xbc931976	-0.017956477
58	0x3e24ed15	0.16106065
59	0x3e46a018	0.19397008
60	0xbf2907b7	-0.66027397
61	0xbd3d985f	-0.04628789
62	0xbd4a3610	-0.049367964
63	0x3cd0dd31	0.025496097
64	0xbe5ec87a	-0.21756163
65	0xbe93b281	-0.28847125
66	0xbd0cb1f6	-0.034349404
67	0x3d4c26f1	0.049841825
68	0x3cf0d724	0.029399462
69	0xbe322430	-0.17396617
70	0x3e3d8988	0.18509495
71	0x3ca3ef9f	0.020011721
72	0x3db5500f	0.088531606
73	0x3c340ef8	0.010989897
74	0xbd574ea4	-0.052565232
75	0xb9c92ba9	-0.00038370237
76	0xbd666405	-0.05624773
77	0x3e0d95bc	0.1382665
78	0xbf5b868d	-0.85752183
79	0xbe2f62df	-0.1712756
80	0x3e5385a9	0.20656456
81	0xbf42ed09	-0.76142937
82	0xbe884d65	-0.26621547
83	0xbd9d6ec6	-0.07687144
84	0xbd6e0562	-0.058110602
85	0xbe5fc1f9	-0.21851338
86	0x3cfa8223	0.030579632
87	0xbe53a101	-0.20666887
88	0xbcb9554c	-0.02262368
89	0xbee9e75a	-0.4568432
90	0xbd5992c6	-0.05311849
91	0xbe417891	-0.18893649
92	0xbed0a9a2	-0.4075442
93	0xbcba7e9f	-0.022765456
94	0x3e9b579d	0.3034028
95	0x3d79fbc3	0.061031114
96	0xbd8f2e54	-0.06991258
97	0x3e634d83	0.22197537
98	0xbf34c438	-0.70611906
99	0xbe7ed913	-0.24887495
100	0x3c031254	0.007999975
101	0xbdba430d	-0.0909482
102	0xbdca8369	-0.09888346
103	0x3d1917d5	0.037376244
104	0x3da15143	0.078768276
105	0x3e817f9b	0.25292668
106	0xbed96111	-0.42456868
107	0xbe2c030c	-0.16798037
108	0x3e4d7169	0.20062794
109	0xbcdc7e89	-0.026915805
110	0xbf7645c3	-0.962002
111	0xbeef80f3	-0.46778068
112	0xbdc2f8f0	-0.09520137
113	0x3e9017ee	0.28143257
114	0x3e74aa0b	0.23892991
115	0xbe3e90e4	-0.18609959
116	0x3cbed8b0	0.023296684
117	0xbff803db	-1.9376177
118	0xbb352387	-0.0027639584
119	0x3d2f7fc6	0.042846464
120	0xbefec974	-0.49763072
121	0x3c90b4f7	0.017664416
122	0xbf3c5e4f	-0.73581403
123	0xbd0f05b5	-0.034917552
124	0xbc493da1	-0.01228276
125	0x3e523319	0.20527305
126	0x3d4a13b0	0.04933518
127	0x3d2b12f7	0.041766133
128	0xbc8049a2	-0.01566011
129	0x3cd2ec89	0.025747554
130	0xbd017444	-0.03160502
131	0xbe13077e	-0.14358327
132	0xbcb5a470	-0.022173136
133	0xbd58e7c9	-0.052955423
134	0xbd9bb626	-0.076031014
135	0xbcdeeae0	-0.027211607
136	0xbd9e97a5	-0.07743768
137	0x3d9f7364	0.07785681
138	0x3e2ffa6e	0.17185375
139	0x3c5d7951	0.013517694
140	0xbf5f1e69	-0.8715578
141	0xbed8f1a9	-0.42371872
142	0x3e1559c3	0.14585023
143	0xbea75b66	-0.3268692
144	0x3d536f01	0.051619533
145	0xbd396c68	-0.0452694
146	0x3da6ee20	0.081508875
147	0xbb817c14	-0.003951559
148	0xbe21b9fe	-0.15793607
149	0xbcd932ca	-0.026513476
150	0xbbd7b719	-0.0065831062
151	0xbd0de56d	-0.034642626
152	0xbc89f908	-0.01684238
153	0x3c3b356f	0.011426314
154	0xbd9f3706	-0.07774167
155	0x3f18d0bd	0.5969351
156	0x3c636683	0.013879421
157	0xbdcf1681	-0.10111714
158	0xbcda3179	-0.026634919
159	0x3a2d7e00	0.0006618202
160	0x3f3caae0	0.73698235
161	0x3c94ea0a	0.018178005
162	0xbd6d5003	-0.057937633
163	0xbf86ac8b	-1.0521406
164	0x3ef2c0c1	0.47412685
165	0xbe9b7485	-0.30362335
166	0xbdb10410	-0.08643353
167	0x3eafbd7e	0.3432426
168	0x3d64fdb2	0.055906005
169	0xbc13f436	-0.009030392
170	0xbf1151fe	-0.56765735
171	0xbc853854	-0.01626221
172	0x3eced419	0.40396193
173	0x3cc97db1	0.024596067
174	0xbf406b09	-0.7516332
175	0x3c3626e7	0.0111176735
176	0x3d3739e7	0.044732954
177	0x3c3af87f	0.011411785
178	0x3eb2e617	0.3494117
179	0x3d61b39e	0.055102937
180	0xbf1c21f6	-0.6098932
181	0xbe5ef8e9	-0.21774639
182	0x3e924a6d	0.28572407
183	0xbda95dbb	-0.08269831
184	0xbd638113	-0.055543017
185	0x3c1ec678	0.009690873
186	0xbed928a1	-0.4241381
187	0xbe911da5	-0.2834293
188	0x3d5fbf59	0.054625843
189	0xbe0fa12d	-0.14026327
190	0x3dbc0158	0.09179944
191	0xbd037450	-0.032093346
192	0xbe045e5c	-0.1292662
193	0xbe307b57	-0.1723455
194	0xbc0910b4	-0.008365799
195	0xbc1b434d	-0.009476495
196	0x3d6ed44a	0.058307923
197	0x3d68ac82	0.05680514
198	0xbcbd9927	-0.023144318
199	0xbe9c3ede	-0.30516714
200	0x3e8adffd	0.27124014
201	0x3e3aec00	0.1825409
202	0xbf1b3606	-0.6062931
203	0xbd4911e1	-0.049089316
204	0xbe3f75b8	-0.1869725
205	0xbd4d0ca1	-0.050060872
206	0xbd4bcde1	-0.04975689
207	0xbd241907	-0.04006293
208	0xbed85292	-0.42250496
209	0x3de0956b	0.10965999
210	0xbd66dd3a	-0.05636332
211	0xbbc4ad80	-0.006002128
212	0xbe060d9c	-0.13091129
213	0xbe85071d	-0.2598199
214	0x3d9912b7	0.07474273
215	0xbcd8dda2	-0.02647287
216	0x3c431ce1	0.011908741
217	0x3c36d500	0.011159182
218	0x3d0177f4	0.031608537
219	0xbd16504c	-0.03669767
220	0xbdbd9c47	-0.09258323
221	0xbe98cd9e	-0.29844373
222	0xbf1b0ef5	-0.605697
223	0xbdb47a00	-0.08812332
224	0xbef2bd7c	-0.4741019
225	0xbd7e882c	-0.062141582
226	0x3e12c2be	0.14332101
227	0x3d78c7be	0.060737364
228	0xbd19bbe6	-0.03753271
229	0x3e333f76	0.17504677
230	0xbbec5153	-0.007211843
231	0x3b1a59e0	0.0023552105
232	0x3cacd366	0.021096896
233	0xbbf9fe1b	-0.0076291687
234	0x3d3188b0	0.043343246
235	0xbebcfa82	-0.36909872
236	0xbc442978	-0.011972778
237	0xbea6b36f	-0.32558772
238	0x3dbdd5f8	0.09269327
239	0xbc8f4190	-0.017487317
240	0xbd2aa33f	-0.04165959
241	0xbe942ecd	-0.28941956
242	0x3d8bcfd4	0.068267494
243	0xbe7aea0c	-0.24503344
244	0x3d826f4e	0.06368886
245	0xc008f6ed	-2.1400712
246	0xbd1f54b6	-0.038899146
247	0x3dfea3f3	0.124336146
248	0x3e0b36b5	0.13595088
249	0xbf2ed1b1	-0.68288714
250	0xbf2c9fd7	-0.67431396
251	0xbcb5c03f	-0.022186397
252	0xbdf02824	-0.11726406
253	0xbd313610	-0.04326445
254	0x3c34a138	0.011024766
255	0xbd2e367a	-0.04253242

Linear3.bias f4 [256]
0	0x3e95153c	0.29117763
1	0xbeddbfa2	-0.43310267
2	0xbefaf36c	-0.4901384
3	0xbe350b50	-0.17680097
4	0xbf2f63a7	-0.6851143
5	0xbee57c1b	-0.44821247
6	0xbebd1908	-0.3693316
7	0xbe52afb3	-0.20574836
8	0xbeaa04a7	-0.33206674
9	0xbee83feb	-0.45361266
10	0xbf05922d	-0.5217617
11	0xbf1a4ec6	-0.6027645
12	0xbf3aba00	-0.72940063
13	0xbe1e08ae	-0.15432999
14	0xbf6fcfdb	-0.9367654
15	0xbee0127b	-0.437641
16	0xbf026cb5	-0.50947124
17	0xbf0a0925	-0.53920203
18	0xbf8954ad	-1.0728966
19	0xbe911126	-0.28333396
20	0xbef3d4c4	-0.47623265
21	0xbf3923c0	-0.72320175
22	0xbf6e9503	-0.93196124
23	0xbf01aaf5	-0.50651485
24	0xbe9509c6	-0.2910902
25	0xbf30f2e0	-0.691206
26	0xbf2629ef	-0.64907736
27	0x3e019cf6	0.12657532
28	0xbf243077	-0.6413645
29	0xbf27bdd7	-0.6552405
30	0xbf3d24c0	-0.738842
31	0xbe953f76	-0.2914998
32	0xbe34df90	-0.17663407
33	0xbe8d6de8	-0.27622914
34	0x3ebe6c20	0.37191868
35	0xbeebe713	-0.46074733
36	0xbee4b28b	-0.44667467
37	0xbea2194e	-0.3165993
38	0xbf204dee	-0.6261891
39	0xbf2265df	-0.6343669
40	0xbf19bcf5	-0.6005395
41	0xbf0f9255	-0.5608266
42	0xbf26dd9f	-0.65181917
43	0xbf78ecac	-0.9723613
44	0xbef02c0c	-0.46908605
45	0xbf32b800	-0.6981201
46	0xbec7aff9	-0.39001444
47	0xbe963fb6	-0.29345483
48	0xbf42f8f1	-0.76161104
49	0xbf23eddf	-0.6403484
50	0xbf30fb7c	-0.69133735
51	0xbefa1350	-0.4884286
52	0x3c6c51ff	0.014423846
53	0xbebd851f	-0.37015626
54	0xbf1ea4ee	-0.6197041
55	0xbef542d0	-0.47902536
56	0xbf0520e5	-0.5200332
57	0xbdfa8363	-0.12232091
58	0xbeaee9c7	-0.34162733
59	0xbf5f8652	-0.8731433
60	0xbf2add0f	-0.6674356
61	0xbf0519dd	-0.5199259
62	0xbf04662d	-0.5171841
63	0xbf462e09	-0.77413994
64	0xbedcc7fa	-0.4312132
65	0xbe9030ee	-0.2816233
66	0xbe30e545	-0.1727496
67	0x3df40eb7	0.11916869
68	0xbf24b5d7	-0.64339966
69	0xbf8f25bd	-1.1183392
70	0xbf170335	-0.5898927
71	0xbf1aaaf6	-0.60417116
72	0xbee9dd33	-0.45676574
73	0xbefc9e7f	-0.49339673
74	0xbefce2bc	-0.49391735
75	0xbee598f4	-0.44843256
76	0xbf2524ff	-0.64509577
77	0xbeb38640	-0.35063362
78	0xbf0cd3fd	-0.5501097
79	0xbf52ae02	-0.82296765
80	0xbe8cd0dd	-0.275031
81	0xbf5643d6	-0.8369726
82	0xbeb6df47	-0.35717222
83	0xbf232f6f	-0.6374425
84	0xbed968b2	-0.4246269
85	0xbea90aa7	-0.3301594
86	0xbf5e6222	-0.8686849
87	0xbef734d4	-0.48282492
88	0xbef9ec7f	-0.48813245
89	0xbf4904ca	-0.7852293
90	0xbef8024c	-0.48439252
91	0xbf375798	-0.7161803
92	0xbf858b25	-1.0433089
93	0xbf1a0236	-0.60159624
94	0xbf4c4f91	-0.7980891
95	0xbf97181e	-1.1804235
96	0xbf32d5af	-0.69857305
97	0xbf64ffe3	-0.8945295
98	0xbebfdda0	-0.37473774
99	0xbf576ce2	-0.84150517
100	0xbeffaf2a	-0.49938327
101	0xbf81e015	-1.014651
102	0xbf7dd424	-0.99151826
103	0xbf4cbc48	-0.79974794
104	0xbf3e1d30	-0.74263287
105	0xbf9a1d8e	-1.2040269
106	0xbf07ddad	-0.53072625
107	0xbe32ba58	-0.17453897
108	0xbf7acc1a	-0.97967684
109	0xbf42ad29	-0.7604547
110	0xbe3701e0	-0.17871809
111	0xbf17e8b6	-0.59339464
112	0xbef016f4	-0.46892512
113	0xbf87254d	-1.0558258
114	0xbf6b9a98	-0.92032766
115	0xbf0cc90d	-0.5499428
116	0xbf329fc8	-0.69775057
117	0xbe85eccd	-0.26157227
118	0xbf6788c7	-0.9044308
119	0xbf4aade0	-0.7917156
120	0xbe5d0102	-0.21582416
121	0xbf279e25	-0.65475684
122	0xbf14c0e6	-0.5810684
123	0x3c52bb52	0.012862043
124	0xbf4a2f09	-0.7897802
125	0xbee2030b	-0.44142947
126	0xbf298b8f	-0.66228575
127	0xbe9cd98e	-0.3063473
128	0xbf182be6	-0.59441984
129	0xbf8573b5	-1.0425936
130	0xbf9827a5	-1.1887099
131	0xbeb465b0	-0.3523383
132	0xbf386908	-0.72035265
133	0xbf629073	-0.8850166
134	0x3e923a0b	0.28559908
135	0xbef38384	-0.47561276
136	0xbea4a98f	-0.32160613
137	0xbf00ad0d	-0.50264055
138	0xbf0bda2c	-0.5462978
139	0xbf4a2d78	-0.7897563
140	0xbef4609c	-0.47729957
141	0xbe42cba1	-0.19022991
142	0xbf16e61e	-0.5894488
143	0xbf6583eb	-0.89654416
144	0xbf7f9168	-0.9983125
145	0xbf14fc46	-0.5819744
146	0xbe922bf6	-0.28549165
147	0xbf8f611d	-1.1201512
148	0xbf12b256	-0.5730337
149	0xbf0dcdfc	-0.5539243
150	0xbf927566	-1.1442077
151	0xbe7cf0cc	-0.24701232
152	0xbf56ef1a	-0.8395859
153	0xbf448441	-0.76764303
154	0xbee7f8d3	-0.45307025
155	0xbee7d353	-0.45278415
156	0xbf1d5f91	-0.6147395
157	0xbeb84a90	-0.35994387
158	0xbee82ebb	-0.45348153
159	0xbf267040	-0.6501503
160	0xbf209f2f	-0.62742895
161	0xbf3e49b8	-0.74331236
162	0xbe56992a	-0.20956865
163	0xbec38a3f	-0.3819141
164	0xbf2d819f	-0.6777591
165	0xbedba23a	-0.42897207
166	0xbf302950	-0.6881304
167	0xbf0809b6	-0.5313982
168	0xbe6f60eb	-0.23376815
169	0x3ea9f8ae	0.3319754
170	0xbf23823f	-0.63870615
171	0xbef18df4	-0.47178614
172	0xbf3d3140	-0.73903275
173	0xbf3352b0	-0.70048046
174	0xbe624b45	-0.22099026
175	0xbecc7da9	-0.3993962
176	0xbf1ec816	-0.62024057
177	0xbf375478	-0.71613264
178	0xbeceea1e	-0.40412992
179	0xbf55f5de	-0.8357829
180	0xbe8fe77d	-0.281063
181	0xbf3b0690	-0.7305689
182	0xbdb4aa2a	-0.08821519
183	0xbd96a2ca	-0.07355268
184	0xbe951866	-0.29120177
185	0x3e4a61d1	0.19763876
186	0xbec4ec29	-0.38461426
187	0xbe9c2836	-0.3049943
188	0xbeb1eb50	-0.34749842
189	0xbee47b40	-0.44625282
190	0xbf7c9244	-0.98660684
191	0xbf3b9bc8	-0.7328458
192	0xbedb6162	-0.42847735
193	0xbeb6ebb7	-0.3572671
194	0xbe8f4115	-0.2797934
195	0xbf4e3d51	-0.8056231
196	0xbf03286e	-0.51233566
197	0xbf0adf35	-0.54246837
198	0xbeed14a3	-0.46304807
199	0xbf53bd12	-0.82710373
200	0xbf63edab	-0.8903453
201	0xbec2b6d3	-0.3803011
202	0xbf420aa9	-0.75797516
203	0xbec71099	-0.3887985
204	0xbf323330	-0.69609356
205	0xbe8a7a52	-0.27046448
206	0xbf9c3c86	-1.220597
207	0xbf14706e	-0.57984054
208	0xbe944299	-0.2895706
209	0xbf603deb	-0.8759448
210	0xbf02993d	-0.51015073
211	0xbf75fd9d	-0.9609011
212	0xbe8c98fc	-0.27460468
213	0xbf3b5332	-0.7317382
214	0xbe54124a	-0.20710102
215	0xbf14efc6	-0.58178365
216	0xbf461ff9	-0.77392536
217	0xbf03a3a5	-0.51421577
218	0xbf6b0482	-0.91803753
219	0xbe56c742	-0.20974448
220	0xbf2cdaf4	-0.67521596
221	0xbf39c898	-0.72571707
222	0xbf1f63b1	-0.6226149
223	0xbf3632fd	-0.7117155
224	0xbf06444d	-0.5244797
225	0xbea59197	-0.3233764
226	0xbe0b03d3	-0.13575678
227	0xbed41baa	-0.41427356
228	0xbebc9b0c	-0.3683704
229	0xbf5676ca	-0.8377501
230	0xbf423be1	-0.7587262
231	0x3f20d6de	0.6282786
232	0xbf0f5847	-0.55994076
233	0xbf246a47	-0.64224666
234	0xbde669d5	-0.112506546
235	0xbfa65cb7	-1.2997044
236	0xbf036bdd	-0.5133646
237	0xbf517d5a	-0.81831896
238	0xbeceaac2	-0.40364653
239	0xbf1aa291	-0.60404307
240	0xbd4f9c5f	-0.050686236
241	0xbf0ea4d5	-0.55720264
242	0xbf44f8a9	-0.76941925
243	0xbf0c1495	-0.54718906
244	0xbeebf461	-0.46084884
245	0xbf409338	-0.7522464
246	0xbf3c39f2	-0.7352592
247	0x3ea6888a	0.32526046
248	0xbea092af	-0.3136191
249	0xbeed557b	-0.4635428
250	0xbf533c3a	-0.82513773
251	0xbf36725a	-0.71268237
252	0xbf326aa8	-0.69693995
253	0xbf372c64	-0.7155211
254	0xbf2f7bde	-0.6854838
255	0xbf3cc638	-0.7373996

Linear4.weight f4 [7, 256]
0	0xbd567dbb	-0.052366
1	0x3cd69ab9	0.026196824
2	0x3dc02711	0.09382451
3	0xbd33b6af	-0.043875393
4	0xbded9972	-0.11601533
5	0x3c9a8255	0.018860975
6	0xbb94418e	-0.0045244163
7	0x3d410add	0.0471295
8	0xbc6f2652	-0.014596539
9	0x3d427cb8	0.047482222
10	0x3de5e272	0.11224832
11	0xbdfaa54b	-0.122385584
12	0xbc7002a3	-0.014649066
13	0xbcbae687	-0.022815002
14	0xbdcaa690	-0.098950505
15	0xbd101880	-0.035179615
16	0xbdaed0c7	-0.08535915
17	0x3c8530b0	0.016258568
18	0xbd962526	-0.07331304
19	0xbce9d62a	-0.028544504
20	0x3da94b7f	0.08266353
21	0xbd465db0	-0.04842919
22	0xbd7c480b	-0.061592143
23	0x3d17a715	0.037024576
24	0xbc5e6255	-0.013573249
25	0xbe371918	-0.17880666
26	0x3c5218d2	0.0128233
27	0xbd0f4b34	-0.03498383
28	0xbd6b1293	-0.05739076
29	0xbe071f0c	-0.13195437
30	0xbc733adb	-0.014845575
31	0x3c3c3fd7	0.01148983
32	0x3e168796	0.1470016
33	0xbd959037	-0.073028974
34	0x3d10d116	0.03535565
35	0x3d98b49e	0.07456325
36	0x3c2e7d2e	0.010649962
37	0xbcd6c5b1	-0.026217313
38	0xbdb06898	-0.086137
39	0xbd316a68	-0.043314368
40	0x3da656ef	0.0812205
41	0xbd9175ed	-0.07102571
42	0x3dfb39bb	0.122668706
43	0xbde6059b	-0.11231538
44	0xbdae723e	-0.08517884
45	0xbde55a83	-0.11198904
46	0x3bdeade9	0.006795634
47	0x3c69ddfa	0.014274115
48	0x3dcb6850	0.099320054
49	0x3de8133d	0.113317944
50	0xbe894e8a	-0.26817733
51	0xbd7dc534	-0.061955646
52	0x3e8e33cf	0.27773902
53	0x3cdea4b6	0.02717815
54	0xbd5847a1	-0.052802686
55	0x3db175ad	0.08665023
56	0x3d697484	0.056995884
57	0x3d38f8d4	0.045159176
58	0x3c582862	0.013193222
59	0x3e05472c	0.13015431
60	0xbdc8d4f0	-0.098062396
61	0xbdd4845a	-0.103768066
62	0xbe711b1c	-0.23545498
63	0xbdab81e6	-0.083743855
64	0xbe2a1766	-0.16610488
65	0xbe43ff70	-0.1914041
66	0x3ded829b	0.11597177
67	0xbe4df9cf	-0.20114826
68	0xbda682cf	-0.081304185
69	0x3e69a5ba	0.22817126
70	0xbcefb1b8	-0.029259548
71	0x3e7d7fc4	0.2475577
72	0xbd911f36	-0.07086031
73	0x3f124c77	0.57147926
74	0x3d8e0894	0.0693523
75	0xbdd78654	-0.10523668
76	0xbd535ab1	-0.051600162
77	0xbd4b2f49	-0.04960564
78	0x3e6af73a	0.22945872
79	0x3e0f8599	0.14015807
80	0x3ce668d2	0.028126154
81	0xbe7b3ab8	-0.24534118
82	0xbd756014	-0.05990608
83	0x3eb9c95f	0.36286446
84	0xbdbd5dc8	-0.09246403
85	0x3dd35922	0.10319735
86	0x3d81efb5	0.063445486
87	0xbe153936	-0.14572605
88	0x3d117e81	0.035521034
89	0xbd8b376b	-0.067976795
90	0x3d6db592	0.058034487
91	0x3db81890	0.0898906
92	0x3e67dd7a	0.2264308
93	0xbd1581de	-0.036500804
94	0xbdb0f5ff	-0.0864067
95	0xbd96fe56	-0.073727295
96	0xbac58228	-0.0015068697
97	0xbdb21328	-0.0869506
98	0x3e5e133a	0.21687022
99	0x3f0e4714	0.55577207
100	0x3dc00b47	0.09377151
101	0x3d337b50	0.04381877
102	0x3e79a1eb	0.24378173
103	0x3e4edb41	0.20200826
104	0x3d862e6c	0.06551823
105	0x3e6ae15a	0.22937527
106	0xbc44ae70	-0.01200448
107	0xbcee1a5b	-0.029065302
108	0x3f1d4214	0.6142895
109	0xbdb37f38	-0.087644994
110	0x3b310f56	0.0027017198
111	0x3bbea5e8	0.0058181174
112	0xbc8d8d25	-0.017279217
113	0x3e3ada07	0.18247233
114	0xbd61c48f	-0.055119094
115	0xbd1aa70e	-0.037756972
116	0x3d94f3ae	0.07273041
117	0x3d0abe64	0.033872977
118	0x3d372641	0.044714216
119	0xbe15c5a7	-0.1462618
120	0x3c965e2e	0.018355455
121	0xbdede465	-0.116158284
122	0x3d9b240e	0.07575236
123	0xbdd8ec7a	-0.10591979
124	0xbd0c6ffd	-0.034286488
125	0xbd9901f6	-0.07471077
126	0x3e39e197	0.18152462
127	0x3dc9aee9	0.098478146
128	0xbe17aafd	-0.1481132
129	0x3d49a1a0	0.049226403
130	0x3eeec0ce	0.46631473
131	0xbd4d41c0	-0.050111532
132	0x3d3631d8	0.04448113
133	0xbd3096af	-0.043112453
134	0x3dddcb7b	0.108298264
135	0xbe951f6e	-0.2912554
136	0xbc5c6011	-0.013450638
137	0x3deeeaf2	0.11665906
138	0xbdab98ce	-0.083787546
139	0xbd48e490	-0.0490461
140	0x3df454e3	0.11930253
141	0xbd3f5f10	-0.046721518
142	0xbd43a021	-0.047760133
143	0x3cc09470	0.02350828
144	0xbc484999	-0.012224578
145	0xbd55817a	-0.05212543
146	0x3d0466f4	0.032324746
147	0xbde04043	-0.10949757
148	0xbe0948f5	-0.13406737
149	0x3cc12e59	0.02358167
150	0x3e39ea2f	0.1815574
151	0xbddc9e92	-0.107724324
152	0xbd748acb	-0.059702676
153	0x3ab927a7	0.0014126197
154	0x3c3ef8b8	0.011655979
155	0xbe0146f4	-0.12624723
156	0xbd138b4c	-0.036021516
157	0xbe1abb5d	-0.15110536
158	0x3da21c6e	0.07915579
159	0x3e35b72f	0.1774566
160	0xbdab69ae	-0.08369766
161	0x3d790b23	0.060801636
162	0xbce22baa	-0.027608711
163	0xbd1d9907	-0.038476016
164	0xbe651a72	-0.2237337
165	0x3c9f54b6	0.019449573
166	0xbe41b968	-0.18918383
167	0xbe171590	-0.14754319
168	0x3daa27ce	0.083083734
169	0x3ca5de3a	0.020247567
170	0xbe0c8ce4	-0.1372562
171	0xbe570f22	-0.21001866
172	0xbdabda2f	-0.083912246
173	0x3e0c8515	0.13722642
174	0xbd854490	-0.06507218
175	0x3e550091	0.20800997
176	0x3d765dfc	0.060148224
177	0x3e34e8ef	0.17666982
178	0x3cc8657c	0.024462454
179	0x3c8b4b95	0.017003814
180	0xbe166855	-0.14688237
181	0x3ce863db	0.028367927
182	0x3cd0f941	0.025509479
183	0xbe88314c	-0.2660011
184	0x3e1977ed	0.14987154
185	0x3eec1b6a	0.46114665
186	0x3b501919	0.003175324
187	0x3c904b7e	0.017614122
188	0x3db8ab6f	0.09017073
189	0xbd189e31	-0.037260238
190	0x3c9e0d5e	0.019293483
191	0xbeb82a88	-0.3596995
192	0xbded1633	-0.115765
193	0x3e48788c	0.19577235
194	0x3e01c715	0.126736
195	0xbd6599cb	-0.05605487
196	0x3e03baaa	0.12864175
197	0xbe16132e	-0.14655754
198	0xbe909e4d	-0.28245774
199	0x3df6802c	0.120361656
200	0xbe285d37	-0.16441809
201	0x3e0d4272	0.13794878
202	0x3ced124a	0.028939385
203	0xbd6dc46a	-0.058048643
204	0x3c0602ad	0.008179349
205	0x3e1856bb	0.14876835
206	0x3d32d807	0.04366305
207	0xbdc023f0	-0.093818545
208	0x3e837585	0.25675598
209	0x3d90c945	0.07069639
210	0x3c7f16cc	0.0155694
211	0xbdfd1546	-0.12357573
212	0x3bf9a946	0.007619056
213	0xbdd3927a	-0.103306726
214	0x3d8b0324	0.067877084
215	0x3c2b0a5f	0.010439484
216	0xbe8ef22c	-0.27919137
217	0xbc8f9bb5	-0.017530302
218	0x3dc85409	0.097816534
219	0x3d7f829c	0.06238042
220	0xbd425da9	-0.047452603
221	0xbddad3f9	-0.10684962
222	0x3da8045d	0.08203957
223	0x3d1db023	0.038498055
224	0x3deed513	0.116617344
225	0xbdd470d2	-0.10373081
226	0x3d2be206	0.0419636
227	0xbd1d694e	-0.038430505
228	0x3e47ffde	0.195312
229	0xbb4a07f8	-0.0030827504
230	0x3e55b2b1	0.20868947
231	0x3e20cf14	0.15703994
232	0xbe25024e	-0.1611416
233	0xbd332307	-0.043734577
234	0x3c1dce4b	0.009631704
235	0xbd399507	-0.04530814
236	0x3ea0e4b9	0.31424502
237	0x3eb60ac7	0.35555097
238	0x3df875d3	0.12131848
239	0xbd4fb6a2	-0.05071128
240	0xbb89f1c2	-0.004209728
241	0x3ca3ce06	0.0199957
242	0xbe0a535d	-0.13508363
243	0x3e072c54	0.13200504
244	0xbd9d9da2	-0.07696082
245	0xbdc6db6e	-0.09709822
246	0xbd6ef908	-0.058342963
247	0x3da901a3	0.08252265
248	0x3db221ff	0.086978905
249	0x3d52d9ca	0.05147723
250	0xbe01d5ed	-0.12679262
251	0x3de66069	0.112488575
252	0x3d6df732	0.058097072
253	0xbcafdc7d	-0.021467442
254	0x3d72add0	0.05924779
255	0x3d038144	0.0321057

Linear4.bias f4 [7]
0	0xbc678d3a	-0.014132792
1	0x3e9d8aa2	0.3076983
2	0x3d18e4ed	0.037327696
3	0xbc777581	-0.015103699
4	0x3ed44457	0.4145839
5	0x3ed5ae83	0.41734704
6	0x3e48ad36	0.19597325
