dataBase/niceNet/joint/20230306_SAC随机点_1/38_SAC_Q_net.pkl (torch, 551247 bytes, 7 tensors)

Linear1.weight f4 [256, 20]
0	0xbe4f776a	-0.20260397
1	0xbe872cc7	-0.2640135
2	0xbdf893f2	-0.12137593
3	0x3e9e6684	0.30937588
4	0xbcaa753b	-0.020807853
5	0xbdea1d65	-0.11431388
6	0x3e6366e2	0.22207215
7	0xbe2ed829	-0.17074646
8	0xbed6f5e2	-0.4198447
9	0x3e889915	0.26679292
10	0xbe6a4816	-0.22879061
11	0xbd6a527b	-0.057207566
12	0xbd968617	-0.07349794
13	0x3c606dc8	0.013698049
14	0x3d83ed0f	0.064417
15	0xbd8c2dc8	-0.068446696
16	0x3e5726a0	0.21010828
17	0x3e0a9bc6	0.13535985
18	0x3e0a2093	0.13488989
19	0xbd845bb9	-0.06462807
20	0x40648f23	3.5712364
21	0xbf20513f	-0.6262397
22	0x3e02562c	0.12728184
23	0xc0ca5689	-6.3230634
24	0x3cc9d254	0.024636425
25	0xbf44a59f	-0.7681522
26	0x3fa11f82	1.258774
27	0xbef81b99	-0.48458555
28	0xbf297a43	-0.6620218
29	0xc02be735	-2.6859868
30	0xc18d0b4c	-17.630516
31	0xc2047234	-33.111526
32	0x40508c02	3.2585454
33	0xc08edcf1	-4.4644704
34	0x3e836577	0.2566335
35	0xc077751d	-3.866523
36	0xbdf6abbf	-0.12044477
37	0x3daafa25	0.083484925
38	0xbf67ea12	-0.9059154
39	0xbe5c63ff	-0.2152252
40	0x3f7c6cfe	0.9860381
41	0xc16c2a83	-14.760379
42	0xc119171b	-9.568141
43	0xc1410953	-12.064776
44	0x4084a02d	4.1445527
45	0xc0ba33ae	-5.8188086
46	0x3faf09d3	1.3674873
47	0xbfac6a35	-1.3469912
48	0x3fbe425a	1.4863999
49	0x400a2b2b	2.1588848
50	0xc1bf8308	-23.93898
51	0x41b931b7	23.149275
52	0x406300fd	3.5469353
53	0xc02d2e02	-2.705933
54	0x3e8c9490	0.27457094
55	0xbf331e0e	-0.69967735
56	0xc0d5171b	-6.6590705
57	0x3ec72cab	0.38901266
58	0xbd5aa33f	-0.05337834
59	0x3e0ead73	0.13933353
60	0xc0a27cc6	-5.077731
61	0xc13eadbb	-11.917415
62	0xc09614e7	-4.6900516
63	0xc04a3984	-3.1597605
64	0xc0141000	-2.3134766
65	0xc187b215	-16.961954
66	0x4089d720	4.3075104
67	0xc08608ae	-4.1885595
68	0xc108db1e	-8.553495
69	0x40de3b71	6.944756
70	0x3f9c7d3f	1.2225722
71	0xc118ab68	-9.541847
72	0xc07a1f42	-3.9081578
73	0xc044bf6b	-3.0741832
74	0x3ffffdd8	1.9999342
75	0x407ba96e	3.9322162
76	0x4070f30b	3.7648342
77	0x4042d966	3.044519
78	0x40c79757	6.237224
79	0xc09a4e9c	-4.822096
80	0xc088b649	-4.2722516
81	0xc11ca89d	-9.791165
82	0xc0d4fa70	-6.655571
83	0xc0902c96	-4.5054426
84	0xbf0741a0	-0.5283451
85	0xc0202386	-2.5021682
86	0x3fa8b434	1.3179994
87	0xc11fed44	-9.995426
88	0xc08f91f6	-4.4865675
89	0x4083669f	4.106277
90	0xc129f8ba	-10.623224
91	0x403ce2a3	2.9513328
92	0xc129d8e6	-10.615454
93	0x407825b4	3.8773012
94	0x40ac0626	5.3757505
95	0x405fc223	3.4962242
96	0xc0b2f559	-5.5924497
97	0x3ff1a80b	1.8879408
98	0x410456da	8.271204
99	0xc090a9e6	-4.5207396
100	0xbf1c67e1	-0.61096007
101	0x3eb545a2	0.35404688
102	0xbecfcbbc	-0.40585124
103	0xbe955eef	-0.2917399
104	0xbe26a22e	-0.16272804
105	0x3ed509c5	0.41609016
106	0x3f13145e	0.5745295
107	0x3e772113	0.2413371
108	0xbdcd27df	-0.100173704
109	0x3d428f5d	0.047500003
110	0xbf1f43f5	-0.6221307
111	0xbe5d3bd8	-0.2160486
112	0xbf1d3c08	-0.61419725
113	0xbd590805	-0.052986164
114	0x3d84435f	0.064581625
115	0xbe87193d	-0.26386443
116	0xbe45e178	-0.19324291
117	0xbed54a30	-0.41658163
118	0xbe838542	-0.25687605
119	0xbd8f792f	-0.07005536
120	0xc04f9b4d	-3.2438538
121	0x41323673	11.138293
122	0x41b3a2d0	22.454498
123	0x403c7d59	2.9451506
124	0xc04db798	-3.2143307
125	0x3fbc1bd1	1.4695989
126	0x3f8aa6ce	1.0832155
127	0xbf635cb9	-0.8881336
128	0x400fda28	2.2476902
129	0xbf78a199	-0.9712158
130	0x40bbb01e	5.8652487
131	0xc180504f	-16.039213
132	0xc1d62c33	-26.771582
133	0x3fba5169	1.4556094
134	0xc05e1cb1	-3.4705012
135	0x3f832a04	1.0247197
136	0xbd2ffd7f	-0.042966362
137	0x3f085d07	0.5326695
138	0x3f4c2939	0.797504
139	0x3d2fa5f9	0.042882893
140	0x4131f86b	11.123149
141	0x41213aca	10.076853
142	0xbf08f513	-0.53498954
143	0x40d866a7	6.762531
144	0xbfab5669	-1.3385745
145	0x408aa547	4.3326755
146	0x3ec4f14c	0.38465345
147	0x3eb2e5b3	0.34940872
148	0xbeeaf06f	-0.4588656
149	0xc00f6f57	-2.2411706
150	0xc20549df	-33.32214
151	0x40f901c6	7.7814665
152	0x410a812d	8.656537
153	0xc098f7ec	-4.780264
154	0x3fc5c0f0	1.5449505
155	0xc07e6434	-3.974866
156	0x3fe9aeef	1.825651
157	0xbe8f14f2	-0.27945668
158	0xbf2abbee	-0.6669301
159	0x3f492d45	0.785847
160	0xc1a213ed	-20.25973
161	0xc03b07c0	-2.922348
162	0xc129b3c0	-10.606384
163	0x3edc202a	0.4299329
164	0xbf75b49d	-0.9597872
165	0x3f2030b2	0.62574303
166	0xc0ad5899	-5.417065
167	0xbf8b5203	-1.0884403
168	0x406c12c2	3.688645
169	0xbf876ecf	-1.0580691
170	0x415c9e72	13.788683
171	0x40141692	2.3138776
172	0xc1a0bd02	-20.092289
173	0x3f538e04	0.82638574
174	0xbebdbb1b	-0.37056813
175	0x3effda19	0.49971083
176	0x40b38744	5.610262
177	0x3d91aaff	0.07112693
178	0xbfe289ff	-1.7698363
179	0x3e9bc3d1	0.30422834
180	0xbeba824b	-0.3642753
181	0xbedc212b	-0.42994055
182	0xbf7fe855	-0.99963886
183	0x3e9e0afd	0.30867758
184	0xbcee6809	-0.029102342
185	0xbc582fb9	-0.013194972
186	0x3f1709b1	0.5899916
187	0xbf3dd727	-0.7415642
188	0xbe754888	-0.2395345
189	0xbebd4021	-0.3696299
190	0xbeaba211	-0.33522084
191	0xbea747bd	-0.3267192
192	0xbf60cb5b	-0.87810296
193	0xbccdd528	-0.025126055
194	0x3edc4a05	0.43025222
195	0xbdcd79a1	-0.100329645
196	0x3dbc1470	0.09183586
197	0x3dc9c8b3	0.098527335
198	0xbdd26b75	-0.10274402
199	0xbf1932ce	-0.59843147
200	0xbefe3b29	-0.4965451
201	0x3cd58596	0.026064675
202	0xbee6bce6	-0.45065993
203	0xbeb2522b	-0.34828314
204	0xbdefd5fd	-0.11710737
205	0x3f01b01b	0.5065934
206	0x3f000ed5	0.5002263
207	0x3f2f0138	0.68361235
208	0xbe5c1dfc	-0.21495813
209	0xbd0af42d	-0.03392427
210	0xbf306297	-0.68900436
211	0x3e432f1e	0.19060943
212	0xbe3c927f	-0.18415259
213	0x3e48b3bd	0.19599815
214	0xbe1b39b7	-0.15158735
215	0xbecadf33	-0.39623412
216	0x3d53461c	0.051580533
217	0xbdeb00ac	-0.114747375
218	0xbd2bd4b9	-0.041950915
219	0xbea06c4f	-0.31332633
220	0xc0ae88c4	-5.454195
221	0x410fabbe	8.979429
222	0xc08040c2	-4.007905
223	0x415dc6b7	13.861014
224	0xc0bb7293	-5.857736
225	0xbfd050ca	-1.6274655
226	0x4070b5fa	3.761107
227	0x41373bb1	11.452073
228	0xc09725d0	-4.723366
229	0xc0a60d9d	-5.189162
230	0xc093dc24	-4.6206226
231	0x3fc1cc41	1.5140458
232	0xc038ad20	-2.8855667
233	0xbfb04fb7	-1.3774327
234	0x3ff8eda4	1.9447522
235	0xc0930388	-4.594181
236	0xc04f6ba1	-3.2409441
237	0xc11db019	-9.855493
238	0xbfd6d458	-1.6783552
239	0xc091afeb	-4.5527244
240	0xbe1a1de8	-0.15050471
241	0xbe2bd7fe	-0.16781613
242	0xbe5c8d02	-0.21538165
243	0xb92c93e7	-0.00016458296
244	0xbe817541	-0.2528477
245	0xbe28a5e7	-0.16469537
246	0x3e86fbcb	0.26363978
247	0x3d10672d	0.035254646
248	0x3d8730b1	0.06601084
249	0x3e1406c3	0.14455704
250	0xbe869a69	-0.2628968
251	0xbddec0c0	-0.10876608
252	0xbe85dbe0	-0.26144314
253	0x3d0817dc	0.03322588
254	0x3cd4ab91	0.025960715
255	0xbd708d81	-0.0587287

Linear1.bias f4 [256]
0	0xbe4795c0	-0.19490719
1	0xbe49a0c2	-0.1969023
2	0xbf4004da	-0.750074
3	0xc09c6e4b	-4.8884635
4	0xc0238e3a	-2.5555558
5	0xbe3d3377	-0.18476664
6	0x3f879e0a	1.0595105
7	0xbd747681	-0.059683327
8	0xc09751f3	-4.7287536
9	0xbf0c53ee	-0.54815567
10	0xbeba0225	-0.3632976
11	0xc082e21f	-4.0901027
12	0xbdf43ce5	-0.11925677
13	0xbec5d482	-0.38638693
14	0xc05b084a	-3.422381
15	0xbec4ece1	-0.38461974
16	0x3c23602f	0.009971662
17	0xbe9d64ed	-0.30741063
18	0xbfe4a219	-1.7861968
19	0xbd04af73	-0.032393884
20	0xbe8a24b1	-0.26981118
21	0xc03d4fcb	-2.9579952
22	0xbf48a1f7	-0.7837214
23	0xbd613d37	-0.05499002
24	0xbec18614	-0.37797606
25	0x3f72a355	0.94780475
26	0xbe60aa66	-0.21940002
27	0xc0927df7	-4.5778766
28	0x3fced5b7	1.615897
29	0xc0a8efca	-5.279271
30	0xbf99848d	-1.1993576
31	0xbf9716f6	-1.1803882
32	0xbe9a1539	-0.30094317
33	0xbed8decb	-0.42357478
34	0xc07e7bd5	-3.976308
35	0xbddad5de	-0.10685323
36	0xbec11bc4	-0.37716496
37	0xc09b4439	-4.852078
38	0xbeb0d2f0	-0.34535933
39	0xbee47b50	-0.4462533
40	0xc0960d92	-4.6891565
41	0xbe91a124	-0.28443253
42	0xbed5b2c1	-0.4173794
43	0xbfb94371	-1.4473706
44	0x3fb8abc9	1.4427425
45	0xbeac0811	-0.33599904
46	0xc0423c72	-3.0349393
47	0xbea0a7f8	-0.3137815
48	0xc0acf595	-5.4049783
49	0xbee65335	-0.44985357
50	0xbefb446d	-0.49075642
51	0xbef5d5fc	-0.4801482
52	0xc0c656f2	-6.1981134
53	0xc087314a	-4.2247667
54	0x3eaaec08	0.33383203
55	0xc07de2f1	-3.9669764
56	0xbe19c2a0	-0.1501565
57	0xbf36c8a5	-0.7139991
58	0xc0355fda	-2.8339753
59	0xbcd4b0cf	-0.025963215
60	0xbf97686e	-1.1828744
61	0xbf1a57a8	-0.6029
62	0xbffd8de4	-1.9808927
63	0xbeb51914	-0.35370696
64	0xbf8d6719	-1.1047088
65	0xc0291c5c	-2.642356
66	0xbf1c4cb7	-0.6105456
67	0xbf5766ec	-0.8414142
68	0x3d74e702	0.05979062
69	0x3d08349c	0.033253297
70	0xc014ff94	-2.3280993
71	0xbe96ac75	-0.2942845
72	0xbf193c09	-0.5985723
73	0xbfb35fc7	-1.4013604
74	0xbe45819d	-0.19287725
75	0xbee59c10	-0.4484563
76	0x40301900	2.7515259
77	0xbe1b2e1d	-0.1515431
78	0xbf4bef72	-0.7966224
79	0xbec1c0fe	-0.37842554
80	0xbe193e8c	-0.14965266
81	0x4056189d	3.3452523
82	0xbe822101	-0.25415805
83	0xbf0bdc90	-0.54633427
84	0xbf11ce28	-0.56955194
85	0x3efa8b7d	0.48934546
86	0xbe1370b9	-0.14398469
87	0xbf35713c	-0.70875907
88	0xbe810df5	-0.2520596
89	0xbeb7f3b5	-0.3592812
90	0xbe2941d6	-0.1652902
91	0xbd44ee27	-0.048078682
92	0xbed3c18f	-0.4135861
93	0xc0cfdc19	-6.4956174
94	0xbee95759	-0.45574453
95	0xbff47364	-1.9097714
96	0xbf56aed9	-0.83860546
97	0xbf2b4c45	-0.66913253
98	0xbf44cb4e	-0.7687272
99	0xbd9b3978	-0.07579321
100	0xbea51f66	-0.32250518
101	0xbec8c3f9	-0.39212015
102	0xc02feae8	-2.7487125
103	0xc07c1bae	-3.9391894
104	0xc0a3b4bf	-5.1158137
105	0xc066f2d3	-3.6085708
106	0xbf23acac	-0.6393535
107	0xbe45e0e1	-0.19324066
108	0xbffcadfa	-1.9740593
109	0xbf296379	-0.6616741
110	0xbef74aec	-0.48299348
111	0xbf3a6df7	-0.72824043
112	0x406d0726	3.7035613
113	0xbee5eac0	-0.44905663
114	0xbe569b75	-0.2095774
115	0xbfed8bda	-1.8558304
116	0xbe21f89a	-0.1581749
117	0xbf9912b7	-1.1958836
118	0xbee0d36e	-0.43911308
119	0xbe802b08	-0.2503283
120	0xc083d593	-4.119821
121	0xbffb219e	-1.9619634
122	0xbeb51b1a	-0.3537224
123	0xc0a987ec	-5.297842
124	0xbef75d6a	-0.48313457
125	0xc06d16c1	-3.7045138
126	0x407803a5	3.8752224
127	0xbee7bfd1	-0.45263532
128	0xbfc33286	-1.5249794
129	0xbef06777	-0.46953937
130	0xbf4ab305	-0.7917941
131	0xbec55d88	-0.3854792
132	0x40a5ea84	5.1848774
133	0xbf145138	-0.5793643
134	0xbf27859b	-0.6543824
135	0xc01a6679	-2.4125044
136	0xbf289f8c	-0.6586845
137	0xbed082d3	-0.4072481
138	0xc0997c58	-4.7964287
139	0xbf8f7fb8	-1.1210852
140	0xbffbaa25	-1.9661299
141	0xbf8b8937	-1.090125
142	0xbfd3b6bb	-1.654014
143	0x3f99b3bd	1.2007977
144	0xbe879599	-0.2648132
145	0xbff7e833	-1.9367737
146	0xc046fae2	-3.1090627
147	0xbf1703f1	-0.5899039
148	0x4095933b	4.6742225
149	0xc09c945e	-4.893111
150	0xbc8f68ea	-0.017506082
151	0xbfef579c	-1.8698611
152	0xbe5d3183	-0.21600918
153	0x3e82709e	0.25476545
154	0xbf59fc7d	-0.8515089
155	0x40a1f0ae	5.06063
156	0x3e7b1752	0.24520615
157	0xbeb4705d	-0.35241976
158	0xbebbd9a0	-0.36689472
159	0xc00f4ef7	-2.2391946
160	0xc0101df5	-2.2518284
161	0x3f315a5c	0.692785
162	0xbe9d1e70	-0.30687284
163	0xbf9c513d	-1.2212292
164	0xbf9ba9bb	-1.2161173
165	0xc0aa77e0	-5.327133
166	0xbee1f339	-0.44130877
167	0x3f787498	0.9705291
168	0xbf475b06	-0.77873266
169	0xbef214d8	-0.47281528
170	0xbf0f10dd	-0.55885106
171	0xbf26e994	-0.6520016
172	0xc03c7639	-2.9447157
173	0xbfac3f12	-1.3456748
174	0xbe9d81c5	-0.3076307
175	0xbf58a633	-0.846286
176	0x3fc4c845	1.5373617
177	0xbe6df35f	-0.2323737
178	0xc033c9c6	-2.8091903
179	0xc05f7d09	-3.4920065
180	0x403afc3f	2.9216459
181	0xbe4acc7c	-0.19804567
182	0xc023d9a6	-2.5601592
183	0xc06bfd48	-3.687334
184	0xbe99fbfa	-0.30075055
185	0xbf170f52	-0.5900775
186	0x3de089d9	0.10963792
187	0xbcd6ac60	-0.026205242
188	0xc020eb36	-2.5143561
189	0xc0006c98	-2.006628
190	0xbf0b8b0a	-0.5450903
191	0xbe4aae18	-0.19792974
192	0xbeefb08f	-0.4681439
193	0xbff21f23	-1.8915752
194	0xbf05eeb9	-0.52317387
195	0x400beea8	2.1864414
196	0xbd245788	-0.04012254
197	0xc0612c8a	-3.5183434
198	0xc088cddf	-4.2751307
199	0xc008a4cc	-2.1350584
200	0xbf397850	-0.7244921
201	0xbe3cf0f5	-0.18451293
202	0x3c9d89d7	0.019230766
203	0xbfe4c9a4	-1.7874036
204	0xbf274f5d	-0.65355474
205	0xbcb5fe5d	-0.022216016
206	0xbf453a1c	-0.7704179
207	0xc01d9d8e	-2.4627414
208	0x3cc3011c	0.02380424
209	0xc0307225	-2.7569668
210	0xc04f2da1	-3.23716
211	0xbee38bb4	-0.44442523
212	0x40399c85	2.9001782
213	0xbe86609c	-0.26245582
214	0xbe8d2153	-0.27564487
215	0xbde3f3af	-0.11130463
216	0xbf55a9b9	-0.834621
217	0x3c3ea270	0.011635408
218	0x4091dcd1	4.558205
219	0xbe870f9b	-0.26379094
220	0xbf10e22d	-0.56595117
221	0xbe11d465	-0.14241178
222	0xc041fe4a	-3.0311456
223	0x406a7145	3.6631634
224	0xc051155b	-3.2669284
225	0xbe80b088	-0.25134683
226	0xbe774fdd	-0.24151559
227	0xbe43ef2a	-0.19134203
228	0xbfb3f0fe	-1.405792
229	0xbda00f90	-0.07815468
230	0xbf1654bc	-0.58723044
231	0xc0693a90	-3.6441994
232	0xc019539e	-2.3957286
233	0xbf4c4b64	-0.79802537
234	0xc09797e0	-4.7372894
235	0xbf34472d	-0.70421106
236	0xbf0519a4	-0.5199225
237	0xc020fd18	-2.5154476
238	0x3f5535ee	0.83285415
239	0xbda8d9f6	-0.08244698
240	0xbed4f99c	-0.41596687
241	0xbe741f58	-0.23840082
242	0xc085e0a0	-4.18367
243	0xbe684854	-0.22683841
244	0xbfd09c13	-1.629763
245	0xbec49d84	-0.38401425
246	0xc05dedee	-3.467647
247	0xbe670d8f	-0.22563766
248	0xbf6bcf66	-0.9211334
249	0xbee5d423	-0.4488841
250	0x4012bf1d	2.2929146
251	0xbf16a858	-0.5885062
252	0xbf51a3d7	-0.81890625
253	0xbfbd59d2	-1.4793036
254	0xbeda210e	-0.42603344
255	0xc09c98ed	-4.8936677

Linear2.weight f4 [256, 256]
0	0xbd8b482f	-0.06800877
1	0xbd9dcd01	-0.07705117
2	0xbeb91b5e	-0.36153692
3	0xbd96b1cb	-0.0735813
4	0xbdf8c17b	-0.121462785
5	0xbe072fc3	-0.13201813
6	0xbecfa781	-0.40557483
7	0xbd83bc0f	-0.06432354
8	0xbd69380b	-0.056938212
9	0xbd1bf4b0	-0.03807515
10	0xbdac0729	-0.08399803
11	0xbe0c898d	-0.13724346
12	0xbdb65bd5	-0.08904234
13	0xbdb04565	-0.08606986
14	0xbcbcb522	-0.02303559
15	0xbda137c2	-0.07871963
16	0xbbb5ac2c	-0.005544206
17	0xbd63d964	-0.05562724
18	0xbeddffd2	-0.43359238
19	0xbd8ce3d5	-0.06879393
20	0xbd14b9b0	-0.036309898
21	0xbe004404	-0.12525946
22	0xbe86d6b3	-0.26335678
23	0xbd4cd6a8	-0.0500094
24	0xbd98d85a	-0.07463141
25	0xbe1e0ded	-0.15435
26	0xbd89b9ca	-0.067248896
27	0xbd925af5	-0.07146255
28	0xbdf351b7	-0.1188082
29	0xbdf1ebea	-0.11812575
30	0xbdf3974e	-0.118940935
31	0xbe07b91a	-0.13254204
32	0xbdcbcc75	-0.099511065
33	0xbc273b40	-0.010206997
34	0xbdf6f535	-0.12058488
35	0xbca91b0c	-0.02064278
36	0xbd23b71c	-0.03996955
37	0xbf0b339c	-0.54375625
38	0xbd44f1d4	-0.048082188
39	0xbd08a757	-0.033362713
40	0xbd79d83a	-0.060997225
41	0xbded4461	-0.11585308
42	0xbaa53a43	-0.0012605864
43	0xbe204316	-0.15650591
44	0xbec994d6	-0.39371365
45	0xbdc6e6e7	-0.0971201
46	0xbdb42888	-0.08796793
47	0xbd1c918c	-0.03822474
48	0xbdf489de	-0.119403586
49	0xbd9aefaa	-0.075652435
50	0xbd3adeda	-0.045622684
51	0xbd8c0ee8	-0.06838781
52	0x3d38f975	0.045159776
53	0xbada8256	-0.0016670923
54	0xbdedd922	-0.116136804
55	0xbe6c5b81	-0.23081781
56	0xbd9cbe9a	-0.07653542
57	0xbdf8bb7a	-0.12145133
58	0xbce5d45b	-0.02805536
59	0xbcd33a56	-0.025784653
60	0xbd11cebb	-0.035597544
61	0xbd495d34	-0.04916115
62	0xbe8ae2b7	-0.27126095
63	0xbe1a9ad5	-0.15098126
64	0xbc49c40e	-0.0123148095
65	0xbd4db418	-0.05022058
66	0x3a950f4b	0.0011372356
67	0xbde0886b	-0.1096352
68	0xbd8e0d53	-0.06936135
69	0xbcedbca8	-0.029020622
70	0x3cc279bd	0.02373969
71	0xbd92c8a6	-0.07167177
72	0xbd5829a6	-0.052774094
73	0xbd5554ff	-0.05208301
74	0x3d9bdce0	0.07610488
75	0xbdacb954	-0.08433786
76	0x39a0efd8	0.00030696276
77	0x3dbf55d5	0.09342543
78	0xbd37378b	-0.044730704
79	0xbe0f5094	-0.13995582
80	0xbdeb5812	-0.114914075
81	0xbdc20a8e	-0.094746694
82	0xbd5f0ba2	-0.054454453
83	0xbd9171d8	-0.07101792
84	0xbd14d164	-0.036332503
85	0xbb746348	-0.0037290622
86	0xbdac1fd6	-0.0840451
87	0xbdb13c94	-0.086541325
88	0xbdb03e69	-0.08605654
89	0xbdcb1223	-0.09915569
90	0xbd1d3b66	-0.038386725
91	0xbdf7ce62	-0.12099911
92	0xbcca98b4	-0.024731018
93	0xbdaca913	-0.08430686
94	0xbd7b89e6	-0.061410807
95	0x3df3b917	0.119005375
96	0xbcb1a23c	-0.021683805
97	0xbd705a1e	-0.058679692
98	0xbdd8e6e5	-0.10590915
99	0xbdc7e5f7	-0.09760659
100	0xbd3b6f14	-0.04576023
101	0xbd90f424	-0.07077816
102	0xbedcd4fb	-0.4313124
103	0xbde285e8	-0.11060697
104	0xbe84afc3	-0.25915346
105	0xbd89d8c6	-0.067307994
106	0xbe118a7e	-0.14212987
107	0xbda7ccac	-0.08193335
108	0xbe1235ca	-0.14278331
109	0xbd949d9f	-0.07256626
110	0x3cae8f51	0.021308573
111	0xbdc18552	-0.09449257
112	0xbe704c56	-0.2346662
113	0x3dc26a8b	0.09492978
114	0x3d3631b3	0.04448099
115	0xbebb266b	-0.36552748
116	0x3d6eb186	0.05827477
117	0xbbf98496	-0.0076146824
118	0xbd9efc04	-0.07762912
119	0xbd1410b6	-0.03614875
120	0xbdc37a60	-0.095448256
121	0xbd852417	-0.06501024
122	0xbdb92f7c	-0.0904226
123	0xbd45f588	-0.04832986
124	0xbd5c4c68	-0.053783804
125	0xbdd2a9b4	-0.102862746
126	0xbec94526	-0.3931057
127	0xbc33bb49	-0.010969945
128	0xbe8b7c68	-0.27243352
129	0x3d9da0b6	0.07696669
130	0xbe1172f4	-0.14204007
131	0xbd9d05a8	-0.076670945
132	0xbee20b24	-0.44149125
133	0xbdf2361a	-0.11826725
134	0xbe534444	-0.2063151
135	0xbd4b7810	-0.049675047
136	0xbd80180f	-0.06254589
137	0x3d10f996	0.035394274
138	0xbeabddd6	-0.33567685
139	0xbd759a76	-0.05996176
140	0x3d58dec0	0.052946806
141	0xbcc9a531	-0.024614902
142	0xbcb88fcf	-0.02252951
143	0xbdda1ed6	-0.10650413
144	0xbd8e9b25	-0.06963185
145	0xbe171c22	-0.14756826
146	0xbdf00f25	-0.117216386
147	0xbddf2fe8	-0.10897809
148	0xbecb2e5d	-0.3968381
149	0xbe82633a	-0.2546633
150	0xbd847a86	-0.06468682
151	0xbecb7a6e	-0.39741844
152	0xbd94abbe	-0.0725932
153	0xbdc56fd3	-0.096404694
154	0xbd2ff432	-0.042957492
155	0xbddbb794	-0.10728374
156	0xbda1786f	-0.07884299
157	0xbc0cc48e	-0.008591784
158	0xbc2ea59f	-0.010659604
159	0xbe3334f8	-0.17500675
160	0xbdfc3d68	-0.123164
161	0xbd94375c	-0.072371215
162	0xbdc432f9	-0.09580035
163	0xbd617359	-0.055041645
164	0xbdce2baf	-0.10066926
165	0xbc9e7ed3	-0.019347584
166	0xbdc657f6	-0.09684746
167	0xbe305a60	-0.17221975
168	0xbd1a0eda	-0.03761182
169	0x3bda4225	0.006660717
170	0x3b04e537	0.0020278224
171	0xbde0d87a	-0.1097879
172	0xbe05b82e	-0.1305854
173	0xbd0a822d	-0.03381555
174	0x3c81f2e0	0.015862882
175	0xbbd310fa	-0.0064412327
176	0xbcb02d11	-0.021505864
177	0xbdba73a9	-0.09104092
178	0xbe9df44c	-0.30850446
179	0xbea42bb4	-0.32064593
180	0xbe7c4945	-0.24637325
181	0x3be247be	0.006905525
182	0x3a942d86	0.0011305071
183	0xbedad1d3	-0.42738208
184	0xbd3605d8	-0.044439167
185	0xbcd1c07b	-0.025604477
186	0xbe647854	-0.22311527
187	0xbd740de2	-0.059583552
188	0xbc259910	-0.010107294
189	0xbce04ff8	-0.027381882
190	0xbce8837e	-0.028383013
191	0x3b9ee6b0	0.0048492774
192	0xbda41662	-0.08012082
193	0xbdf6fe74	-0.12060252
194	0x3c9da254	0.019242443
195	0xbd82a95a	-0.063799575
196	0x3b910f30	0.0044268593
197	0xbed27445	-0.41104332
198	0x3c9e4226	0.019318651
199	0x3d9cd933	0.07658615
200	0xbd824ae8	-0.063619435
201	0xbd45a4f7	-0.048253026
202	0xbd801287	-0.06253534
203	0xbd986d2f	-0.074427
204	0xbc6c5626	-0.014424836
205	0xbc6500f0	-0.013977274
206	0xbcf07fe0	-0.02935785
207	0xbe29c960	-0.16580725
208	0xbcaa3210	-0.020775825
209	0xbd680836	-0.056648456
210	0xbda44033	-0.080200575
211	0x3ad7be5d	0.0016459931
212	0xbd3c88d5	-0.04602893
213	0xbdbe1e57	-0.092831306
214	0xbc04fffd	-0.008117673
215	0xbdbd9c83	-0.09258368
216	0xbd11fac2	-0.035639532
217	0x38ee84c1	0.00011373452
218	0xbea37e85	-0.31932464
219	0xbdc3e808	-0.09565741
220	0xbd5efb20	-0.05443871
221	0xbed9358b	-0.42423663
222	0x3c50b100	0.012737513
223	0xbc955c5c	-0.018232517
224	0xbddc420a	-0.107547835
225	0xbd957aba	-0.07298799
226	0xbd83e904	-0.064409286
227	0xbc8e6249	-0.01738085
228	0xbe541333	-0.20710449
229	0xb7d7dc9d	-2.5732728e-05
230	0xbdc42df5	-0.09579078
231	0xbe314046	-0.17309675
232	0xbec9dfc5	-0.39428535
233	0xbdbe3fdf	-0.09289526
234	0xbdadf6a5	-0.08494309
235	0xbd5ca198	-0.053865045
236	0xbb6e1361	-0.0036327469
237	0x3d5f6e0a	0.0545483
238	0xbd09ef49	-0.033675466
239	0xbdd42b7d	-0.10359857
240	0x3c66012e	0.014038367
241	0xbd5e198c	-0.054223582
242	0xbd225564	-0.039632216
243	0xbcd38f08	-0.025825039
244	0xbea9b660	-0.33146954
245	0xbb652aa0	-0.0034968033
246	0xbdc67990	-0.09691155
247	0xbc49fa4b	-0.012327741
248	0xbee092fb	-0.43862137
249	0xbe3a72ee	-0.18207905
250	0xbda3b0ae	-0.07992683
251	0xbcf19d2a	-0.029493887
252	0xbe82027c	-0.2539252
253	0xbcc36222	-0.023850504
254	0xbdd33f1f	-0.10314774
255	0xbd897612	-0.06711973

Linear2.bias f4 [256]
0	0xbede9313	-0.43471584
1	0xbd188716	-0.037238203
2	0x40b8215b	5.7540717
3	0xbf055c77	-0.52094215
4	0xbd1cb889	-0.038261924
5	0xbf783228	-0.9695153
6	0xbd577834	-0.05260487
7	0xbebbb691	-0.36662725
8	0xbdf0ef5a	-0.11764403
9	0xbea643a3	-0.32473478
10	0xbd8d5521	-0.06901003
11	0xbea18e0e	-0.31553692
12	0xc069c293	-3.6525009
13	0xbf185da7	-0.595179
14	0xbe077382	-0.13227656
15	0xbfb3e3d1	-1.4053899
16	0xbec9a8da	-0.39386636
17	0xbd7c99c1	-0.06167007
18	0xbee91989	-0.45527294
19	0xbebf1dc3	-0.37327394
20	0xbf679b2b	-0.9047114
21	0x3e789489	0.24275412
22	0xbd096b71	-0.03354973
23	0xbe122d5f	-0.1427512
24	0xbec76ac1	-0.38948634
25	0xbd366398	-0.044528574
26	0xbdd07c75	-0.10179988
27	0xbea0df08	-0.3142016
28	0xbdf66739	-0.12031407
29	0xbfffba5c	-1.9978747
30	0xbf2c178c	-0.6722343
31	0xbf0d668e	-0.5523461
32	0x4068a0a8	3.6348057
33	0xbe88b177	-0.26697895
34	0xbf46efe5	-0.777098
35	0xbe8a7bb8	-0.27047515
36	0xbf4a1f85	-0.78954345
37	0xbf74e6bb	-0.95664567
38	0xbf0df522	-0.5545217
39	0xbf2d65d7	-0.6773352
40	0xbdd81e3d	-0.105526425
41	0xbea344bb	-0.31888375
42	0xbe3bb234	-0.18329698
43	0xbed31372	-0.41225773
44	0xbd0553ed	-0.03255074
45	0xbfdb2473	-1.7120498
46	0xbeb7ca70	-0.35896635
47	0x3f9affc7	1.2109307
48	0xbdae59ab	-0.085131966
49	0xbeb8f36f	-0.36123225
50	0xbf27bbdd	-0.6552103
51	0xbe0003d8	-0.12501466
52	0x4185ca77	16.72386
53	0xbec90d4d	-0.3926796
54	0xbed0b6c3	-0.40764436
55	0xbe00d131	-0.125798
56	0xbdbd24e3	-0.09235551
57	0xbe7db16c	-0.24774712
58	0xbe07b692	-0.13253239
59	0xbccba947	-0.024860991
60	0xbe025e3b	-0.12731259
61	0xbe743658	-0.23848855
62	0xbe0c995a	-0.13730374
63	0xbd188fd7	-0.03724655
64	0xbeec7590	-0.46183443
65	0xbf8dde53	-1.1083473
66	0xbe102fc9	-0.14080729
67	0xc01ab46a	-2.4172616
68	0xbd45f4cd	-0.048329163
69	0xbe8c782b	-0.2743543
70	0xbf3fe244	-0.7495463
71	0xbf1443f7	-0.57916206
72	0xbf3e3902	-0.74305737
73	0xbe2685b4	-0.16261941
74	0xbf237320	-0.6384754
75	0xbe9d7c2b	-0.30758795
76	0xbec00b4d	-0.37508622
77	0xbdcfb46a	-0.10141833
78	0xbe7fc637	-0.24977957
79	0xbf63b204	-0.88943505
80	0xbed1ba0c	-0.40962255
81	0xbe71d5f9	-0.2361678
82	0xbe84a060	-0.25903606
83	0xbdc6d761	-0.09709049
84	0xbde5ed8f	-0.11226951
85	0xbd5eb6f4	-0.054373696
86	0xbd97361b	-0.07383367
87	0xbfc1c6ba	-1.5138772
88	0xbf29f5f5	-0.66390926
89	0xbed99457	-0.42495987
90	0xbeb79b23	-0.35860547
91	0xbd720ef1	-0.05909628
92	0xbeb9d395	-0.36294237
93	0xbe955140	-0.2916355
94	0x3f4797bc	0.77965903
95	0xbf12ec4f	-0.5739183
96	0xbe90f696	-0.2831313
97	0xbccb8eea	-0.02484842
98	0xbdbedb25	-0.09319142
99	0xbed65add	-0.41866198
100	0xbf096f7d	-0.5368574
101	0xbe4737c4	-0.19454867
102	0xbca6d6c7	-0.020366086
103	0xbeb45ce9	-0.35227135
104	0xbe9fa0f4	-0.31177485
105	0xbeb1c01e	-0.34716886
106	0xbed93b38	-0.42427993
107	0x4136bb4d	11.420728
108	0xbec3e406	-0.38259906
109	0xbf12b8b0	-0.5731306
110	0xbf8a1051	-1.0786229
111	0xbf106f2b	-0.5641963
112	0xbeb6e78c	-0.3572353
113	0xbf3ae422	-0.73004353
114	0xbe45d923	-0.19321112
115	0xbea17541	-0.3153477
116	0xc01b58a9	-2.4272864
117	0xbde75161	-0.11294819
118	0xc0956b3d	-4.6693406
119	0xc1315482	-11.083132
120	0x4012548f	2.286411
121	0xbee81ef5	-0.45336118
122	0xbebf561f	-0.37370393
123	0xbecb9f7b	-0.3977011
124	0xbf04ab22	-0.5182363
125	0xc110826c	-9.031841
126	0x3ee26435	0.44217077
127	0xbedee26f	-0.4353213
128	0xbc8f3566	-0.017481517
129	0xbe924daf	-0.28574893
130	0xbfcdcb9f	-1.6077765
131	0xbf4301fd	-0.7617491
132	0x40b13c30	5.538597
133	0xbd5e8fdf	-0.054336425
134	0xbf06c424	-0.52643037
135	0xc0102344	-2.2521524
136	0xbd4ef755	-0.050528843
137	0xbda2432f	-0.079229705
138	0xc11c5f02	-9.773195
139	0xbf6ac835	-0.9171174
140	0x41374880	11.4552
141	0xbeb3f0f8	-0.35144782
142	0xbe01db29	-0.12681259
143	0xbe039191	-0.12848498
144	0xbec1ad0d	-0.3782734
145	0xbdcef3d9	-0.10105104
146	0xbed68de0	-0.41905117
147	0xbd91e8a8	-0.07124454
148	0xbdd16b40	-0.102255344
149	0xbe1de191	-0.15418078
150	0xbf066837	-0.5250277
151	0xbdccd2b9	-0.1000113
152	0xbe521e47	-0.20519362
153	0xbda79ad0	-0.08183825
154	0xbdced439	-0.10099072
155	0xbe7c1f40	-0.24621296
156	0xbd095915	-0.03353222
157	0xbe1ac1ab	-0.15112941
158	0xbdbf32b7	-0.09335845
159	0xbe8d4202	-0.27589422
160	0xbf5e06db	-0.8672921
161	0xbef6daa0	-0.48213673
162	0xbec9c922	-0.39411265
163	0xbf626696	-0.88437784
164	0xbdf302e8	-0.11865789
165	0xbec8de84	-0.39232266
166	0xbe8cb516	-0.27481908
167	0xbd648fe4	-0.055801287
168	0xbf813f85	-1.009751
169	0xbd183491	-0.037159506
170	0xc099f3d9	-4.8110166
171	0xbcd7cd70	-0.026343077
172	0x4052d04d	3.2939637
173	0xbf0b09d6	-0.54311883
174	0xbeff450b	-0.49857363
175	0xc06b5cf5	-3.6775486
176	0xbed29306	-0.41127795
177	0xbe94d95b	-0.2907208
178	0xbceedcf1	-0.029158087
179	0xbeeb6768	-0.4597733
180	0xbed18024	-0.40918076
181	0xbe37ac45	-0.1793681
182	0xbdce4b9e	-0.100730166
183	0xbe68584e	-0.22689936
184	0xbea09261	-0.31361678
185	0xbe349f1a	-0.17638817
186	0xbea7adb6	-0.32749718
187	0xbd4c1986	-0.04982903
188	0xbeaa71b9	-0.33289889
189	0xbf4b0809	-0.79309136
190	0xbc70c9a6	-0.014696514
191	0xbeb0c3fc	-0.34524524
192	0xbddfbf26	-0.109251305
193	0xbf585733	-0.84508055
194	0xbefe36a0	-0.4965105
195	0xbea1b4c8	-0.31583238
196	0xbe263687	-0.16231738
197	0xbf1b1f62	-0.6059476
198	0xbdf901d1	-0.121585496
199	0xbec97a39	-0.3935106
200	0xbfa8b288	-1.3179483
201	0xbeb94875	-0.36188093
202	0xc1257e8b	-10.343394
203	0xbcb6d73e	-0.022319432
204	0xbd61da4c	-0.055139825
205	0xbeb55376	-0.35415238
206	0xc0d58974	-6.673029
207	0xbdb82201	-0.08990861
208	0xbddf2c01	-0.10897065
209	0xbd119ca7	-0.035549786
210	0xbebd5c85	-0.3698465
211	0xbf37623d	-0.71634275
212	0xbde61283	-0.112339996
213	0xbe9ad373	-0.30239448
214	0xbe6ca48a	-0.23109642
215	0xbe9fe0e3	-0.31226262
216	0xc03318a1	-2.7983782
217	0xbefedf97	-0.4977996
218	0xbdf95510	-0.121744275
219	0xbd8a6ffd	-0.06759641
220	0xbf797bea	-0.974547
221	0xbee14c90	-0.44003725
222	0xbfbd420e	-1.4785783
223	0xbd5c4341	-0.053775076
224	0xbd3719a6	-0.044702195
225	0xbec9eb7a	-0.39437467
226	0xbe9904d8	-0.29886508
227	0xbec4de4c	-0.3845085
228	0xbed29af6	-0.4113385
229	0xbd6bf483	-0.05760623
230	0xbdf653bb	-0.12027689
231	0xbf21383b	-0.62976426
232	0xbf0933c7	-0.5359463
233	0x4138b30d	11.543714
234	0xc00241a5	-2.0352566
235	0xbeaddbbf	-0.33956715
236	0xbbeab827	-0.007163066
237	0xbd926547	-0.07148223
238	0xbed31141	-0.412241
239	0xbed91eda	-0.4240635
240	0xbe7cac72	-0.24675158
241	0xbf27edb4	-0.6559708
242	0x400182fc	2.0236197
243	0xbf2bbb72	-0.67082894
244	0xbeaf16d3	-0.341971
245	0x40712e50	3.7684517
246	0xbf0a911e	-0.5412768
247	0xbd8ff36b	-0.0702885
248	0xbdf66c6f	-0.12032401
249	0xbe3f3d23	-0.18675666
250	0xbf006c40	-0.50165176
251	0xbebeff6c	-0.37304246
252	0x402b62e1	2.67791
253	0xbf39ef8a	-0.7263113
254	0xbdf803ec	-0.12110123
255	0xbf09e823	-0.5386984

Linear3.weight f4 [256, 256]
0	0xbd867f56	-0.06567256
1	0xbdf53bb1	-0.11974276
2	0xbdf9cf89	-0.12197787
3	0xbefd5505	-0.49478927
4	0xbd3c25e7	-0.045934584
5	0x3e7c4dee	0.24639103
6	0xbde3bc6b	-0.11119922
7	0xbd1c5cb8	-0.03817436
8	0xbde95292	-0.11392702
9	0xbd08fdba	-0.033445098
10	0xbd327f85	-0.043578643
11	0xbd743581	-0.059621338
12	0xbe8855ad	-0.26627865
13	0xbe8ceb9f	-0.27523515
14	0xbdee89de	-0.1164739
15	0xbddcafec	-0.10775742
16	0xbc77b1b3	-0.01511805
17	0xbd121d94	-0.03567274
18	0xbbae5599	-0.0053202626
19	0xbdf79cb1	-0.120904334
20	0xbf197d4a	-0.599568
21	0xbef01b1e	-0.4689569
22	0xbdef5b97	-0.11687391
23	0xbe9e97a5	-0.3097507
24	0xbd69289f	-0.056923505
25	0xbd4cd964	-0.050012007
26	0xbc9d090d	-0.019169355
27	0xbd40dba5	-0.04708447
28	0xbd88bacb	-0.06676253
29	0xbdc9feb9	-0.098630376
30	0xbdc72e01	-0.097255714
31	0x3c431c65	0.011908625
32	0xbc1ea6a6	-0.009683287
33	0x3bda9a6f	0.006671242
34	0x3a6e6200	0.00090935826
35	0xbd4ad23c	-0.0495169
36	0xbe430492	-0.19044712
37	0xbd41e63d	-0.047338713
38	0xbe48b313	-0.19599561
39	0xbec41fa0	-0.38305378
40	0xbb87aa8a	-0.004140203
41	0xbc69ac37	-0.014262251
42	0xbdec4b6c	-0.11537823
43	0xbd53575a	-0.051596977
44	0xbd1d1a73	-0.038355302
45	0x3e9f7b33	0.3114868
46	0x3d8c4cdd	0.06850598
47	0x3e2a691f	0.16641663
48	0xbdaff17c	-0.08590981
49	0xbd61935c	-0.055072173
50	0xbd6034cc	-0.05473785
51	0xbcd147f6	-0.025547009
52	0xbef6b7e6	-0.48187178
53	0xbd5d916a	-0.054093756
54	0xbdf0cb6d	-0.117575504
55	0xbde8f988	-0.11375719
56	0xbdecd9a2	-0.11564948
57	0xbdecd698	-0.11564368
58	0xbde2d92b	-0.11076578
59	0xbd24ceb4	-0.04023619
60	0xbdf3bc0e	-0.11901103
61	0x3e89ccda	0.26914102
62	0x3d13ca39	0.036081526
63	0xbdd9048b	-0.1059657
64	0xbd5d765f	-0.054067966
65	0xbeb1b84c	-0.3471092
66	0xbd95076e	-0.07276808
67	0xbbf9318f	-0.007604785
68	0xbd2ff9f0	-0.04296297
69	0xbde20e0e	-0.11037837
70	0xbe481028	-0.19537413
71	0xbbb95887	-0.0056563052
72	0xbd9141c8	-0.07092625
73	0x3a030f9e	0.00049995806
74	0xbd639ce3	-0.05556954
75	0xbd068b3f	-0.03284764
76	0xbd814637	-0.063122205
77	0xbdc5c7a7	-0.09657221
78	0xbd0e624a	-0.034761705
79	0xbdf3589c	-0.11882135
80	0xbd3c9c20	-0.04604733
81	0xbdd157f0	-0.10221851
82	0xbe61289f	-0.21988152
83	0xbd79beb8	-0.0609729
84	0xbd9c4c30	-0.07631719
85	0xbcb7a8e1	-0.022419395
86	0xbd2cb3bd	-0.0421636
87	0xbecf723d	-0.40516844
88	0xbebaf6f0	-0.36516523
89	0x3d9a6f7a	0.07540794
90	0xbc98c3d5	-0.018648067
91	0xbd401421	-0.046894196
92	0x3b043f89	0.0020179471
93	0x3e0ea2f2	0.13929346
94	0x3d3e2ade	0.0464276
95	0xbd09c38d	-0.033633757
96	0xbc1bc10f	-0.009506478
97	0xbd990fb3	-0.074736975
98	0xbed8e3fe	-0.42361444
99	0xbc6cc0f6	-0.014450302
100	0xbee38e09	-0.44444302
101	0xbd7da21d	-0.06192218
102	0xbcaa25a0	-0.020769894
103	0xbd1101e7	-0.035402205
104	0xbdc8ee18	-0.09811038
105	0x3df57658	0.11985463
106	0xbc6a3ef2	-0.014297234
107	0xbf936c75	-1.1517473
108	0xbcf77b29	-0.030210095
109	0xbd6ab000	-0.057296753
110	0xbd84c789	-0.06483371
111	0x3d195e16	0.037443243
112	0xbda65fd5	-0.08123747
113	0xbef6383b	-0.48089775
114	0xbda250c2	-0.079255596
115	0xbdf20032	-0.118164435
116	0xbf0106e4	-0.5040114
117	0xbc5e93bb	-0.013585026
118	0xbc553325	-0.013012682
119	0xbf9da7a8	-1.231679
120	0xbe61be1e	-0.2204518
121	0xbd2d43f6	-0.04230114
122	0xbdf3e3ff	-0.11908721
123	0x3c51b488	0.01279939
124	0xbf50479d	-0.81359273
125	0xbf0a3130	-0.53981304
126	0xbe35b946	-0.17746457
127	0xbd32c9ce	-0.043649487
128	0xbdb3bfa5	-0.08776788
129	0xbc18775d	-0.009305802
130	0xbd32e0ba	-0.043671347
131	0x3f23f0e8	0.6403947
132	0xbe663d04	-0.22484213
133	0x3daadfbb	0.083434545
134	0xbdafc3fc	-0.08582303
135	0xbf24f23d	-0.64432126
136	0xbd9390ef	-0.07205378
137	0xbde41c89	-0.11138255
138	0xbe8c48d6	-0.2739932
139	0xbd6b91b3	-0.057511996
140	0xbd764be2	-0.06013096
141	0xbdd4e705	-0.10395626
142	0xbcc26fcf	-0.023734955
143	0xbda05fcd	-0.078307725
144	0xbcca8dfc	-0.024725907
145	0xbbda8e96	-0.0066698296
146	0xbd77b947	-0.06047943
147	0xbd3de737	-0.04636308
148	0xbdcc0bb1	-0.099631675
149	0xbca80f69	-0.02051516
150	0xbc80d3ed	-0.015726054
151	0xbd664e6d	-0.056227136
152	0x3cd58d28	0.026068285
153	0xbc7f850f	-0.0155956885
154	0xbdae28a6	-0.08503847
155	0xbd128086	-0.0357671
156	0xbd91b175	-0.07113925
157	0xbd82b4af	-0.06382119
158	0xbd11924f	-0.03553992
159	0xbd1856d1	-0.03719217
160	0xbe05b7eb	-0.1305844
161	0xbd698081	-0.057007316
162	0xbeb998ad	-0.36249295
163	0x3e7ee068	0.24890292
164	0xbd5e17f1	-0.05422205
165	0xbc49d427	-0.0123186475
166	0x3ec1690b	0.37775454
167	0x3d5a41c8	0.05328539
168	0xbd588ddb	-0.05286966
169	0xbd3f67ab	-0.046729725
170	0xbd8307b4	-0.06397954
171	0xbd67eb09	-0.05662063
172	0xbf8f0121	-1.117222
173	0xbe843560	-0.25821972
174	0xbd89f54f	-0.06736242
175	0xbbe7f15a	-0.007078332
176	0xbdf18122	-0.11792208
177	0xbd3dfc81	-0.046383385
178	0xbbd30c92	-0.0064407075
179	0xbd85de4c	-0.065365404
180	0xbc8dc0c0	-0.017303824
181	0xbbe6820e	-0.0070345467
182	0xbd7be32b	-0.06149594
183	0xbe424e1e	-0.18975112
184	0x3d74bd6c	0.05975096
185	0xbc57822b	-0.013153593
186	0x3d1208a2	0.035652764
187	0xbdb2c1e7	-0.0872839
188	0x3da35396	0.07974927
189	0xbde728ee	-0.112871036
190	0xbdc8344d	-0.097756006
191	0xbcac5e0b	-0.021040937
192	0xbd52f407	-0.051502254
193	0xbf03a213	-0.5141918
194	0xbd3141c5	-0.043275613
195	0xbd0baaf7	-0.03409859
196	0xbcd5e2fc	-0.026109211
197	0xbddb4963	-0.10707357
198	0xbd4ae519	-0.04953489
199	0xbd65115f	-0.05592477
200	0xbf8b6ed9	-1.0893203
201	0xbd3d1721	-0.046164636
202	0xbed70ee3	-0.42003545
203	0xbd93e1d0	-0.07220805
204	0x3da263c6	0.079291865
205	0xbb78ef22	-0.003798433
206	0xbde7dca9	-0.113213845
207	0xbd089d19	-0.033352945
208	0x3da9d9be	0.08293484
209	0xb9823b00	-0.0002483949
210	0xbd1223ea	-0.03567878
211	0x3bf649aa	0.0075161057
212	0xbcca2e75	-0.024680356
213	0xbdd90769	-0.105971165
214	0xbd8559a6	-0.0651124
215	0xbc733048	-0.014843054
216	0xbe8dba0d	-0.27681008
217	0xbbccf919	-0.0062552807
218	0xbdb49662	-0.08817746
219	0xbdba23c9	-0.09088857
220	0xbdc6e52f	-0.09711682
221	0xbddf14c6	-0.10892634
222	0xbc576985	-0.013147716
223	0xbda47528	-0.08030158
224	0xbde88659	-0.1135375
225	0x3e3ab921	0.18234684
226	0xbd4a6873	-0.049416017
227	0xbc00c4e4	-0.007859442
228	0x3e8be293	0.273213
229	0xbd1cd22e	-0.03828638
230	0xbc9be89f	-0.01903182
231	0x3ec4b24a	0.38417274
232	0xbde4fb25	-0.111807145
233	0xbe6cef18	-0.23138082
234	0xbef82e5f	-0.48472878
235	0xbd9e258d	-0.07722006
236	0xbc829a09	-0.01594259
237	0xbd940b9c	-0.07228777
238	0x3a211cc7	0.0006145951
239	0xbd386fa6	-0.04502835
240	0xbeaca44b	-0.33719096
241	0xbc6203e7	-0.013794876
242	0xbb337142	-0.002738074
243	0xbd4db5b3	-0.05022211
244	0xbd8a22bd	-0.06744907
245	0xbf0413da	-0.5159279
246	0xbba4e849	-0.0050325734
247	0xbdbffc74	-0.093743235
248	0xbc628900	-0.013826609
249	0xbb5a4baa	-0.003330926
250	0x3df4179d	0.119185664
251	0xbd8f04dc	-0.06983349
252	0xbe9838c4	-0.2973081
253	0xbdd09042	-0.10183765
254	0xbd8c11e0	-0.06839347
255	0xbd6d13f4	-0.057880357

Linear3.bias f4 [256]
0	0xc02c71f0	-2.6944542
1	0xbfb9a02e	-1.4502008
2	0xbfce18c8	-1.6101313
3	0xc00fcb41	-2.2467806
4	0xbf7e3bad	-0.9930981
5	0xbfa6fa41	-1.3045121
6	0xbf92d5fd	-1.1471554
7	0xbfd62b53	-1.6731972
8	0xbf9ee251	-1.2412816
9	0xbf8c8673	-1.0978531
10	0xbec666c1	-0.3875027
11	0xbf867131	-1.0503293
12	0xc007bb9f	-2.1208265
13	0xbf1d8b94	-0.61541104
14	0xc000305c	-2.0029516
15	0xbfa5bfd6	-1.2949169
16	0xbf2516ce	-0.6448792
17	0xbfcf9eab	-1.6220297
18	0xbfcef39f	-1.6168097
19	0xbf86da4d	-1.053537
20	0xc0135d96	-2.302587
21	0xbf2c48e9	-0.6729875
22	0xbfce4620	-1.611515
23	0xbee098e9	-0.4386666
24	0xbf48dbb7	-0.7846026
25	0xc01e83f5	-2.476804
26	0xbf7ad3b1	-0.97979265
27	0xbfc02e92	-1.5014212
28	0xc01ff9d6	-2.4996238
29	0xc00b79e6	-2.179315
30	0xbfaf406d	-1.3691536
31	0xbfd19e40	-1.6376419
32	0xbfc9e301	-1.5772401
33	0xc0364723	-2.8480918
34	0xbf17b54f	-0.5926103
35	0xbffc1e14	-1.9696679
36	0xbf19cec6	-0.60081136
37	0xbf638e65	-0.8888915
38	0xbfa9d239	-1.326728
39	0xbfa21e24	-1.2665448
40	0xc000b084	-2.0107737
41	0xbf808e37	-1.00434
42	0xbfd011ef	-1.6255473
43	0xbe0b26d5	-0.13589032
44	0xc014ed99	-2.3270018
45	0xbfa5908e	-1.293474
46	0xbf86e56f	-1.0538768
47	0xbf3d90cb	-0.7404906
48	0xc05c5158	-3.4424648
49	0xc053f6af	-3.3119314
50	0xbef91596	-0.4864928
51	0xc009c460	-2.1526108
52	0xbfb16006	-1.3857429
53	0xbfbd7e83	-1.4804233
54	0xbfadb24a	-1.3570035
55	0xbf5e1c22	-0.8676168
56	0xbfb76d03	-1.4330143
57	0xbfe0cdcb	-1.7562803
58	0xbfe0f0ba	-1.7573464
59	0xbfbb6dee	-1.4642923
60	0xbf409faa	-0.7524363
61	0xbfb9f202	-1.452698
62	0xbf02f7bf	-0.5115928
63	0xbf36ad3e	-0.71358097
64	0xbfd8f0bb	-1.6948465
65	0xbfc9b2e1	-1.5757715
66	0xbfe9f9cf	-1.827936
67	0xc02fc3b9	-2.746321
68	0xbea508d7	-0.32233307
69	0xbe07058b	-0.13185708
70	0xbf6f0a11	-0.93374735
71	0xc03371d9	-2.8038237
72	0xbfdafccc	-1.7108397
73	0xc020d121	-2.5127642
74	0xbf8ab07d	-1.083511
75	0xc00baf28	-2.1825657
76	0xbfc0a4b5	-1.5050265
77	0xbfbb6a30	-1.4641781
78	0xbfe28295	-1.76961
79	0xc046a993	-3.1041
80	0xbf03ecc2	-0.5153314
81	0xbff61f5b	-1.9228319
82	0x41d5b8b1	26.715181
83	0xbfa7dc46	-1.3114097
84	0xbfaa94a8	-1.3326616
85	0xc006ce53	-2.106343
86	0xbea1ed91	-0.3162656
87	0xc05d1f38	-3.4550304
88	0xbf543c6e	-0.8290471
89	0xc00bce2b	-2.1844585
90	0xbf932041	-1.1494218
91	0xbfb99615	-1.4498926
92	0xbfa00ad4	-1.2503304
93	0xbf983dac	-1.1893821
94	0xbf939b8e	-1.1531847
95	0xbf36282f	-0.71155065
96	0xc010ab3f	-2.260452
97	0xbfa72f56	-1.3061321
98	0xbf33222e	-0.6997403
99	0xbfd48cb8	-1.6605444
100	0xbfebc377	-1.8419026
101	0xbfb573cc	-1.4175963
102	0xbf70557d	-0.93880445
103	0xbfcfd248	-1.6236048
104	0xbfabf117	-1.343295
105	0xbfed133d	-1.8521496
106	0xbf690b58	-0.91032934
107	0xbf8f33e9	-1.1187717
108	0xbfc45cb0	-1.5340786
109	0xbef1f0d3	-0.47254047
110	0xbf8b0dff	-1.0863646
111	0xc0015d7f	-2.0213315
112	0xc02f5d62	-2.7400746
113	0xc062aa1f	-3.5416334
114	0xbff1f14c	-1.8901763
115	0xbfb81aa2	-1.4383128
116	0xbff38e7d	-1.9027859
117	0xbfa7dbb8	-1.3113928
118	0xbfb61b1b	-1.4227022
119	0xc002f46d	-2.0461686
120	0xbf60309c	-0.8757417
121	0xbfa14e35	-1.2601992
122	0xbf306a99	-0.68912655
123	0xbf97724d	-1.1831757
124	0xbfc620de	-1.547878
125	0xc044387a	-3.065947
126	0xbfdd5fce	-1.7294862
127	0xbf9ad425	-1.2095991
128	0xbfd5ddf1	-1.6708356
129	0xbf5cd4ee	-0.86262405
130	0xbfac2e67	-1.3451661
131	0xc083dd1d	-4.1207414
132	0xc01a833a	-2.4142594
133	0xbfc0d64b	-1.5065397
134	0xbfbe01e1	-1.4844323
135	0xc022cd5d	-2.5437844
136	0xbfd7f5de	-1.6871908
137	0xbf382edd	-0.7194651
138	0xbf10b9b6	-0.5653337
139	0xbf29f794	-0.663934
140	0xbf2ac5e6	-0.6670822
141	0xbfec9849	-1.8483974
142	0xbf591988	-0.8480458
143	0xbfeafebf	-1.8358992
144	0xbf53859e	-0.8262576
145	0xc0179798	-2.3686275
146	0xbfad7b72	-1.3553298
147	0xbfd08060	-1.6289177
148	0xbf9f3f02	-1.2441103
149	0xbf54cf74	-0.8312905
150	0xbfe7ffc9	-1.8124934
151	0xbfe726b8	-1.8058691
152	0xbf47e87d	-0.78089124
153	0xc0012b02	-2.01825
154	0xbf67b4ac	-0.9051006
155	0xc00c76bd	-2.1947472
156	0xbfa0febb	-1.2577738
157	0xbf619d72	-0.8813087
158	0xbff19f07	-1.8876656
159	0xc0640a7e	-3.5631404
160	0xbfa01df6	-1.2509143
161	0xbfc9d96f	-1.576948
162	0xbfc17c25	-1.5116011
163	0xc0531e2c	-3.2987165
164	0xbf368168	-0.7129121
165	0xbfe5cd28	-1.7953234
166	0xbed10f33	-0.4083191
167	0xbf602aa2	-0.8756505
168	0xbfee7081	-1.8628083
169	0xbff33f96	-1.900378
170	0xbfdeeeed	-1.7416664
171	0xc0169812	-2.3530316
172	0xbfafb100	-1.3725891
173	0xc03cf6ed	-2.9525712
174	0xc0022dc3	-2.034043
175	0xbdd11511	-0.10209096
176	0xbfdca227	-1.7236985
177	0xbf4ff486	-0.8123249
178	0xbdb84563	-0.089976095
179	0xc00a18c9	-2.1577628
180	0xbfa844c8	-1.314599
181	0xbfcc9c26	-1.5985153
182	0xbf7f2528	-0.9966607
183	0xbeb407d9	-0.35162237
184	0xc0108175	-2.2579014
185	0xbee2897f	-0.44245526
186	0xbf3cc074	-0.7373116
187	0xbfd39f64	-1.6533017
188	0xbdd14698	-0.10218543
189	0xc0d78650	-6.7351456
190	0xbfafbc89	-1.3729411
191	0xbfd5ddd6	-1.6708324
192	0xbfad52f7	-1.3540944
193	0xbdc6cb9a	-0.09706803
194	0xc03c8f99	-2.9462645
195	0xc0987038	-4.7636986
196	0xbfb88e58	-1.441844
197	0xbfad7f9f	-1.3554572
198	0xbed9e751	-0.42559293
199	0xc03c1904	-2.9390268
200	0xbfcec6d9	-1.6154433
201	0xc014b4da	-2.3235383
202	0xbf656c00	-0.8961792
203	0xc02099ad	-2.5093796
204	0xbf9d8503	-1.2306217
205	0xbf309144	-0.6897166
206	0xbfec8dfb	-1.8480829
207	0xbff5262a	-1.9152272
208	0xbfedc752	-1.8576453
209	0xc08dd857	-4.4326587
210	0xbf35ba44	-0.70987344
211	0xbfd12588	-1.6339579
212	0xbf502b38	-0.81315947
213	0xc00934a9	-2.1438391
214	0xbf8dddeb	-1.1083349
215	0xbff83765	-1.9391905
216	0xbfa22da8	-1.2670183
217	0xbf11f933	-0.5702087
218	0xc00ed833	-2.2319458
219	0xc0172a78	-2.361967
220	0xc00df162	-2.2178578
221	0xc02a428c	-2.6603117
222	0xbf824b36	-1.0179203
223	0xbf15816a	-0.58400595
224	0xc02043a6	-2.504129
225	0xbff2f725	-1.8981673
226	0xbf610976	-0.8790506
227	0xbfa0f988	-1.2576151
228	0xbff16bf2	-1.8861067
229	0xbfdb252d	-1.712072
230	0xc027ba9d	-2.620765
231	0xbf958795	-1.1682001
232	0xbfd1cebc	-1.6391215
233	0xc0077596	-2.1165519
234	0xc0378e03	-2.8680427
235	0xbf9c6997	-1.2219723
236	0xbf89badb	-1.0760149
237	0xbf0d793c	-0.55263114
238	0xbf8dd485	-1.1080481
239	0xbfa6c99e	-1.3030279
240	0xbf9da17f	-1.231491
241	0xc008876e	-2.133266
242	0xc00bb9e3	-2.1832206
243	0xc00ccbb0	-2.199932
244	0xbf69be9c	-0.9130647
245	0xbfa5bd53	-1.2948402
246	0xbfdeef15	-1.7416712
247	0xbe5c621d	-0.21521802
248	0xc051efbd	-3.2802575
249	0xbff98fbc	-1.9496989
250	0xbf8194ae	-1.0123498
251	0xc02cc873	-2.6997344
252	0xbfec64f4	-1.8468308
253	0xbec51130	-0.38489676
254	0xbf7b5c3b	-0.9818761
255	0xc014fbee	-2.3278766

Linear4.weight f4 [1, 256]
0	0x3e99b0ff	0.3001785
1	0xbe89d72b	-0.26921973
2	0x3e9f1be3	0.31075963
3	0x3d8c5886	0.06852822
4	0x3e4356d4	0.19076091
5	0x3c0ac3e0	0.008469552
6	0x3e179a97	0.14805065
7	0xbdd891d6	-0.10574691
8	0x3d5fe4e2	0.05466164
9	0xbea003eb	-0.3125299
10	0xbbf6020e	-0.007507569
11	0x3ef4fa8f	0.4784741
12	0xbe9c16e9	-0.3048623
13	0x3ce736a5	0.028224299
14	0xbdc102a2	-0.0942433
15	0xbdb36366	-0.08759193
16	0x3dc68911	0.09694112
17	0x3e874c62	0.26425463
18	0xbdd9451c	-0.10608885
19	0x3e874faa	0.26427966
20	0xbe5cf215	-0.21576722
21	0xbd95a77f	-0.07307338
22	0xbe434f76	-0.1907328
23	0x3d92626a	0.07147677
24	0x3e30ca46	0.17264661
25	0x3d29aad8	0.041422695
26	0x3e66a93a	0.22525492
27	0xbe2c7451	-0.16841246
28	0x3e3f75a8	0.18697226
29	0xbe16aa86	-0.14713487
30	0x3caf09d8	0.021366999
31	0x3c7de986	0.015497571
32	0xbe1e0083	-0.15429883
33	0xbe9bacfc	-0.30405414
34	0x3e92846f	0.28616664
35	0x39a1b22b	0.00030841058
36	0x3e1b6fdd	0.15179391
37	0x3d90fc88	0.070794165
38	0x3e8d4a8c	0.27595937
39	0x3da0fe87	0.07861047
40	0xbc698520	-0.014252931
41	0xbd339877	-0.043846574
42	0xbdf6d8bf	-0.1205306
43	0x3d59fd81	0.053220276
44	0xbe81837b	-0.25295624
45	0xbe19166b	-0.14949958
46	0xbe806458	-0.25076556
47	0xbd81e788	-0.06342989
48	0x3db7fed5	0.08984152
49	0xbd7fe30d	-0.062472392
50	0xbe63885d	-0.22219987
51	0xbd2bfd84	-0.04198982
52	0x3e55b69a	0.20870438
53	0xbd331927	-0.04372516
54	0x3e38d226	0.18048915
55	0xbe9cb1b4	-0.30604327
56	0x3ee6bf67	0.45067903
57	0xbe90b406	-0.28262347
58	0xbda3cff2	-0.07998647
59	0x3e8f156e	0.27946037
60	0x3bfa4690	0.0076378062
61	0xbdd42a43	-0.10359623
62	0x3dac9115	0.0842611
63	0x3e3bd89e	0.18344352
64	0x3daea4ae	0.08527504
65	0x3eea18b7	0.4572198
66	0x3e2b11e7	0.16706048
67	0xbdf6938d	-0.12039862
68	0x3d674c8b	0.05646948
69	0xbd44100e	-0.047866873
70	0x3d5cafe6	0.053878687
71	0xbd8edd52	-0.06975807
72	0xbe97514c	-0.29554212
73	0x3d06834c	0.03284006
74	0x3f129edc	0.5727365
75	0xbe59ea05	-0.21280678
76	0x3f020231	0.50784594
77	0xbe917145	-0.2840673
78	0x3e1f5733	0.15560608
79	0x3e04291d	0.12906308
80	0xbe23a1c5	-0.15979679
81	0x3ca793d7	0.020456238
82	0xbd22fa2d	-0.039789367
83	0xbe8b4288	-0.27199197
84	0x3c5a4cb9	0.013323956
85	0xbdfbbae8	-0.12291509
86	0x3e84da91	0.25948003
87	0xbdb1c5a8	-0.08680278
88	0x3e5ddad6	0.2166551
89	0xbe85a62e	-0.26103348
90	0x3c62a5cf	0.013833477
91	0x3da4f4e5	0.080545224
92	0xbde8549a	-0.113442615
93	0xbe6a9c9e	-0.22911307
94	0xbd797529	-0.06090275
95	0x3d948d05	0.0725346
96	0xbe0ce9c0	-0.13761044
97	0xbe31a18f	-0.17346786
98	0x3d95932e	0.07303463
99	0x3d7d1ded	0.061796118
100	0xbe85f909	-0.2616656
101	0x3d171ec6	0.036894582
102	0xbe6208b8	-0.22073638
103	0xbe827a8e	-0.25484127
104	0xbe1e561a	-0.15462533
105	0x3c3b9383	0.011448744
106	0xbd8f6705	-0.07002071
107	0xbe26e9f4	-0.16300184
108	0x3dedc9ce	0.11610757
109	0x3ea1f28f	0.3163037
110	0xbe0cf5ce	-0.13765642
111	0xbe363aae	-0.17795822
112	0x3e2d8cc4	0.16948229
113	0xbe886238	-0.26637435
114	0xbde19f6a	-0.11016734
115	0x3e9ab9d6	0.30219907
116	0x3e351ba0	0.1768632
117	0x3dacf61a	0.08445378
118	0x3d9ce492	0.07660784
119	0x3e853ca7	0.26022837
120	0xbe63558d	-0.22200604
121	0x3e76a48f	0.24086212
122	0x3e96e736	0.29473275
123	0x3ef2deea	0.47435695
124	0xbddef74c	-0.10887012
125	0xbce27383	-0.02764297
126	0xbe6d66e3	-0.2318378
127	0xbe9291ff	-0.2862701
128	0x3e45e920	0.19327211
129	0x3d88e3f3	0.06684103
130	0x3e432b65	0.19059522
131	0xbd8d1d6a	-0.06890376
132	0x3df26c9d	0.118371226
133	0xbe119b7a	-0.14219466
134	0xbdf05473	-0.117348574
135	0xbce25276	-0.027627211
136	0x3a87bd52	0.0010356104
137	0xbd160449	-0.03662518
138	0xbe07971d	-0.13241239
139	0x3e61bd18	0.2204479
140	0xbde692c2	-0.112584606
141	0x3d95879f	0.07301258
142	0x3d59e894	0.05320032
143	0x3ef2ece3	0.47446355
144	0xbe978c1a	-0.29599077
145	0x3dca2e17	0.09872072
146	0x3e485c3a	0.19566432
147	0xbe6dc135	-0.23218234
148	0xbd494be6	-0.049144648
149	0xbebddcde	-0.3708257
150	0xbdf055b1	-0.11735094
151	0xbc96ded7	-0.018416805
152	0xbe6f5e5e	-0.23375842
153	0x3c730e30	0.0148349255
154	0x3d7f5711	0.062338892
155	0x3d13cfd1	0.03608686
156	0x3e728da9	0.23686852
157	0x3d90a811	0.07063306
158	0xbabd4ea0	-0.0014442988
159	0xbddd8f14	-0.108183056
160	0xbddd0991	-0.1079284
161	0x3e78a92b	0.24283282
162	0x3e5f1749	0.21786226
163	0xbdee4c7f	-0.11635684
164	0x3ce740d4	0.028229155
165	0xbdff9501	-0.12479592
166	0x3e47f517	0.19527088
167	0xbea12284	-0.31471646
168	0x3e73810a	0.23779693
169	0x3c2f8c03	0.010714534
170	0xbe616f44	-0.220151
171	0x3de42575	0.11139957
172	0xbda6a8db	-0.081376754
173	0x3dd04542	0.1016946
174	0x3c9a0c55	0.018804708
175	0x3d087d75	0.03332277
176	0xbe90ad39	-0.28257158
177	0x3c64128a	0.013920436
178	0xbc902ad4	-0.017598547
179	0x3e0a5291	0.13508059
180	0x3f08e407	0.5347294
181	0x3eba1f7e	0.36352152
182	0x3b7cc6e6	0.00385707
183	0x3e9e2df6	0.3089444
184	0xbdbaf1a0	-0.091281176
185	0xbe65a0b7	-0.22424589
186	0xbe8bbf63	-0.27294454
187	0xbd249486	-0.040180705
188	0xbd05be3a	-0.032652117
189	0xbe4f6a5e	-0.2025542
190	0x3e3a01ae	0.18164703
191	0xbe3a2fa9	-0.18182243
192	0x3e42dc13	0.19029264
193	0x3beeec46	0.0072913496
194	0x3e0b5018	0.13604772
195	0x3e967ded	0.2939295
196	0x3defb47a	0.11704345
197	0x3cd0169d	0.025401408
198	0x3df50061	0.11962963
199	0xbe832ce4	-0.25620186
200	0xbe39b4f4	-0.18135434
201	0x3e255754	0.16146594
202	0x3e51341b	0.20430033
203	0x3e77cea7	0.24199925
204	0xbdc85108	-0.097810805
205	0x3d622f55	0.05522092
206	0x3d640d0e	0.055676512
207	0xbde78552	-0.11304726
208	0xbe003aec	-0.12522477
209	0xbe25ae97	-0.16179882
210	0xbeeb65a8	-0.45975995
211	0x3e16e296	0.14734873
212	0x3d30fff7	0.043212857
213	0xbe93ae05	-0.28843704
214	0x3b5d2f44	0.0033750096
215	0xbd823058	-0.06356877
216	0xbe9ed19f	-0.31019303
217	0xbd5a3a1a	-0.053278066
218	0x3e1ee5c0	0.1551733
219	0xbdec39e9	-0.11534483
220	0x3cdfbc89	0.02731158
221	0x3e0fda88	0.14048207
222	0xbdae93d0	-0.08524287
223	0xbe6ce34f	-0.23133586
224	0x3dac2571	0.08405579
225	0xbe9671aa	-0.29383594
226	0xbe95790f	-0.29193923
227	0x3e9c02a5	0.30470768
228	0xbdaa2026	-0.08306913
229	0x3b979201	0.0046255593
230	0xbe4b53e1	-0.19856216
231	0xbdbe2142	-0.09283687
232	0x3d9e496c	0.07728848
233	0x3e38c86a	0.18045202
234	0x3f0de601	0.55429083
235	0x3ce74131	0.028229328
236	0xbe706476	-0.23475823
237	0xbe1b48ee	-0.15164539
238	0xbe82a3d5	-0.2551562
239	0x3edd9233	0.43275604
240	0xbe99a080	-0.30005264
241	0x3d020dc3	0.031751405
242	0x3d360571	0.044438783
243	0xbe6852d5	-0.22687848
244	0xbe560b2a	-0.20902696
245	0xbe0d5ee4	-0.13805729
246	0xbdd9bca0	-0.106316805
247	0x3ba39d09	0.0049930853
248	0xbe3bf063	-0.18353419
249	0x3e7426e0	0.23842955
250	0xbdf0f1d3	-0.11764874
251	0xbe7fd36f	-0.24983
252	0x3ea22db7	0.31675503
253	0xbe84ec76	-0.25961655
254	0xbd9f038b	-0.07764348
255	0xbe27605c	-0.16345352
