utils/dataBase/loadNet/16_critic_net.pkl (torch, 551247 bytes, 7 tensors)

Linear1.weight f4 [256, 20]
-0.9607456 1.3518978 -0.49467206 -0.0011530184 0.092236556 -0.018990565 0.12075971 0.09777029
0.003196478 -0.038127016 -0.28004923 0.16493142 0.0060598664 -0.3118744 0.01083237 0.0124142
0.0016259978 -0.20774248 -0.079720736 -0.09292479 0.53675085 2.5014238 0.018917853 0.059784796
-0.05496802 -0.13399106 0.14373514 -0.11703743 -0.13149169 0.0003467097 -0.38453817 -0.091768175
-0.25957474 1.0965993 0.80301553 -1.0229187 -0.34752202 0.1764239 0.37407777 -0.11346111
-0.54836154 0.077195436 -1.5898529 -0.46873733 0.23355632 0.12107112 -0.17799969 0.19452064
0.11904676 0.20746014 -0.5321771 -0.14344832 -0.45996064 -0.2061855 0.5701286 -0.9844969
0.111113936 -0.48837352 0.15603532 -0.3100056 -1.5488102 -0.40323144 -0.13566953 0.041059736
0.34914726 0.10855501 -0.15520568 0.11671863 0.19247666 -0.0113375345 -0.024841884 -0.1297499
-0.06830884 -0.7953133 -1.3033988 -0.13874911 0.04066753 -0.3576149 -0.014546301 0.55754864
0.6289689 0.5327035 0.34073684 0.0145475175 -0.2499176 -0.2313048 -0.1673092 -0.16868973
0.13712087 0.014857834 0.12025539 -0.086462244 -0.12703358 0.083988994 0.10677339 -2.3327508
-0.27878547 -0.35515127 -0.433996 0.041672062 -0.30810285 -1.080249 -0.40731132 -0.36473224
0.06994961 0.21267572 0.08162543 0.009859532 0.1856748 0.07423806 -0.35825425 0.17175975
-0.5724043 -0.5988493 -0.33929864 -0.24764018 0.17162035 1.4806311 0.77687806 0.14716952
0.4981893 1.0621144 -0.45603263 -0.16773504 0.26627168 0.35317233 -0.112401724 -0.1069522
-0.18250297 0.05636792 -0.18794367 0.18213227 -0.3003859 0.91922104 0.13361388 0.016378162
-0.66116863 -0.18145859 0.5285702 0.17640617 -1.2858813 0.5114393 -0.46242806 -0.16214406
0.1386304 -0.24032855 0.10296505 0.38192832 0.16352312 0.15619007 -0.39303425 -0.10370805
-0.4340754 0.0034548354 0.079709485 -0.466755 0.042680994 0.4072719 0.4211086 0.197967
0.48599544 1.3174504 -0.23119038 0.0663034 -0.19477752 -0.32923302 -0.26572838 0.17142904
0.06521379 0.4251172 -0.3278333 -0.041039005 -0.39357892 -0.8425418 0.23254551 0.067014344
-0.10151942 0.27130932 0.10487428 -0.09406218 -0.2803183 -1.3799196 -0.11632316 -0.33606294
0.17593236 -0.6413186 -0.056789346 0.32337013 -0.25389493 0.10394657 -0.43946546 0.04946667
-0.47825047 -0.33970973 -0.16051501 -0.9154323 0.09772142 0.35922927 -0.15617138 -0.06794086
1.3208438 0.5661855 -0.5516397 -0.15860382 -0.28496474 -0.045975924 -0.646136 0.21388105
-0.19435684 -0.0013166888 0.14125775 0.18058404 0.13130066 -0.061828487 -0.21846163 -0.13719346
-0.18928681 0.6977707 -0.2959091 0.16278672 -0.03130503 -0.098493 -0.2741677 -0.2956067
-0.19801459 0.12215166 -0.23593405 0.16775593 -0.20008269 0.032008946 -0.21768339 -0.07819387
-0.291558 -0.39619875 -0.406619 -1.1521068 -0.0330422 -0.33412147 0.3911029 0.21001425
-0.8715465 -0.644921 0.56678134 -0.062068388 -0.121600166 -0.028570058 0.91646874 0.3739611
-0.0775 0.06839207 -0.008762647 -0.025256485 -0.06381679 0.22198062 0.03311427 0.0939786
00000000: 6cf3 75bf fd0a ad3f a845 fdbe e120 97ba
00000010: 85e6 bc3d 1a92 9bbc de50 f73d ca3b c83d
00000020: 007c 513b 132b 1cbd 9d62 8fbe c8e3 283e
00000030: d891 c63b 00ae 9fbe 417a 313c ee64 4b3c
00000040: 6f1f d53a 72ba 54be a044 a3bd 5a4f bebd
00000050: 8168 093f 5417 2040 9df9 9a3c e7e0 743d
00000060: 2626 61bd f434 09be 4e2f 133e 52b1 efbd
00000070: c2a5 06be 97c6 b539 30e2 c4be f4f0 bbbd
00000080: fbe6 84be 5e5d 8c3f 6d92 4d3f 00ef 82bf
00000090: 68ee b1be 78a8 343e 1f87 bf3e 4c5e e8bd
000000a0: 6c61 0cbf a418 9e3d 4d80 cbbf 57fe efbe
000000b0: 6329 6f3e 23f4 f73d 8d45 36be 6b30 473e
000000c0: cace f33d 6e70 543e c23c 08bf 1ee4 12be
000000d0: f67f ebbe 4b22 53be f3f3 113f fd07 7cbf
000000e0: b48f e33d 180c fabe b9c7 1f3e 0eb9 9ebe
000000f0: 6a3f c6bf 5a74 cebe f4ec 0abe 412e 283d
00000100: 6ec3 b23e 1752 de3d 3dee 1ebe 2d0a ef3d
00000110: 9a18 453e 11c1 39bc 3581 cbbc 28dd 04be
00000120: 81e5 8bbd a799 4bbf c6d5 a6bf 3f14 0ebe
00000130: ff92 263d 4d19 b7be 9c53 6ebc 82bb 0e3f
00000140: 1b04 213f 425f 083f 0f75 ae3e b658 6e3c
00000150: 66ea 7fbe 2adb 6cbe 1a53 2bbe 00bd 2cbe
00000160: 6a69 0c3e 466e 733c 7548 f63d 1e13 b1bd
00000170: 1715 02be 6c02 ac3d 02ac da3d ca4b 15c0
00000180: f8bc 8ebe 63d6 b5be b934 debe 53b0 2a3d
00000190: a8bf 9dbe 9945 8abf 1c8b d0be 2fbe babe
000001a0: be41 8f3d aac7 593e 3c2b a73d e089 213c
000001b0: 8921 3e3e 200a 983d 1a6d b7be cae1 2f3e
000001c0: 1789 12bf 304e 19bf 8db8 adbe 6395 7dbe
000001d0: 3fbd 2f3e 5285 bd3f 7be1 463f 9bb3 163e
000001e0: ab12 ff3e 5df3 873f 1c7d e9be bcc2 2bbe
000001f0: c354 883e 01d3 b43e e032 e6bd c109 dbbd
00000200: 0fe2 3abe 0ce2 663d 4e74 40be e280 3a3e
00000210: 2ecc 99be 1252 6b3f 14d2 083e 7f2b 863c
00000220: 5942 29bf 48d0 39be 6050 073f d2a3 343e
00000230: c297 a4bf b0ed 023f 5fc3 ecbe 1809 26be
00000240: 21f5 0d3e b018 76be 57df d23d 1c8c c33e
00000250: 9b72 273e 4af0 1f3e c93b c9be e364 d4bd
00000260: 213f debe 856a 623b ba3e a33d 83fa eebe
00000270: 44d2 2e3d f185 d03e 8c9b d73e dcb7 4a3e
00000280: 65d4 f83e 37a2 a83f 2cbd 6cbe 14ca 873d
00000290: c273 47be 3b91 a8be 8d0d 88be 188b 2f3e
000002a0: cf8e 853d f6a8 d93e c4d9 a7be 8418 28bd
000002b0: 2d83 c9be d2b0 57bf 6920 6e3e d13e 893d
000002c0: 6ae9 cfbd 0ee9 8a3e 54c8 d63d aca3 c0bd
000002d0: e185 8fbe 35a1 b0bf d63a eebd 7110 acbe
000002e0: 9d27 343e 752d 24bf f29b 68bd c590 a53e
000002f0: 84fe 81be f0e1 d43d 9e01 e1be 909d 4a3d
00000300: 3fdd f4be 6fee adbe 0c5e 24be c559 6abf
00000310: 2b22 c83d e6ec b73e 64eb 1fbe 9424 8bbd
00000320: 6911 a93f 88f1 103f 4238 0dbf 0a69 22be
00000330: e6e6 91be 4051 3cbd 2b69 25bf a203 5b3e
00000340: 7b05 47be bf94 acba dfa5 103e 06eb 383e
00000350: ae73 063e de3f 7dbd 68b4 5fbe 717c 0cbe
00000360: 67d4 41be 1aa1 323f 6681 97be 90b1 263e
00000370: b439 00bd b3b6 c9bd b55f 8cbe c359 97be
00000380: 56c4 4abe a62a fa3d b298 71be 36c8 2b3e
00000390: 7ae2 4cbe d01b 033d 65e8 5ebe 1c24 a0bd
000003a0: 1747 95be 90da cabe 5e30 d0be 3c78 93bf
000003b0: 4257 07bd f811 abbe a43e c83e fa0d 573e
000003c0: ac1d 5fbf 8b19 25bf 9518 113f 6c3b 7ebd
000003d0: 8209 f9bd c10b eabc b29d 6a3f d477 bf3e
000003e0: 52b8 9ebd 2411 8c3d 3591 0fbc b0e6 cebc
000003f0: 61b2 82bd e34e 633e d4a2 073d da77 c03d

Linear1.bias f4 [256]
-0.28389332 -0.12499355 -0.14998509 0.12033167 -0.24453574 -0.4415506 -0.37511578 -0.45708096
-0.35587132 -0.31444064 -0.08643096 -0.44301105 -0.36658764 -0.0038343207 -0.43168122 -0.25105122
-0.22411968 -0.1538327 -0.020533683 -0.40601164 -0.34594253 -0.42201778 -0.09427556 -0.26577094
-0.5944748 -0.18129845 -0.33105144 -0.58354074 -0.4287676 -0.38069803 -0.066960484 -0.24650247
-0.2854059 -0.15645684 -0.007739584 -0.3563906 0.095986575 -0.21092726 -0.0783059 -0.24004106
-0.34951353 -0.6379589 -0.0025369485 -0.25895503 -0.45487374 -0.21822669 -0.16209756 -0.17656311
-0.11794198 -0.059159975 -0.12414677 -0.40161356 0.18033278 -0.1591946 0.05348287 -0.04082747
-0.050267085 -0.32507604 -0.44979808 -0.31851652 -0.30777267 -0.5575897 -0.24451268 -0.42419016
0.028335238 -0.53812456 -0.028685473 -0.3865873 -0.18523028 0.0490411 -0.16463234 -0.047870077
-0.17566283 -0.45416078 -0.35942224 0.019826954 -0.47320357 0.08397978 -0.19205315 -0.44515565
-0.56767595 0.0038149476 -0.58756435 -0.27758133 -0.24665572 -0.6759097 -0.006865396 -0.08925192
-0.11473174 -0.39903316 -0.22377034 -0.28185844 -0.46366158 -0.42468575 -0.32503328 -0.19635685
-0.45298713 -0.45370522 0.0022472583 -0.4584955 -0.2720659 -0.5492145 -0.17707333 -0.18819854
-0.11193353 0.05387618 -0.2128004 -0.29276866 -0.34909436 -0.43492448 -0.30845943 -0.2795756
-0.59024054 -0.6146323 0.15633282 0.14095953 -0.25039876 -0.13202019 -0.4133678 0.011309964
-0.04803288 -0.020051518 -0.114083804 -0.12034897 -0.010571701 -0.009925603 -0.042419743 -0.07158188
-0.094210595 -0.2157614 -0.29558843 -0.14008686 -0.44172844 -0.09353819 -0.27247185 -0.3015658
-0.47982 -0.54235256 -0.27639097 -0.23063362 -0.43269747 -0.4353862 -0.44696507 -0.026675288
-0.121701024 -0.24058205 -0.44237643 -0.13780783 0.38163733 -0.26688758 -0.23374568 -0.23308489
-0.2502942 -0.45600528 -0.342725 -0.07628445 -0.28785563 -0.39640805 -0.5016516 -0.24885106
-0.5299413 0.090832815 -0.08057751 -0.40863764 -0.45858166 -0.4143503 -0.35032594 0.02304541
-0.07396676 -0.49495086 0.22151531 -0.36851948 -0.61037606 -0.5284454 -0.27485254 0.1334496
-0.34694016 -0.29429868 0.059021313 -0.21029243 -0.41378775 -0.4600544 -0.19294621 -0.0006637226
-0.34481767 -0.7319 -0.45016685 -0.18573172 -0.05835829 -0.24751608 -0.38985583 -0.24744675
0.25663766 -0.30609462 -0.2548133 -0.2127088 -0.76907265 -0.5114583 -0.27840823 -0.3139033
-0.48627654 -0.08962304 -0.22394776 -0.27330923 -0.024981245 -0.35025755 -0.50427365 -0.1992807
-0.36762753 0.05603665 -0.17106493 -0.18501167 -0.21057543 -0.41121915 -0.058696818 -0.033820078
0.058267076 -0.33482528 -0.19096966 -0.43191478 -0.2826261 -0.046336558 -0.5340486 -0.31705612
-0.18822765 -0.03945675 -0.052203964 0.13311364 0.0010608026 -0.21323232 -0.37796578 -0.39227852
-0.19634439 -0.24230579 -0.15517348 -0.17936373 -0.13554718 -0.43052995 -0.39574555 -0.3257827
-0.11738752 0.024639437 -0.44552314 -0.34117952 -0.145338 -0.09592601 -0.56985337 -0.15244718
-0.533341 0.1446255 0.052051976 -0.015073723 -0.22967985 -0.23034164 0.0024313503 -0.50238425
00000000: 775a 91be 9efc ffbd b195 19be 7370 f63d
00000010: 9467 7abe ec12 e2be 2d0f c0be 8406 eabe
00000020: c434 b6be 5dfe a0be b702 b1bd 58d2 e2be
00000030: 60b1 bbbe 3a49 7bbb 5205 ddbe c989 80be
00000040: a17f 65be 5286 1dbe 4136 a8bc c2e0 cfbe
00000050: 611f b1be b712 d8be 8b13 c1bd 2113 88be
00000060: 802f 18bf 4da6 39be 937f a9be ed62 15bf
00000070: 6d87 dbbe daea c2be 9422 89bd 256b 7cbe
00000080: b920 92be 3936 20be 569c fdbb d478 b6be
00000090: 9c94 c43d 51fd 57be d85e a0bd 53cd 75be
000000a0: 70f3 b2be 4651 23bf ef42 26bb c195 84be
000000b0: 36e5 e8be d176 5fbe e7fc 25be f6cc 34be
000000c0: 918b f1bd bb51 72bd a940 febd 4ba0 cdbe
000000d0: 28a9 383e e903 23be db10 5b3d b53a 27bd
000000e0: dce4 4dbd 5e70 a6be ef4b e6be 9914 a3be
000000f0: 6194 9dbe 33be 0ebf 8861 7abe 742f d9be
00000100: 4d1f e83c 88c2 09bf ccfd eabc c5ee c5be
00000110: 02ad 3dbe 52df 483d 6195 28be 6a13 44bd
00000120: f5e0 33be c387 e8be 3106 b8be 236c a23c
00000130: bd47 f2be 97fd ab3d 95a9 44be 71eb e3be
00000140: 3653 11bf 3304 7a3b 9e6a 16bf 241f 8ebe
00000150: 5193 7cbe 6b08 2dbf 1ef7 e0bb b6c9 b6bd
00000160: 79f8 eabd 134e ccbe 0d24 65be c04f 90be
00000170: 0d65 edbe 6970 d9be c36a a6be c511 49be
00000180: eeed e7be 0d4c e8be bd46 133b ecbf eabe
00000190: 394c 8bbe 5299 0cbf b652 35be 1eb7 40be
000001a0: 683d e5bd 45ad 5c3d 59e8 59be c6e5 95be
000001b0: 7fbc b2be 6cae debe 65ee 9dbe 8824 8fbe
000001c0: 011a 17bf 8b58 1dbf b615 203e b257 103e
000001d0: 4434 80be 4d30 07be f2a4 d3be 6d4d 393c
000001e0: 20be 44bd 1543 a4bc c5a4 e9bd 8579 f6bd
000001f0: ee34 2dbc ff9e 22bc 53c0 2dbd 8599 92bd
00000200: 7cf1 c0bd 8ef0 5cbe 5e57 97be ee72 0fbe
00000210: 3b2a e2be f390 bfbd 6e81 8bbe d566 9abe
00000220: f8aa f5be 9ed7 0abf 1e83 8dbe 382b 6cbe
00000230: 868a ddbe f1ea debe 9bd8 e4be 2286 dabc
00000240: 633e f9bd 245b 76be 2a7f e2be 7f1d 0dbe
00000250: f865 c33e 7da5 88be 075b 6fbe cead 6ebe
00000260: 9026 80be 8679 e9be a779 afbe 063b 9cbd
00000270: d061 93be fff5 cabe 3d6c 00bf d0d2 7ebe
00000280: 3caa 07bf 8e06 ba3d d205 a5bd f438 d1be
00000290: 37cb eabe b925 d4be ec5d b3be bac9 bc3c
000002a0: e27b 97bd 336a fdbe e9d4 623e 96ae bcbe
000002b0: 9b41 1cbf 3348 07bf 79b9 8cbe 03a7 083e
000002c0: 24a2 b1be 51ae 96be 55c0 713d e656 57be
000002d0: fddb d3be 408c ebbe b193 45be abfd 2dba
000002e0: f18b b0be cc5d 3bbf 457c e6be 7530 3ebe
000002f0: 1a09 6fbd db74 7dbe 2f9b c7be ae62 7dbe
00000300: 0366 833e 6fb8 9cbe e476 82be 56d0 59be
00000310: f2e1 44bf eeee 02bf 868b 8ebe efb7 a0be
00000320: 3df9 f8be 498c b7bd 9052 65be 30ef 8bbe
00000330: 78a5 ccbc f554 b3be 1418 01bf 3d10 4cbe
00000340: ad39 bcbe b086 653d a52b 2fbe b373 3dbe
00000350: 16a1 57be 518b d2be 136c 70bd ec86 0abd
00000360: 75a9 6e3d 386e abbe 8d8d 43be ef23 ddbe
00000370: 5eb4 90be 67cb 3dbd 69b7 08bf 2e55 a2be
00000380: c0be 40be 679d 21bd d3d3 55bd f14e 083e
00000390: a10a 8b3a 9359 5abe bb84 c1be bbd8 c8be
000003a0: 810e 49be 021f 78be cce5 1ebe 20ab 37be
000003b0: e1cc 0abe 6c6e dcbe 299f cabe fdcc a6be
000003c0: de68 f0bd a5d8 c93c 9c1b e4be 15af aebe
000003d0: 7cd3 14be db74 c4bd e9e1 11bf 1d1b 1cbe
000003e0: 0989 08bf b518 143e 7434 553d c7f7 76bc
000003f0: 3231 6bbe aede 6bbe 4a57 1f3b 419c 00bf

Linear2.weight f4 [256, 256]
-0.08454219 0.06536419 0.014530354 -0.1082121 -7.4713685e-06 0.056216035 -0.03326817 -0.018033301
-0.034191877 -0.06840411 -0.12208462 -0.0486255 0.011437459 -0.03432294 -0.005424413 -0.06283384
-0.10506628 -0.18818119 -0.05115791 -0.01975277 -0.11127903 -0.108010925 0.017191771 -0.038715072
-0.055808175 -0.06366414 0.007834206 0.05199892 -0.07208533 0.00393468 -0.11232594 -0.061145775
-0.042414322 0.01379935 -0.08487823 -0.19167696 -0.101996824 -0.023230037 -0.07075244 -0.03314
-0.04073038 -0.06774107 0.046189338 0.0066709407 -0.08437462 -0.05755918 -0.025096081 -0.035512723
0.051189728 0.036393356 -0.063528135 0.07298056 -0.13639429 -0.018427731 -0.08487377 -0.06907252
0.010812654 -0.06372631 -0.025917614 -0.11848579 -0.047590256 -0.0532017 0.041537702 -0.0667864
0.022782402 0.012591254 0.007341318 -0.06378063 -0.0977287 -0.027636854 -0.04899801 -0.071563795
-0.07153794 0.012953317 0.004208796 -0.0012577352 -0.089267746 -0.04647362 -0.06129382 -0.07223649
-0.02148551 -0.07935565 -0.11785501 -0.012160644 -0.04001455 -0.10275197 -0.015284597 0.0006634799
-0.1080014 -0.103169605 -0.054579407 -0.090796836 -0.011820472 -0.059125684 -0.07902988 -0.012475682
-0.16265054 0.011141073 0.064783745 0.012461947 -0.13563666 -0.014288462 -0.054078426 -0.060111005
-0.0111121675 0.010826166 -0.06620617 -0.03704732 -0.119700566 -0.09048446 -0.07499966 -0.0021914232
-0.046972156 -0.06160996 -0.10959162 -0.07797691 -0.045571472 0.033720598 -0.060389712 -0.1365508
0.043759473 0.0036487526 -0.085357726 -0.101774596 -0.056120582 -0.03769123 -0.047745593 -0.026871635
-0.04787283 0.017260462 -0.08160701 -0.024430515 -0.03367014 -0.025248712 0.011943648 0.009588518
-0.10794544 0.007858916 -0.053888723 -0.08696326 -0.10369462 -0.028143497 -0.10542673 -0.040428635
-0.10438465 -0.00053991535 -0.17596245 -0.04305116 -0.09237241 -0.016823072 -0.016904293 -0.037198227
-0.06450711 -0.09217969 -0.05244763 -0.029858146 -0.021442924 0.019057333 -0.087836325 -0.021582186
-0.007599594 -0.012435691 0.067723595 0.068438224 -0.10815281 -0.11683182 -0.072388284 0.07045972
-0.05231708 -0.08239865 0.06182319 -0.019511221 -0.008067383 -0.07225455 -0.041544903 -0.04164143
-0.050817195 0.052259464 -0.05865542 -0.042187493 -0.0470817 -0.009902056 -0.12680596 -0.054887235
0.00083591696 -0.0584315 0.027276512 -0.03309607 -0.031041877 -0.08746798 -0.060316622 0.013887576
0.058925606 -0.15825014 -0.1416335 -0.10180437 0.043516286 -0.02934702 -0.091094226 0.027533185
-0.033167884 -0.00636808 -0.03904346 -0.062007926 -0.024429983 0.0025441528 -0.05660634 -0.09108353
-0.13799642 -0.03578462 0.010501675 -0.061344694 -0.09056156 -0.06894148 0.0325009 -0.008423252
-0.068344705 -0.05805174 -0.06674521 -0.04306741 -0.09244529 -0.11576355 -0.019094229 -0.06598122
-0.024269808 -0.0044532735 -0.03264058 -0.09257172 -0.058294427 -0.00906622 -0.011291478 -0.04186548
-0.00811126 0.0058001764 -0.105316825 -0.047914553 -0.13175263 0.038581736 -0.060505558 -0.025538478
-0.03550872 -0.14444831 0.013949708 -0.0017148661 0.038033318 -0.09237319 -0.03854854 0.03265963
0.06595431 -0.03771537 -0.09855961 -0.022082912 -0.063475735 -0.034092713 -0.013652192 0.08173563
00000000: 7524 adbd a9dd 853d b910 6e3c 4e9e ddbd
00000010: 91b2 fab6 c942 663d 3444 08bd 93ba 93bc
00000020: c80c 0cbd 7417 8cbd 8007 fabd 882b 47bd
00000030: 2e64 3b3c 3696 0cbd 46bf b1bb 07af 80bd
00000040: fd2c d7bd 92b2 40be f58a 51bd 90d0 a1bc
00000050: 43e6 e3bd d534 ddbd c2d5 8c3c b293 1ebd
00000060: 1d97 64bd 5862 82bd 0b5b 003c d2fc 543d
00000070: 79a1 93bd 7dee 803b 240b e6bd fe73 7abd
00000080: a4ba 2dbd ab16 623c a3d4 adbd f746 44be
00000090: b6e3 d0bd eb4c bebc a8e6 90bd cfbd 07bd
000000a0: e6d4 26bd d5bb 8abd 0831 3d3d e897 da3b
000000b0: 9acc acbd 2dc3 6bbd 4c96 cdbc ca75 11bd
000000c0: 52ac 513d 3311 153d 0a1b 82bd d576 953d
000000d0: f2aa 0bbe c1f5 96bc 4dd2 adbd e575 8dbd
000000e0: 8f27 313c f182 82bd 2d51 d4bc aea8 f2bd
000000f0: 00ee 42bd 07ea 59bd 7023 2a3d 4fc7 88bd
00000100: 29a2 ba3c 8c4b 4e3c 708f f03b 6b9f 82bd
00000110: fc25 c8bd af66 e2bc 23b2 48bd 0a90 92bd
00000120: 7c82 92bd 263a 543c f1e9 893b 97da a4ba
00000130: 02d2 b6bd 1f5b 3ebd 3b0f 7bbd baf0 93bd
00000140: 6102 b0bc 3785 a2bd f85d f1bd 703d 47bc
00000150: 4ce6 23bd a06f d2bd 3f6c 7abc 62ed 2d3a
00000160: d72f ddbd 964a d3bd a88e 5fbd b1f3 b9bd
00000170: a7aa 41bc c62d 72bd 6bda a1bd ce66 4cbc
00000180: dd8d 26be 0c89 363c 57ad 843d 322d 4c3c
00000190: 56e4 0abe 271a 6abc 5781 5dbd f536 76bd
000001a0: cf0f 36bc 3b60 313c 1a97 87bd eebe 17bd
000001b0: 9225 f5bd eb4f b9bd 6c99 99bd fb9d 0fbb
000001c0: e065 40bd ba5a 7cbd 9271 e0bd 5cb2 9fbd
000001d0: 27a9 3abd 9c1e 0a3d 345b 77bd f9d3 0bbe
000001e0: 223d 333d e91f 6f3b 08d0 aebd 336f d0bd
000001f0: b2de 65bd 1f62 1abd e290 43bd e721 dcbc
00000200: 4d16 44bd d065 8d3c 9321 a7bd 8122 c8bc
00000210: b3e9 09bd 63d6 cebc 4aaf 433c 2919 1d3c
00000220: 8012 ddbd afc2 003c 6cba 5cbd cb19 b2bd
00000230: d85d d4bd 318d e6bc f8e9 d7bd 7f98 25bd
00000240: 9fc7 d5bd 1b89 0dba 802f 34be 6a56 30bd
00000250: bf2d bdbd 8ad0 89bc df7a 8abc 2b5d 18bd
00000260: 4e1c 84bd b5c8 bcbd 53d3 56bd 1299 f4bc
00000270: 12a9 afbc 201e 9c3c 88e3 b3bd 20cd b0bc
00000280: 0406 f9bb 12bf 4bbc abb2 8a3d 5729 8c3d
00000290: 387f ddbd 8545 efbd 4f40 94bd 304d 903d
000002a0: 6f4a 56bd a0c0 a8bd 503a 7d3d ffd5 9fbc
000002b0: 0f2d 04bc 32fa 93bd fd2a 2abd 3490 2abd
000002c0: b125 50bd 050e 563d aa40 70bd cbcc 2cbd
000002d0: bed8 40bd 3c3c 22bc 6cd9 01be 70d1 60bd
000002e0: 7021 5b3a de55 6fbd fe72 df3c bf8f 07bd
000002f0: 894b febc 6a22 b3bd 900e 77bd b788 633c
00000300: fa5b 713d 530c 22be 5f08 11be cf7e d0bd
00000310: 223e 323d 2969 f0bc 9c8f babd 468d e13c
00000320: 0cdb 07bd 54ab d0bb 09ec 1fbd 06fc 7dbd
00000330: 6321 c8bc cdbb 263b 0ddc 67bd 008a babd
00000340: ef4e 0dbe e592 12bd 380f 2c3c 9344 7bbd
00000350: 5778 b9bd 3131 8dbd aa1f 053d ae01 0abc
00000360: 4ff8 8bbd a9c7 6dbd b6b1 88bd 7467 30bd
00000370: f553 bdbd 7115 edbd 806b 9cbc 2921 87bd
00000380: 7ad1 c6bc c4ec 91bb 21b2 05bd 3e96 bdbd
00000390: 23c6 6ebd 7c8a 14bc e4ff 38bc 237b 2bbd
000003a0: 17e5 04bc 680f be3b 59b0 d7bd 0d42 44bd
000003b0: 29ea 06be e207 1e3d add4 77bd 1236 d1bc
000003c0: 9771 11bd 42ea 13be 518d 643c 5cc5 e0ba
000003d0: d3c8 1b3d 282e bdbd 13e5 1dbd 1bc6 053d
000003e0: 0e13 873d 6f7b 1abd 9fd9 c9bd 39e7 b4bc
000003f0: 91ff 81bd cda4 0bbd 72ad 5fbc 0365 a73d

Linear2.bias f4 [256]
-0.11682716 -0.43573174 0.13356328 0.1850644 -0.3626235 0.20994803 -0.18511218 -0.3062426
0.21488753 -0.02811814 0.13627748 0.21927059 0.34733763 -0.14656065 -0.21489412 0.05815991
-0.12667744 0.38621742 -0.3893734 -0.14269115 -0.021816429 -0.29835016 -0.0063161785 -0.06119152
-0.32574955 0.2716183 -0.37077183 -0.012274662 0.0102766715 -0.230367 -0.1139061 -0.15918362
-0.2389219 -0.041642644 -0.34270492 -0.2632618 -0.06998076 -0.42978957 -0.032156955 -0.31382424
0.026225839 -0.09837312 -0.110818304 -0.2601697 -0.42335522 -0.18654893 -0.020340284 -0.13485189
-0.0032301296 -0.26633036 -0.028568428 -0.18407327 -0.28397977 -0.075462945 -0.34495172 -0.056558263
0.030387593 -0.10150298 0.18657932 0.25727665 0.4053002 -0.16302821 -0.11564659 0.03190517
0.13665022 -0.16170135 -0.11760389 -0.15490018 -0.23222537 -0.103629634 -0.36771166 0.2301807
-0.34660146 -0.075809985 0.23891263 0.09356857 -0.060035497 0.31608152 0.093521275 -0.20827653
-0.05047092 -0.17154144 -0.17387168 0.035215314 -0.61622316 -0.0026265453 -0.24150737 -0.27994072
-0.05433209 -0.22455363 -0.1634773 -0.12218226 -0.14434089 -0.122638084 -0.30057862 -0.13256222
-0.08647484 -0.287666 -0.034596145 -0.10706558 -0.09071192 0.04876505 0.057441723 -0.0755254
-0.053224944 -0.098115996 -0.23629008 -0.13831043 -0.12882827 -0.30595085 -0.050359625 -0.30380973
-0.25652036 -0.08258569 -0.15542737 -0.37720284 -0.13718575 -0.08444006 -0.12604623 -0.12756512
-0.046257544 0.042031627 -0.322048 -0.19663927 0.084576175 -0.066863514 -0.089872465 -0.34988
-0.19600801 -0.26983437 -0.11735832 -0.2483367 0.12296397 -0.25219402 0.0013752043 -0.11690216
-0.04531176 -0.42995584 -0.29150504 -0.1314561 -0.0717249 0.17234279 0.09528903 -0.08361401
-0.07912525 -0.20767944 -0.21402398 -0.25277644 0.23711097 -0.1573477 -0.07464295 0.12330228
0.20759372 -0.123259604 -0.119597375 0.0048119547 -0.12106156 -0.017140504 0.08381436 -0.09234952
-0.37874776 -0.3121005 -0.08801343 0.008187617 -0.085055985 -0.17143933 -0.03536797 0.2926162
-0.07135211 -0.19484007 -0.040581685 -0.054018084 -0.037582383 -0.13324876 -0.106348254 -0.04318768
-0.38491586 -0.07360164 -0.07664341 -0.13000624 -0.22360039 -0.40348408 -0.17185996 -0.046701066
-0.20508327 -0.1308425 -0.4468783 -0.07342689 -0.018569129 -0.18458508 -0.23899966 -0.6452858
-0.17010446 0.07901799 -0.0993919 0.025449919 -0.10107009 -0.109546475 -0.09886241 -0.16077517
-0.07789466 -0.051955555 -0.22074072 -0.10654734 0.06953425 0.01793842 -0.22318211 0.16989613
-0.16937365 0.0149572035 0.076054014 -0.0379362 -0.054202568 -0.013178944 -0.21957244 -0.37947872
0.17836034 -0.27457243 -0.3578448 -0.24473283 -0.035480663 -0.00017485663 0.17055444 -0.14518587
-0.046594102 -0.03990579 -0.18140937 -0.14279321 -0.04159321 -0.0795088 0.0897858 0.2366897
-0.12176147 -0.07593559 0.045863222 -0.023452722 -0.105023 0.04893387 -0.10748518 -0.0793664
-0.015073174 -0.23974572 -0.010873324 -0.15097302 -0.045949064 -0.14153744 -0.36973584 0.20438837
-0.15951179 -0.30656666 -0.08752167 -0.028329307 -0.06813372 -0.16906576 -0.081271715 -0.21072575
00000000: 1443 efbd 3b18 dfbe d0c4 083e 8681 3d3e
00000010: caa9 b9be 9efc 563e 0c8e 3dbe d4cb 9cbe
00000020: 7a0b 5c3e 0358 e6bc 538c 0b3e 7888 603e
00000030: 3dd6 b13e ff13 16be 340d 5cbe 1639 6e3d
00000040: bbb7 01be 4abe c53e f35b c7be a11d 12be
00000050: 5eb8 b2bc 5ac1 98be f2f7 cebb f6a3 7abd
00000060: a5c8 a6be 8e11 8b3e ced5 bdbe aa1b 49bc
00000070: 7c5f 283c 54e5 6bbe 9a47 e9bd 0801 23be
00000080: f1a7 74be 7a91 2abd 0577 afbe 40ca 86be
00000090: 1352 8fbd 610d dcbe 03b7 03bd 92ad a0be
000000a0: 92d7 d63c d977 c9bd b5f4 e2bd f734 85be
000000b0: 04c2 d8be af06 3fbe aba0 a6bc 9d16 0abe
000000c0: 95b0 53bb 745c 88be 5608 eabc b47d 3cbe
000000d0: cc65 91be 518c 9abd 839d b0be a3a9 67bd
000000e0: 67ef f83c cbe0 cfbd a60e 3f3e c4b9 833e
000000f0: 8283 cf3e def0 26be 1fd8 ecbd ffae 023d
00000100: 09ee 0b3e 0a95 25be 4fda f0bd 279e 1ebe
00000110: 7dcc 6dbe c63b d4bd b444 bcbe 7db4 6b3e
00000120: bf75 b1be 4442 9bbd 83a5 743e e1a0 bf3d
00000130: c8e7 75bd 70d5 a13e 1588 bf3d 7146 55be
00000140: 98ba 4ebd 8fa8 2fbe 6b0b 32be ef3d 103d
00000150: cdc0 1dbf 1e22 2cbb b54d 77be 6454 8fbe
00000160: 538b 5ebd 63f1 65be 9866 27be b13a fabd
00000170: 19ce 13be ad29 fbbd 71e5 99be 64be 07be
00000180: b919 b1bd f548 93be b0b4 0dbd 3345 dbbd
00000190: 2cc7 b9bd dcbd 473d 0348 6b3d 10ad 9abd
000001a0: 6602 5abd 0af1 c8bd 07f6 71be 40a1 0dbe
000001b0: 8feb 03be 97a5 9cbe e545 4ebd f38c 9bbe
000001c0: a356 83be b022 a9bd 5a28 1fbe bb20 c1be
000001d0: 6c7a 0cbe e9ee acbd 4312 01be 6ea0 02be
000001e0: 8d78 3dbd 5b29 2c3d 7ae3 a4be ce5b 49be
000001f0: 4636 ad3d bdef 88bd 0e0f b8bd 7923 b3be
00000200: 53b6 48be bb27 8abe 8f59 f0bd fa4b 7ebe
00000210: 89d4 fb3d 931f 81be 3340 b43a 666a efbd
00000220: d398 39bd 2c23 dcbe 2640 95be 6e9c 06be
00000230: 81e4 92bd a17a 303e e526 c33d d23d abbd
00000240: 6b0c a2bd eba9 54be 1a29 5bbe ea6b 81be
00000250: 38cd 723e c11f 21be 67de 98bd e885 fc3d
00000260: 7393 543e 886f fcbd 78ef f4bd 9aad 9d3b
00000270: 20ef f7bd 3e6a 8cbc dda6 ab3d bf21 bdbd
00000280: 3aeb c1be a3cb 9fbe 6340 b4bd 5b25 063c
00000290: d531 aebd cb8d 2fbe 01de 10bd cad1 953e
000002a0: 0e21 92bd 2884 47be fb38 26bd 1142 5dbd
000002b0: fcef 19bd 5d72 08be 1dcd d9bd 91e5 30bd
000002c0: b113 c5be 75bc 96bd 38f7 9cbd 5b20 05be
000002d0: 80f7 64be 7795 cebe 0ffc 2fbe 9e49 3fbd
000002e0: 5901 52be 94fb 05be 3ccd e4be d660 96bd
000002f0: 491e 98bc df03 3dbe 54bc 74be 7331 25bf
00000300: dd2f 2ebe 2fd4 a13d fb8d cbbd 597c d03c
00000310: d6fd cebd e759 e0bd 6078 cabd 3fa2 24be
00000320: 3c87 9fbd 59cf 54bd db09 62be 7e35 dabd
00000330: f967 8e3d 98f3 923c da89 64be 40f9 2d3e
00000340: 4970 2dbe 0f0f 753c 35c2 9b3d fd62 1bbd
00000350: 8303 5ebd 7fec 57bc 99d7 60be 094b c2be
00000360: 18a4 363e c294 8cbe 6f37 b7be 3e9b 7abe
00000370: 2c54 11bd b859 37b9 d3a5 2e3e 9bab 14be
00000380: 75d9 3ebd 4174 23bd 61c3 39be 6238 12be
00000390: a45d 2abd 82d5 a2bd 9ee1 b73d c95e 723e
000003a0: 145e f9bd 1e84 9bbd 13db 3b3d ec1f c0bc
000003b0: 4c16 d7bd e26e 483d 3121 dcbd da8a a2bd
000003c0: 79f5 76bc e77f 75be 0726 32bc ac98 1abe
000003d0: 1635 3cbd 31ef 10be 044e bdbe 2f4b 513e
000003e0: 0f57 23be 4ef6 9cbe 903e b3bd dd12 e8bc
000003f0: b189 8bbd 931f 2dbe c971 a6bd 7ec8 57be

Linear3.weight f4 [256, 256]
0.019123254 -0.16270728 -0.046715163 -0.14957258 0.08015285 0.17353927 -0.34107336 0.23601107
0.14723985 0.012596672 0.0031990586 0.09526487 0.10240651 0.20110467 -0.0908341 0.11275143
-0.0004150031 -0.13147245 -0.11763449 -0.21888784 -0.013831545 0.022347264 -0.0024109278 -0.017134922
-0.086011946 -0.19793715 0.3212452 0.30808082 0.018835118 -0.12373485 -0.10785343 -0.3373182
-0.098659426 0.011246124 0.036133442 -0.09556871 -0.012415439 -0.18201691 0.054353703 0.09925165
0.07470555 -0.06790405 -0.3366669 -0.23248023 0.000785829 -0.164513 0.05246531 0.04944185
0.0012232272 0.13759293 0.029753847 -0.2116569 -0.2529427 -0.028389068 -0.1736799 -0.026120093
-0.0652405 -0.061079886 0.06767193 0.42806697 -0.17740324 -0.18840754 -0.098672196 -0.06642844
-0.08562088 0.22462553 0.009639907 0.14806862 -0.17645033 0.008274449 -0.09119603 0.18197638
0.048612803 0.012276663 -0.33079052 0.13354263 -0.0038973659 0.2646909 0.085325904 -0.293573
-0.06765012 -0.0901383 -0.045642205 0.11716325 0.26723146 -0.019194076 -0.025072902 0.20622079
0.047427848 0.12644768 0.061931603 -0.002122918 -0.13964154 -0.09240043 -0.42979804 -0.0023863276
-0.019613026 0.11688496 -0.42772785 -0.04078596 -0.095730916 0.11921776 -0.023318673 -0.015511468
-0.031844586 -0.28677428 -0.32089356 -0.019361056 -0.2475156 0.12817371 0.1866397 -0.29088944
-0.023892544 -0.026035504 0.12427304 -0.47775576 0.20202526 0.061247546 -0.06063272 -0.28232008
-0.09344966 -0.08590626 -0.43786624 -0.06256338 -0.18902193 -0.043397747 0.19235417 -0.20764813
-0.00075533055 -0.083138324 0.13199349 -0.17175958 -0.19107333 0.01583055 -0.09725546 0.025510577
0.03884252 -0.19330266 -0.25916493 -0.089541115 -0.03799474 0.23050481 -0.09456349 0.054936454
-0.01861968 -0.027053988 0.2791391 0.10878142 0.093623385 0.07852779 0.009204529 0.1351334
0.16013823 0.08163993 0.00241813 -0.031163078 0.09252699 -0.499989 0.009660822 -0.23282513
-0.116882876 0.2058066 0.0032496804 -0.4573594 0.04793139 -0.010833112 0.007171441 0.15643297
0.042495966 -0.0034037814 -0.07553282 -0.042696055 -0.1290695 0.056591034 0.014443166 -0.030268269
-0.16774188 -0.17800944 0.07902739 0.16974282 0.18339255 0.20141263 -0.087059855 0.03722618
-0.25835156 -0.023431603 0.014698922 0.061678004 0.013079798 0.14165874 -0.24922392 -0.21168813
0.046873484 0.19958045 0.07884218 -0.46525267 0.06368925 0.03282584 -0.01956964 0.005104655
-0.02094878 0.10667183 0.0448382 0.15962398 -0.17071807 -0.06377612 0.07094123 0.005576415
-0.19454601 -0.06668038 0.114942044 0.22850241 -0.051016264 0.12881982 -0.0019946957 -0.17462735
-0.0676386 -0.22776169 -0.26813155 -0.26296705 0.025208354 -0.13918488 0.21106769 -0.20024417
0.028280053 -0.25517195 0.30676362 -0.061696682 0.14098302 0.039500564 -0.25348616 -0.084710106
-0.01595233 0.0042239665 -0.0048969686 -0.18973039 0.11368003 -0.08819844 0.06668919 0.013528393
-0.0062937858 -0.024953144 -0.08213128 0.060006525 -0.008235998 0.016749164 -0.30722275 -0.24923049
-0.03434351 -0.16025658 -0.08536024 0.0034366662 0.0058703595 0.2181867 -0.1921347 0.20115367
00000000: 5fa8 9c3c bd9c 26be 6658 3fbd 8e29 19be
00000010: 2d27 a43d 47b4 313e 2ba1 aebe e3ac 713e
00000020: 0bc6 163e 4662 4e3c 4ca7 513b 3a1a c33d
00000030: 81ba d13d 62ee 4d3e 3b07 babd 39ea e63d
00000040: c694 d9b9 b7a0 06be 5aea f0bd 2224 60be
00000050: b49d 62bc 9c11 b73c a800 1ebb 895e 8cbc
00000060: 0827 b0bd 09b0 4abe 407a a43e c5bc 9d3e
00000070: 1b4c 9a3c b268 fdbd 42e2 dcbd f9b4 acbe
00000080: f40d cabd aa41 383c a900 143d 87b9 c3bd
00000090: 206a 4bbc a462 3abe fda1 5e3d 7344 cb3d
000000a0: 39ff 983d 4711 8bbd 9b5f acbe 4c0f 6ebe
000000b0: 1700 4e3a 1976 28be dde5 563d 8a83 4a3d
000000c0: b254 a03a 29e5 0c3e 57be f33c 96bc 58be
000000d0: b581 81be 3190 e8bc 25d9 31be cef9 d5bc
000000e0: d09c 85bd e72e 7abd 9597 8a3d 982b db3e
000000f0: 32a9 35be e8ed 40be a614 cabd a20b 88bd
00000100: 005a afbd 3c04 663e b3f0 1d3c 4d9f 173e
00000110: 65af 34be 8e91 073c fcc4 babd 0458 3a3e
00000120: 381e 473d 0f24 493c 605d a9be 66bf 083e
00000130: f36a 7fbb 9185 873e 59bf ae3d 334f 96be
00000140: 258c 8abd 6e9a b8bd 52f3 3abd 49f3 ef3d
00000150: 90d2 883e e53c 9dbc b065 cdbc 8b2b 533e
00000160: b443 423d 807b 013e feab 7d3d a720 0bbb
00000170: 31fe 0ebe 703c bdbd 7d0e dcbe ef63 1cbb
00000180: 7fab a0bc 6261 ef3d 25ff dabe 2e0f 27bd
00000190: 920e c4bd 7128 f43d cd06 bfbc d023 7ebc
000001a0: 786f 02bd 14d4 92be 294c a4be 149b 9ebc
000001b0: bb74 7dbe f83f 033e 7a1e 3f3e 76ef 94be
000001c0: 4cba c3bc 6948 d5bc dd82 fe3d 679c f4be
000001d0: b6df 4e3e b5de 7a3d 045a 78bd 428c 90be
000001e0: 8962 bfbd 9fef afbd 0130 e0be 3b21 80bd
000001f0: f78e 41be d6c1 31bd 7ef8 443e b6a1 54be
00000200: 6001 46ba 6d44 aabd 4d29 073e bee1 2fbe
00000210: baa8 43be 12af 813c df2d c7bd 8ffb d03c
00000220: 5619 1f3d 22f1 45be 44b1 84be 5561 b7bd
00000230: 5fa0 1bbd 7409 6c3e 81aa c1bd 0c05 613d
00000240: 4d88 98bc 53a0 ddbc 52eb 8e3e cbc8 de3d
00000250: 9ebd bf3d 2ed3 a03d 98ce 163c 6960 0a3e
00000260: 47fb 233e d632 a73d 7d79 1e3b b649 ffbc
00000270: ca7e bd3d 8ffe ffbe 6d48 1e3c b669 6ebe
00000280: 4a60 efbd f7be 523e 97f8 543b 032b eabe
00000290: b553 443d 5d7d 31bc 68fe ea3b f72f 203e
000002a0: 4010 2e3d fa11 5fbb f3b0 9abd 0fe2 2ebd
000002b0: cc2a 04be 00cc 673d 07a3 6c3c 29f5 f7bc
000002c0: 87c4 2bbe 1b48 36be 1dd9 a13d 10d1 2d3e
000002d0: 42cb 3b3e 1d3f 4e3e 704c b2bd 7b7a 183d
000002e0: a846 84be a2f3 bfbc bfd3 703c 13a2 7c3d
000002f0: a64c 563c fd0e 113e 8e34 7fbe c6c4 58be
00000300: 69fe 3f3d d15e 4c3e 0278 a13d 9935 eebe
00000310: 826f 823d 6374 063d 8250 a0bc f344 a73b
00000320: c79c abbc c376 da3d 43a8 373d 7874 233e
00000330: b8d0 2ebe 0e9d 82bd a349 913d 5cba b63b
00000340: 1237 47be b98f 88bd bc66 eb3d 89fc 693e
00000350: 6ef6 50bd 58e9 033e 71b9 02bb 83d1 32be
00000360: 1b86 8abd 5c3a 69be 8a48 89be 9ea3 86be
00000370: c081 ce3c 7b86 0ebe 2122 583e cf0c 4dbe
00000380: 92ab e73c e6a5 82be 1f10 9d3e a9b5 7cbd
00000390: da5d 103e 58cb 213d f0c8 81be 7e7c adbd
000003a0: 76ae 82bc 3369 8a3b c076 a0bb af48 42be
000003b0: 13d1 e83d 62a1 b4bd 5894 883d 31a6 5d3c
000003c0: 1a3c cebb 896a ccbc 7234 a8bd 67c9 753d
000003d0: 48f0 06bc 8b35 893c 4d4c 9dbe 4736 7fbe
000003e0: c8ab 0cbd 4d1a 24be 59d1 aebd b139 613b
000003f0: 255c c03b 566c 5f3e f5be 44be 3afb 4d3e

Linear3.bias f4 [256]
-0.27674747 -0.39940056 -0.41760406 -0.5473544 -0.36077765 -0.14325382 -0.21325116 0.18973063
-0.19650929 -0.31548545 -0.078171626 -0.31722432 -0.48036355 -0.32670137 -0.13341402 -0.52611846
-0.14534633 -0.1515595 0.20119335 -0.0528117 -0.8418549 -0.18818055 -0.25839892 -0.18291777
-0.40488946 -0.16672999 -0.48840892 -0.36926544 -0.2593274 -0.1559702 -0.26563582 0.42426977
0.22763231 -0.1511299 -0.22380055 -0.06965716 -0.41113594 -0.17327517 -0.5181099 -0.25290856
-0.166372 -0.05520153 -0.21384 -0.19759506 -0.33043712 -0.26533586 -0.17736311 -0.10274635
-0.14232038 -0.5015858 -0.5125291 -0.7108343 0.041685574 -0.14251016 -0.115043856 -0.19005865
-0.19883287 -0.15572432 0.123113915 0.087102674 -0.15428124 -0.31454977 -0.75865316 -0.2577169
-0.61136466 0.14597 -0.49046293 0.08698786 -0.49843585 -0.07602058 -0.17549387 -0.17939505
0.24001068 0.018501934 -0.3913371 -0.043660965 -0.50312513 -0.090114266 -0.095423415 -0.28140873
-0.5145035 -0.40093127 -0.27505073 -0.57542205 -0.5755675 -0.25675544 -0.24356753 -0.49662074
-0.090115525 0.16582564 -0.23144817 -0.1204295 -0.16426122 -0.03958025 -0.3581944 -0.10082933
-0.47858888 -0.07548639 -0.24182746 -0.14256267 0.004625402 -0.44861183 -0.39456582 -0.39738247
-0.30615452 -0.1821053 -0.33418745 -0.31544256 -0.31747425 0.030053984 -0.42223462 -0.34629673
-0.07963973 -0.18392931 -0.45064828 0.27315584 -0.18398692 -0.063740954 -0.09981388 -0.18296033
-0.13418023 -0.03713649 -0.28759003 -0.0625424 0.050486207 -0.64193285 -0.29562545 -0.082002476
-0.49705753 -0.44785538 -0.33466622 -0.14774969 -0.07693871 -0.28754696 -0.48462647 -0.46918476
-0.10602387 -0.11812077 -0.5027867 -0.12539299 -0.13834485 -0.34769252 -0.055189062 -0.19251451
-0.1890149 -0.30977884 -0.1549529 -0.11807998 -0.46398756 -0.1290965 -0.2676457 -0.18804748
-0.4211805 -0.0795293 -0.4841707 -0.15441822 0.31092337 -0.31980312 -0.11540019 -0.19719045
0.04897791 -0.18760622 -0.2871401 -0.1492684 -0.26187837 -0.3693253 -0.24141915 -0.22119153
0.10860687 -0.07987137 -0.39256847 -0.19259614 -0.37266436 -0.49358234 -0.5197075 -0.32317835
-0.18717563 -0.24578543 -0.3131647 -0.11895338 -0.06670851 0.15062252 0.1257847 -0.36959314
-0.45599464 -0.29671013 0.022667127 -0.26182178 -0.17107643 0.13046905 -0.12309912 -0.42500174
-0.097648576 -0.051405042 -0.08806369 0.3790919 -0.10704733 -0.13660982 -0.41160008 0.3576761
-0.47805992 -0.2578902 -0.3742731 -0.18568172 -0.08807653 -0.08745725 0.12081809 -0.1599544
-0.15560596 -0.15967117 -0.4895516 -0.4157306 -0.3001372 -0.29352015 -0.24605317 -0.46331584
0.456615 0.20619176 -0.13962218 -0.13780844 -0.100188255 -0.18559399 -0.14300442 -0.38171497
-0.07737594 -0.41122657 -0.38165107 -0.42972833 -0.15530863 -0.099006034 -0.17674519 0.26141232
-0.101410694 -0.22295612 -0.39410406 -0.057881102 -0.30236727 -0.123639494 -0.37344143 -0.08889162
-0.43302554 -0.3153252 -0.23558706 -0.22284557 -0.43842292 -0.15554513 -0.604995 -0.39619341
-0.3455858 -0.40754977 -0.41581067 -0.11164264 -0.12401781 0.035927545 -0.13689604 -0.06956605
00000000: d8b1 8dbe 3b7e ccbe 33d0 d5be 6b1f 0cbf
00000010: d9b7 b8be 21b1 12be 835e 5abe bf48 423e
00000020: bb39 49be 4f87 a1be 7218 a0bd 3a6b a2be
00000030: 36f2 f5be 6745 a7be af9d 08be b3af 06bf
00000040: abd5 14be 6a32 1bbe a105 4e3e 1551 58bd
00000050: cd83 57bf 67b2 40be dd4c 84be cc4e 3bbe
00000060: ac4d cfbe 44bb 2abe bc10 fabe 5c10 bdbe
00000070: 90c6 84be a7b6 1fbe 6b01 88be e339 d93e
00000080: 7218 693e ccc1 1abe f92b 65be 6aa8 8ebd
00000090: 6980 d2be 0c6f 31be daa2 04bf 3b7d 81be
000000a0: 6c5d 2abe 001b 62bd dff8 5abe 5c56 4abe
000000b0: 0e2f a9be 1ada 87be ad9e 35be ae6c d2bd
000000c0: 6fbc 11be ed67 00bf 1b35 03bf 3df9 35bf
000000d0: 7ebe 2a3d 2fee 11be 1d9c ebbd bc9e 42be
000000e0: d89a 4bbe 3276 1fbe 2623 fc3d e362 b23d
000000f0: e7fb 1dbe ab0c a1be 1837 42bf 78f3 83be
00000100: 6582 1cbf 2979 153e f51d fbbe b126 b23d
00000110: fc32 ffbe aeb0 9bbd aab4 33be 56b3 37be
00000120: 5cc5 753e 5e91 973c 565d c8be d7d5 32bd
00000130: cfcc 00bf d48d b8bd 5a6d c3bd ce14 90be
00000140: 80b6 03bf dd46 cdbe 73d3 8cbe dc4e 13bf
00000150: 6458 13bf 7375 83be c469 79be 1345 febe
00000160: 7d8e b8bd 32ce 293e c000 6dbe bea3 f6bd
00000170: 1834 28be e61e 22bd 4265 b7be 9c7f cebd
00000180: 9a09 f5be 9c98 9abd 9ea1 77be f3fb 11be
00000190: af90 973b 73b0 e5be 8804 cabe b775 cbbe
000001a0: 49c0 9cbe d079 3abe 9e1a abbe b081 a1be
000001b0: fc8b a2be c633 f63c 232f d8be ce4d b1be
000001c0: 281a a3bd f757 3cbe 5fbb e6be 15db 8b3e
000001d0: 1167 3cbe 9e8a 82bd 386b ccbd f459 3bbe
000001e0: 8b66 09be 6f1c 18bd 003f 93be 3b16 80bd
000001f0: a0ca 4e3d b655 24bf 385c 97be eaf0 a7bd
00000200: 537e febe 4d4d e5be 5f59 abbe b24b 17be
00000210: 0b92 9dbd 5b39 93be f620 f8be fc38 f0be
00000220: 0b23 d9bd 4de9 f1bd a1b6 00bf 0567 00be
00000230: 46aa 0dbe c104 b2be ed0d 62bd 8622 45be
00000240: 1f8d 41be 559b 9ebe f9ab 1ebe ebd3 f1bd
00000250: c78f edbe df31 04be db08 89be 858f 40be
00000260: f8a4 d7be 42e0 a2bd 39e5 f7be cf1f 1ebe
00000270: 5931 9f3e 3cbd a3be ef56 ecbd 4bec 49be
00000280: 109d 483d d81b 40be 0704 93be d1d9 18be
00000290: ec14 86be 3518 bdbe 9536 77be 0880 62be
000002a0: 476d de3d 9a93 a3bd bcfe c8be ec37 45be
000002b0: ddcd bebe d3b6 fcbe 8d0b 05bf a277 a5be
000002c0: f8aa 3fbe 2daf 7bbe 2057 a0be d49d f3bd
000002d0: 799e 88bd ca3c 1a3e b4cd 003e 503b bdbe
000002e0: 2178 e9be 64ea 97be 69b0 b93c 810d 86be
000002f0: a92e 2fbe ae99 053e 641b fcbd d499 d9be
00000300: fafb c7bd 188e 52bd bc5a b4bd 5518 c23e
00000310: a13b dbbd 72e3 0bbe 3fbd d2be 5221 b73e
00000320: 45c4 f4be 2f0a 84be b9a0 bfbe 5923 3ebe
00000330: 7861 b4bd c91c b3bd 7a6f f73d 16cb 23be
00000340: 2b57 1fbe d780 23be 82a6 fabe a4da d4be
00000350: 95ab 99be 4648 96be 5df5 7bbe bc37 edbe
00000360: 71c9 e93e ef23 533e 1ef9 0ebe a81d 0dbe
00000370: 802f cdbd 5a0c 3ebe c06f 12be 2570 c3be
00000380: 4777 9ebd 4a8c d2be c567 c3be 5a05 dcbe
00000390: 3a09 1fbe adc3 cabd b1fc 34be d6d7 853e
000003a0: 69b0 cfbd 9c4e 64be 02c8 c9be bc14 6dbd
000003b0: e2cf 9abe b436 fdbd b733 bfbe cf0c b6bd
000003c0: 86b5 ddbe 4e72 a1be bc3d 71be a131 64be
000003d0: f878 e0be 3947 1fbe f4e0 1abf ddd9 cabe
000003e0: 9ff0 b0be 5daa d0be 23e5 d4be e5a4 e4bd
000003f0: 0dfd fdbd c328 133d 7a2e 0cbe a578 8ebd

Linear4.weight f4 [1, 256]
0.0034801627 0.0018357675 0.106230274 -0.004371408 0.004147922 -0.0310732 0.021813313 0.08310795
-0.024887497 0.017924154 0.19536272 0.027794728 -0.027337948 0.0046333373 -0.008447101 -0.020984853
0.006060355 0.020411897 0.10854884 0.33151552 -0.018112473 0.026228853 0.22486609 0.009430149
-0.033953194 0.0010250293 0.014157905 -0.0022426355 0.22108829 0.18906246 0.013802641 0.072835855
0.11812201 0.006572616 0.102873154 -0.0016422188 0.014561301 0.02688 0.016040565 0.023383265
-0.010628594 0.0058719115 -0.008995481 0.0061684414 -0.023178432 0.06272642 0.011613645 -0.01864908
0.031481385 -0.03034617 -0.013506477 -0.0014138058 -0.03407158 -0.0022325234 0.023597592 0.24282898
0.018593894 0.005071346 0.14034684 0.19112395 0.6596987 0.0020978206 0.025308447 -0.0016060995
0.004116196 1.5719873 0.27957627 0.31989753 0.026655076 0.038942035 -0.017283387 0.0110021895
0.12657349 -0.013810193 -0.022125514 1.5461729 0.027169775 -0.02423459 0.06316474 0.00950194
-0.016051456 0.015835209 -0.019685358 -0.015189288 0.15029474 0.00029440192 -0.0012431074 -0.027845982
-0.0061882664 0.5474647 0.53523564 0.029367294 0.008539264 -0.028151704 0.15397549 -0.015208462
-0.017827822 0.0017710351 -0.012972138 0.34047994 0.19130589 0.14528656 -0.017023813 0.082105316
-0.043203592 -0.022493333 -0.0034712756 0.07807054 -0.05329278 -0.040842082 -0.0055221515 0.019834174
0.0023957689 0.001979371 0.019224202 0.26132265 0.019877836 -0.008417092 -0.007421418 -0.013582612
0.0018537644 0.21626015 -0.0157326 -0.0007817074 -0.015385577 0.037954368 -0.020821447 -0.053230714
0.016617857 0.0064516435 -0.042628545 0.23432723 -0.0069408324 -0.015863972 -0.01995512 -0.02462055
0.0062164073 0.094223626 0.23871242 0.014664753 0.010764999 0.43076178 -0.005463797 0.06332466
-0.0128417425 -0.004365279 0.0008829751 -0.009250108 -0.030871127 -0.010960716 -0.03230158 0.15783401
0.01796448 0.27519095 0.14880417 0.1568583 0.3884792 -0.0128623005 0.028626874 0.31101507
0.2174477 0.0030876219 0.27910534 -0.020194806 -0.005330316 -0.021374982 0.031976264 0.359174
0.3166637 -0.025518578 0.013467608 0.030469714 0.029325768 0.2051969 -0.009017079 0.01131383
0.022256624 0.12194879 0.016829269 0.010294442 0.017971452 1.1391906 0.06298519 0.009600071
-0.01703308 0.01663804 0.41305834 0.2735378 0.008515458 0.13949868 0.018340461 0.02765106
0.012406566 -0.04737585 0.002738645 0.33046415 -0.025897224 -0.024117026 0.24660456 0.17293817
0.19797993 -0.0029468725 -0.012324255 -0.021238584 -0.008518573 0.21586552 0.07868287 0.06753726
-0.022409998 0.009219325 0.013881416 0.09289183 0.15021737 0.018148728 0.015307466 0.005438272
0.12255346 0.13308898 -0.0126198055 0.019494353 -0.018355045 -0.0025981646 0.0059291786 0.010842151
-0.010018776 -0.033706132 0.01334518 -0.0052473214 -0.01314743 0.014781031 0.0061495714 0.2654932
0.01923447 -0.022106363 0.019984 0.03605647 0.004571173 0.01681502 0.0039436277 0.07377236
-0.025105506 0.025305538 0.43352222 -0.015840793 0.699534 -0.00687019 0.16976176 0.78167325
0.0013600755 0.0031608532 -0.0065156124 0.32548785 -0.019729838 0.2781995 0.016093347 0.17455149
00000000: 7113 643b 239e f03a 428f d93d 073e 8fbb
00000010: 4beb 873b 398d febc d5b1 b23c 8034 aa3d
00000020: dde0 cbbc add5 923c 2a0d 483e c5b1 e33c
00000030: d5f3 dfbc 40d3 973b b665 0abc 6de8 abbc
00000040: f195 c63b da36 a73c db4e de3d 67bc a93e
00000050: 9c60 94bc e4dd d63c 4c43 663e e980 1a3c
00000060: 8112 0bbd 475a 863a 8ff6 673c 2ef9 12bb
00000070: f864 623e 9799 413e 7924 623c f72a 953d
00000080: f4e9 f13d 195f d73b 29af d23d b83f d7ba
00000090: 8692 6e3c 7233 dc3c 8167 833c 438e bf3c
000000a0: 8e23 2ebc 2a69 c03b c861 13bc a320 ca3b
000000b0: b2e0 bdbc b676 803d 2847 3e3c f5c5 98bc
000000c0: a0f2 003d 8898 f8bc 454a 5dbc 734f b9ba
000000d0: a48e 0bbd 874f 12bb bd4f c13c 29a8 783e
000000e0: 3952 983c 892d a63b 15b7 0f3e ffb5 433e
000000f0: 04e2 283f 977b 093b a953 cf3c c283 d2ba
00000100: 28e1 863b e136 c93f 9f24 8f3e 9cc9 a33e
00000110: bf5b da3c af81 1f3d e495 8dbc 8742 343c
00000120: 7b9c 013e 2644 62bc 9140 b5bc fee8 c53f
00000130: 2693 de3c 9e87 c6bc 845c 813d 06ae 1b3c
00000140: 587e 83bc d7b8 813c 3043 a1bc 7edc 78bc
00000150: dde6 193e f559 9a39 c3ef a2ba 421d e4bc
00000160: f1c6 cabb a626 0c3f 3405 093f ae93 f03c
00000170: 45e8 0b3c 679e e6bc c0ab 1d3e ea2c 79bc
00000180: a70b 92bc 1422 e83a 1789 54bc 6353 ae3e
00000190: b1e5 433e 00c6 143e 8675 8bbc d526 a83d
000001a0: 40f6 30bd f043 b8bc 577e 63bb 73e3 9f3d
000001b0: 8849 5abd 074a 27bd 2af3 b4bb 477b a23c
000001c0: 5502 1d3b 56b8 013b 137c 9d3c 15cc 853e
000001d0: d8d6 a23c d8e7 09bc 5e2f f3bb 9b89 5ebc
000001e0: 03fa f23a 4d73 5d3e a7e1 80bc 7feb 4cba
000001f0: ca13 7cbc 0a76 1b3d bd91 aabc 7308 5abd
00000200: 2c22 883c 4f68 d33b 459b 2ebd 7af3 6f3e
00000210: ec6f e3bb 29f5 81bc eb78 a3bc 09b1 c9bc
00000220: 01b3 cb3b 51f8 c03d 0771 743e 6f44 703c
00000230: ae5f 303c cf8c dc3e a709 b3bb 5cb0 813d
00000240: 2c66 52bc 9d0a 8fbb 7577 673a c48d 17bc
00000250: 72e5 fcbc 9394 33bc a94e 04bd 3d9f 213e
00000260: 3f2a 933c d4e5 8c3e 1f60 183e 769f 203e
00000270: bfe6 c63e 66bc 52bc e882 ea3c 5e3d 9f3e
00000280: 9caa 5e3e b359 4a3b e5e6 8e3e 946f a5bc
00000290: eea9 aebb 961a afbc 8bf9 023d a8e5 b73e
000002a0: bf21 a23e 560c d1bc 3ea7 5c3c 9f9b f93c
000002b0: 983c f03c 231f 523e 5fbc 13bc a45d 393c
000002c0: 8653 b63c 4ac0 f93d 89dd 893c 05aa 283c
000002d0: de38 933c ffd0 913f 61fe 803d 9e49 1d3c
000002e0: f588 8bbc 804c 883c 627c d33e 260d 8c3e
000002f0: 6b84 0b3c bed8 0e3e bc3e 963c 7a84 e23c
00000300: e944 4b3c 2e0d 42bd d77a 333b 9932 a93e
00000310: 6a26 d4bc 1291 c5bc e885 7c3e b416 313e
00000320: 40bb 4a3e 5120 41bb aceb 49bc 8afc adbc
00000330: 7c91 0bbc da0b 5d3e 7c24 a13d fa50 8a3d
00000340: 2c95 b7bc a70c 173c e16e 633c 123e be3d
00000350: 95d2 193e a4ac 943c 2acc 7a3c 8833 b23b
00000360: 4ffd fa3d 7a48 083e 4dc3 4ebc 9fb2 9f3c
00000370: 525d 96bc f845 2abb 8e49 c23b 47a3 313c
00000380: cb25 24bc 710f 0abd bea5 5a3c b9f1 abbb
00000390: 5168 57bc 232c 723c 5882 c93b baee 873e
000003a0: 9b91 9d3c 6718 b5bc 7cb5 a33c f3af 133d
000003b0: c7c9 953b a7bf 893c 8c39 813b f715 973d
000003c0: 10aa cdbc 8f4d cf3c a0f6 dd3e 8dc4 81bc
000003d0: a914 333f 551f e1bb 07d6 2d3e bd1b 483f
000003e0: 9044 b23a 5126 4f3b eb80 d5bb 58a6 a63e
000003f0: 78a0 a1bc 2a70 8e3e 32d6 833c a0bd 323e
