utils/dataBase/loadNet/61_actor_target_net.pkl (torch, 550223 bytes, 8 tensors)

Linear1.weight f4 [256, 13]
000000 28 9e 38 bd a6 e7 99 bd d6 44 9e bd e4 86 8d be
       -0.045072705 -0.075148866 -0.07727973 -0.27641976
000010 1e d3 2e 3e 97 37 b4 3e c2 13 dd 3e 37 b4 bf bd
       0.17072722 0.35198662 0.43179137 -0.09360545
000020 a8 f3 30 3d 3e 9d 2b be 4e 80 95 bf 08 bd 43 3f
       0.04320112 -0.16759202 -1.167978 0.76460314
000030 0b 11 e8 bf 6d b7 04 be 4c 50 84 bf 20 60 bd be
       -1.8130201 -0.12960596 -1.0337005 -0.369874
000040 9b 1b f3 3b ff 4d 33 3e 5f e3 bd be 92 52 58 bd
       0.0074190623 0.17510222 -0.37087533 -0.05281312
000050 e5 bc 9d bd 3d cf 92 3e 83 8c 7e 3c 08 bb bb be
       -0.077020444 0.28673735 0.01553643 -0.3666613
000060 92 9b e9 be 5f b1 24 bf 3b 11 6f be 48 33 42 bf
       -0.45626503 -0.64333147 -0.23346417 -0.758595
000070 66 4a 15 bf 0f 6e 30 be 46 86 97 be bc 39 7b bd
       -0.5831665 -0.17229484 -0.2959463 -0.061334357
000080 42 42 e8 bd 0f 4c 3e be 76 8a ae 3e bd a2 8f bd
       -0.11340763 -0.18583702 0.34090012 -0.07013462
000090 2d 61 09 bf d9 ab 43 3f 48 48 b2 be 8d 25 08 be
       -0.53663903 0.76434094 -0.3482077 -0.13295574
0000a0 0d 37 1c bf 70 df 40 bf e1 59 d6 3d c7 3d ba be
       -0.610215 -0.7534094 0.10466362 -0.36375257
0000b0 7c a9 f8 be 1d 8f 98 be e7 ea 3f 3d 22 98 55 3e
       -0.48566806 -0.29796687 0.04685488 0.20858815
0000c0 3a d1 e8 bd 0b 12 ec be 77 43 be 3d 35 6d 84 bd
       -0.11368032 -0.46107516 0.09290212 -0.06466142
0000d0 6b ce 00 bf e9 45 9d bf b8 5d c5 3e c8 bc c8 be
       -0.5031497 -1.228696 0.38548064 -0.3920653
0000e0 9a 2d 27 bf 42 de 22 be 3e c5 3d be dc d6 18 bf
       -0.6530396 -0.15905097 -0.18532273 -0.5970285
0000f0 27 75 3e 3e ca fc 89 3d 36 b8 5d be 9f 8d 11 40
       0.18599378 0.06737669 -0.21652302 2.2742689
000100 a9 44 c9 be b8 e5 3d bf d0 f1 cb 3e 1e 9f 26 bf
       -0.39310196 -0.7417865 0.39832926 -0.65086544
000110 5a c8 51 3d bf 23 39 3e b3 1a 66 be 65 5f 85 3e
       0.05121646 0.18080042 -0.22471122 0.26049343
000120 c6 2c 28 3e 4f e8 3e 3e 95 2b 1d 3e d5 e1 08 be
       0.1642333 0.18643306 0.15348656 -0.13367398
000130 a9 60 d5 3e b1 ee 4b bf b0 63 45 3e 3b 27 7c be
       0.41675308 -0.7966109 0.19276309 -0.2462434
000140 5d 0c 01 bf 57 d5 21 3e b2 f7 d6 bc 1f 84 37 bf
       -0.5040949 0.15804039 -0.026241157 -0.71685976
000150 f3 2e 6c 3d 43 c4 fc 3d 75 05 0e 3d 9f 0c 34 be
       0.05766196 0.123421215 0.034673173 -0.1758294
000160 39 51 43 be ee 6d 23 bf 6e 84 19 bf 35 c5 06 bf
       -0.19073953 -0.63839614 -0.59967697 -0.52644664
000170 12 1c 5f bf bf d4 28 bc c0 aa c8 be be b7 98 be
       -0.87152207 -0.010304629 -0.39192772 -0.29827684
000180 0f eb b0 3c a9 84 4f 3c 82 f7 68 be 15 2c 06 3e
       0.02159646 0.012665906 -0.22750667 0.13102753
000190 9f a4 23 bd ff df 23 bf b5 6a 13 40 0c 0f 79 bf
       -0.039951917 -0.64013666 2.3033879 -0.97288585
0001a0 a6 31 96 bf 15 02 0d 3e 28 30 42 bf f7 fd ba be
       -1.1733902 0.13770325 -0.7585473 -0.36521885
0001b0 a3 46 6d be 01 de 4d be 00 05 3b 3e ee dd a1 3d
       -0.23171477 -0.20104219 0.18263626 0.07903658
0001c0 b4 54 06 3e 8f 2a 35 3e d1 84 c0 be ea 9e 6d 3e
       0.13118249 0.17692016 -0.3760133 0.23205152
0001d0 48 0b 38 bf 34 45 fa bd ed 26 1a be bf f8 22 bf
       -0.71892214 -0.12220231 -0.15053912 -0.63660806
0001e0 b7 a6 a2 bd 47 09 30 be a2 8d 76 be 55 56 99 3d
       -0.079419546 -0.17191039 -0.24077466 0.0748717
0001f0 ee 3e af bd 4c 1a 8d 3d 14 b6 88 3d dc b8 f7 be
       -0.08556925 0.06889781 0.06675354 -0.48383224
000200 f1 04 5a be 99 da 4f bf 56 47 80 bf ce 36 18 c0
       -0.21290947 -0.8119293 -1.002177 -2.378345
000210 af 0f 09 c0 32 20 20 be 6f dc a6 3d 4d 54 08 be
       -2.1415823 -0.15637282 0.08147513 -0.13313408
000220 08 8c 32 be b9 eb b8 3b 5b 1c 0c 3e dc aa ac bb
       -0.1743623 0.0056433347 0.13682692 -0.0052693915
000230 19 fb e6 3f e7 3a 35 40 1f 2f 39 40 27 33 0b 3e
       1.8045379 2.83172 2.893501 0.13593732
000240 d3 d1 f2 bd fb e1 d0 bf d1 ed 86 3e 34 51 34 bf
       -0.11856427 -1.6318964 0.26353315 -0.70436406
000250 ec 84 b4 be d2 69 2e bf b7 ba f3 bb 73 28 1c bd
       -0.3525766 -0.6813022 -0.0074380296 -0.038124513
000260 88 32 9e bd 22 90 a1 3d 15 ec b9 3d 54 d4 59 3c
       -0.07724482 0.07888819 0.09078232 0.013295252
000270 c2 63 58 be 02 ab 62 bf 42 9a d1 be 1d ba 95 be
       -0.21131805 -0.8854219 -0.40938002 -0.29243556
000280 71 bf d6 be 4b d7 e1 be 4d 56 1c be d9 71 d5 bd
       -0.41942933 -0.44109568 -0.15267296 -0.10422105
000290 9a f7 5f 3e ca df d1 bc be 27 97 be 12 9e da 3f
       0.21871796 -0.025619406 -0.29522508 1.7079489
0002a0 1d 99 8e bf e0 4b b7 bc 05 42 99 be 6d 46 02 bf
       -1.1140476 -0.022375047 -0.2993318 -0.5088871
0002b0 c9 6b c3 3c 6d 4c 81 bd 4c c5 7d be 6e 69 91 3d
       0.023855107 -0.06313405 -0.24782294 0.07100187
0002c0 fc 6d 04 be f5 15 9e 3e be 1a ae 3d 67 53 20 bf
       -0.1293258 0.30876127 0.085011944 -0.6262726
0002d0 b6 1e 28 bf 3d 42 04 bf 52 31 50 be ce 86 16 3c
       -0.6567186 -0.5166357 -0.20331314 0.009187413
0002e0 f9 65 4b bf d5 f5 8d 3d ad 59 04 bf af b3 27 bf
       -0.7945247 0.06931654 -0.51699334 -0.6550855
0002f0 18 5d 4d bd 81 77 dc 3e 93 74 fc 3e 0a d9 68 bb
       -0.05013761 0.43059924 0.4930769 -0.0035529756
000300 b7 67 00 bf eb b6 e9 3e 64 88 7a bf d6 5d 9e bf
       -0.50158256 0.45647368 -0.97864366 -1.2372386
000310 cb d5 f4 bf c6 e5 0e 3f 67 fe 29 3d 26 d7 a2 be
       -1.9127744 0.55819356 0.041502383 -0.3180477
000320 86 7a 9a be d6 fe 18 3f a5 f4 9b be 87 ba 20 3e
       -0.30171603 0.5976385 -0.30460086 0.15696155
000330 ca 5c 52 bc 29 90 c9 3f 46 c4 0b be 6b 99 38 3f
       -0.012839505 1.5747119 -0.13649091 0.721091
000340 bc bb f6 be d5 b1 90 bf d5 5b 96 bd d4 a9 70 bd
       -0.48190105 -1.130427 -0.07341734 -0.05875571
000350 00 cf 43 bd e8 55 43 bd f6 e6 10 be 85 68 04 be
       -0.047804832 -0.04768935 -0.14150605 -0.12930496
000360 ef 66 20 3d d0 5c 4f bc d3 15 f8 3b 13 2f 79 3e
       0.039160665 -0.012656406 0.007570961 0.24334364
000370 67 21 a0 be 54 62 fe be b0 14 4e bf fb 54 6b bf
       -0.31275484 -0.49684393 -0.80500317 -0.91926545
000380 a3 d7 f2 be f3 cc f3 3c 40 ec bb be 01 af c0 3e
       -0.47430143 0.029760813 -0.36703682 0.37633517
000390 a5 27 87 bd d4 8b 0e 3e 27 ab 3a 3e 6f 3e ad be
       -0.065993585 0.13920528 0.18229352 -0.33836696
0003a0 5f 40 bb bd 01 6b c3 be 1e 24 15 bd b4 e5 72 bf
       -0.09143137 -0.38167575 -0.036411397 -0.9488175
0003b0 f6 03 21 be 20 4b b4 be de 15 a7 be 71 cf cb be
       -0.15724167 -0.35213566 -0.3263387 -0.39806703
0003c0 bf 32 aa 3e fa 3d da 3c 63 70 fe 3d 2a d0 d1 bc
       0.3324184 0.02664088 0.1242378 -0.025611956
0003d0 7b 0d f9 bd 25 0d 1a 3e 14 1b 8d bc 7e fc 18 bf
       -0.12160774 0.15044077 -0.017224826 -0.5976027
0003e0 08 cb c9 bd 97 19 80 bf dd a6 93 be 4e 4e 95 be
       -0.09853178 -1.0007809 -0.28838244 -0.29161304
0003f0 1d 7d 82 be 58 49 b0 3d 6d aa 9b 3b d4 69 03 3f
       -0.2548608 0.08607739 0.004750541 0.51333356

Linear1.bias f4 [256]
000000 e5 58 04 bf 68 ea 3d bf d3 d9 e8 be 51 a1 ce be
       -0.5169814 -0.741858 -0.45478687 -0.4035745
000010 87 d1 41 be ac 3e 7c bf d9 a4 40 bf cc c9 f6 be
       -0.18927585 -0.9853313 -0.7525154 -0.48200834
000020 fd df 0a bf 0e 7f 10 bf 8f 76 58 be a5 73 d9 be
       -0.5424803 -0.5644387 -0.21138977 -0.42471042
000030 81 80 4e be ec e7 fe be fa 7c 5c bf dc f2 ad be
       -0.20166208 -0.49786317 -0.861282 -0.3397435
000040 81 5f 47 bf 95 d0 0e bf 4f ed b9 be 3b 11 ef be
       -0.778801 -0.5578702 -0.36313865 -0.46692833
000050 6a 6c 2d bf 02 26 db be 7f 04 00 bf a3 f4 e9 be
       -0.6774355 -0.42802435 -0.5000686 -0.45694456
000060 15 77 06 bf f7 7b dc be a9 81 dc be b3 85 54 3e
       -0.52525455 -0.43063328 -0.43067673 0.20754127
000070 d0 30 35 bf 5f d8 2a bf 53 9c ec be 78 5f ca be
       -0.70777607 -0.66736406 -0.46213016 -0.39525962
000080 20 5e 35 bf 17 21 25 bf 11 f9 4f bf 80 d0 30 bf
       -0.7084675 -0.64503616 -0.8123942 -0.69068146
000090 b3 f7 0f bf 8c 7f f9 be ff 71 2d bf fa 7b 58 bf
       -0.56237334 -0.48730123 -0.6775207 -0.84564173
0000a0 b4 57 1a 3e f2 60 d3 be 45 9d 8f be cb 68 e9 be
       0.15072519 -0.412849 -0.28049675 -0.45587763
0000b0 ac 9c fd be 9b 5b e0 be 88 95 bb be 11 e4 26 bf
       -0.49533594 -0.4381989 -0.3663752 -0.6519175
0000c0 f0 28 0d 3c c8 3e 3e be 17 d6 24 bf 02 b9 c8 bd
       0.008615717 -0.18578637 -0.64389175 -0.098009124
0000d0 b9 83 c5 be 0d bd 35 be 03 cc e9 be 05 1f 0a bf
       -0.3857706 -0.17747898 -0.4566346 -0.5395358
0000e0 38 b3 3b bf 47 3f a7 be 4f be ac be 1d fc 0a bf
       -0.7332034 -0.32665464 -0.33738944 -0.54290944
0000f0 2b 12 60 be f6 44 92 be a2 ef d5 be 8d 97 0e bf
       -0.2188193 -0.28568238 -0.41784388 -0.557
000100 ff 74 00 bf 7a 42 d3 be 86 53 ad be c4 84 21 3e
       -0.5017852 -0.41261655 -0.33852786 0.15773302
000110 05 87 dd be 17 1a 22 bf 3d f3 0c bf b1 b9 d8 be
       -0.43267074 -0.6332106 -0.5505865 -0.4232917
000120 94 e9 f5 be 96 29 15 bf 69 ff 46 bf 56 5a 10 bf
       -0.48029768 -0.5826658 -0.77733475 -0.5638784
000130 21 52 13 be dd 2c 06 bf 05 45 0c bf 64 2a f9 be
       -0.14386798 -0.52412206 -0.54792815 -0.48665154
000140 26 e2 1c bf 86 66 15 bf 60 2f ba 3e dd 91 8a be
       -0.61282575 -0.58359563 0.3636427 -0.2706441
000150 46 13 24 3e 1e 1c 4c 3e f7 03 21 bf 96 89 1e bf
       0.16022977 0.19932601 -0.62896675 -0.6192869
000160 d6 65 a5 be d8 87 30 bf a7 c9 37 bf 1f 16 28 bf
       -0.32304257 -0.6895728 -0.7179207 -0.65658754
000170 55 a6 14 bf c0 37 3e bf bd cd 0c bf 55 cd 1a bf
       -0.580663 -0.7430382 -0.5500143 -0.6046956
000180 16 83 1d bf 5f 74 2a bf 63 fd 2a bf 79 a7 82 be
       -0.61528146 -0.6658382 -0.6679289 -0.25518396
000190 5d 27 89 be 79 6c cc be 76 1c 1f bf a5 dd 0a bf
       -0.26787844 -0.39926508 -0.621528 -0.5424445
0001a0 ef 92 21 bf 0f f2 77 3e 5b 6b ed be bc 20 fb be
       -0.6311483 0.24213432 -0.46370968 -0.49048412
0001b0 4b 51 ef be 2d be 06 bf 4d 78 0e bf 54 14 f2 be
       -0.4674171 -0.52633935 -0.55652314 -0.47281134
0001c0 18 56 b1 be d4 24 30 bc 49 29 4c bf 87 e8 29 bf
       -0.34635997 -0.010750968 -0.79750496 -0.66370434
0001d0 b8 6e bc be 80 1e a1 be 4f 6a a1 be 67 53 20 bf
       -0.36803222 -0.31468582 -0.3152642 -0.6262726
0001e0 07 4a 20 bf d6 e8 f4 bd fd 04 09 bf 4e 26 24 bf
       -0.62612957 -0.119584724 -0.53523237 -0.6412095
0001f0 92 c4 de be be 5a 1b bf 49 ca c6 bb 2d 34 84 be
       -0.43509346 -0.60685337 -0.0060665947 -0.25821057
000200 3f 3a 2f bf 27 f7 25 bf 92 2d 5a bf fd 67 05 bf
       -0.6844825 -0.6483025 -0.85225785 -0.521118
000210 84 89 72 bf 57 ef 25 bf 24 8d 0d bf d0 58 3f bf
       -0.9474108 -0.6481833 -0.5529349 -0.7474489
000220 ac 28 08 bf f8 15 b7 be a8 6b 36 bf be 2f 1e bf
       -0.5318706 -0.35758948 -0.7125802 -0.617916
000230 a7 04 2a bf 1a 8d de be 10 81 ab be e0 70 35 bf
       -0.6641335 -0.43467027 -0.33496904 -0.7087536
000240 e3 57 e7 be 3e 5b 1d bf 0b 88 e9 be 60 66 3d bf
       -0.4518424 -0.6146735 -0.45611605 -0.73984337
000250 96 28 11 bf 1f 10 29 bf 12 4f 93 3e 6c 96 fd bd
       -0.56702554 -0.66040224 0.28771263 -0.12382206
000260 f4 d8 9d 3e 2c 88 f6 be 95 9e 0e bf 9f 8e 2f bf
       0.30829585 -0.48150766 -0.55710727 -0.68577
000270 de d2 94 be 32 cc 01 bf f4 0d 7e bf d8 ec 34 bf
       -0.2906713 -0.507022 -0.9924004 -0.70673895
000280 5d b6 06 bf 54 6e 7c be 5e 3b 8c bd dd d6 0b bf
       -0.52622014 -0.24651462 -0.06847261 -0.5462473
000290 f5 68 0c bf ec cc 76 be 7b 34 b6 be 3e a4 15 bf
       -0.5484765 -0.24101609 -0.35586914 -0.5845374
0002a0 1c 9e f0 be 02 72 df be 2d 87 0b bf b9 7f 0a bf
       -0.46995628 -0.4364167 -0.54503137 -0.5410114
0002b0 c3 77 76 be 38 85 32 bf 2f 2c ef be 4c c2 0a bf
       -0.24069123 -0.69734526 -0.46713397 -0.54202724
0002c0 23 b1 f3 be e5 47 0b bf dc 93 f9 be fa ed de be
       -0.47596082 -0.5440658 -0.4874562 -0.43540937
0002d0 9f 65 21 bf 4b 3c e6 be 90 5b 31 bf 5b 7b e2 be
       -0.63045686 -0.44967875 -0.6928034 -0.44234738
0002e0 10 f7 90 be b7 ae 29 bf 4a 92 e0 be b6 2b 11 bf
       -0.28313494 -0.6628222 -0.4386161 -0.5670732
0002f0 be 8d 1f bf 85 26 0f bf c5 c4 97 be 07 d6 2a be
       -0.62325656 -0.5591815 -0.2964231 -0.16683207
000300 49 40 c4 be 7a 74 d3 be 9d 5f 09 bf 7d 64 10 bf
       -0.38330296 -0.41299802 -0.5366152 -0.5640333
000310 a4 a6 0f bf a3 d9 e1 be 56 c8 1f bf c3 3b e7 be
       -0.5611365 -0.44111356 -0.62415063 -0.45162782
000320 79 06 c4 be c5 57 39 bf d8 8d 0d bf 00 2d 45 bf
       -0.38286188 -0.7239955 -0.5529456 -0.7702179
000330 df 84 21 bf fd 7a 06 bf 45 fe 03 bf f1 9c 66 bf
       -0.6309337 -0.52531415 -0.5155986 -0.90083224
000340 1a ca 11 be 3e f4 10 bf 1f 6e 2a bf b6 5b 22 bf
       -0.14237252 -0.56622684 -0.6657428 -0.6342119
000350 d0 d7 c7 be b5 e4 07 bf 0a e9 dd be 39 c2 45 bf
       -0.3903184 -0.53083354 -0.43341857 -0.77249485
000360 b6 90 2e bf 71 06 c7 be 7d 4f 07 bf 4f c3 a7 be
       -0.6818956 -0.38872102 -0.52855664 -0.32766196
000370 74 a0 70 be a2 bc d1 be 7d 7c 0c bf e0 71 39 bf
       -0.23498708 -0.40964228 -0.54877454 -0.72439384
000380 8f d4 21 bf 6e 3d 10 bf 98 0b 1c bf 4d c6 01 bf
       -0.63214964 -0.56343734 -0.6095519 -0.5069321
000390 16 ad 16 bf bf 1a 2e bf 74 95 f6 be e2 8d 5e bf
       -0.5885786 -0.6800956 -0.481609 -0.86935246
0003a0 1a 40 d6 be 9b e8 ee be c7 f2 20 bf a5 49 32 3e
       -0.4184578 -0.4666184 -0.6287045 0.17410906
0003b0 80 4a be be 1b d7 53 be 13 a6 e1 be 8d bc 0c bf
       -0.37166214 -0.20687525 -0.44072017 -0.54975206
0003c0 1f ad ac be 99 fe 49 bf 42 32 da be 7f 72 af be
       -0.3372583 -0.7890411 -0.4261647 -0.3426704
0003d0 15 57 03 bf ea 82 e7 bc d7 2e 2a bf e0 a7 30 bf
       -0.5130475 -0.028260667 -0.6647772 -0.69006157
0003e0 c7 cd a2 be 31 f2 40 bf ff 57 37 be e5 1c 8e be
       -0.3179762 -0.75369555 -0.17904662 -0.2775642
0003f0 d9 73 44 bf fd b1 01 bf 8d 44 07 bf 4f 60 2b bf
       -0.7673927 -0.50662214 -0.52838975 -0.6694383

Linear2.weight f4 [256, 256]
000000 c2 a9 5d bd 8d 56 1d bd cf 89 22 bd af f7 3d be
       -0.05411697 -0.03841262 -0.039682206 -0.18551515
000010 ef 9a 28 bc b2 2e 52 bd 22 da fc 3c dd e3 8d bc
       -0.010290845 -0.051314063 0.030865733 -0.017320568
000020 65 58 82 bb 5d d1 0e bd 28 d2 c0 3c c4 f0 7f bd
       -0.0039778226 -0.034867633 0.02353771 -0.06248547
000030 e9 96 4d be cc 17 83 3c 5e a8 19 be 56 d4 9d bd
       -0.20077099 0.016002558 -0.15005633 -0.077065155
000040 8f 2c a4 bd ac df 8f bc 4e 1c 95 bd 10 e2 be bb
       -0.080163114 -0.01756271 -0.07280789 -0.0058252886
000050 56 87 ae 3d e4 f0 0c bc b5 30 0c bc fd 81 89 bd
       0.08521907 -0.008602355 -0.008556535 -0.067142464
000060 79 f5 ca bd 6e 50 11 bc 52 e2 58 bd 5a 16 de bd
       -0.099101014 -0.008869274 -0.05295021 -0.10844107
000070 e8 d5 36 bc 75 b4 8e bd b0 10 be 3c c7 6f a1 bc
       -0.011159398 -0.06968013 0.023201317 -0.01970662
000080 e2 4c 6d bd d8 c0 cc 3d 72 40 67 bc ef fe 28 3d
       -0.05793465 0.099977195 -0.014114486 0.04125875
000090 ec ff 7a bc 53 d6 f3 3c 2d e6 90 3c 77 23 3b bd
       -0.015319806 0.029765284 0.017687881 -0.04568812
0000a0 35 0a 08 3a 00 e7 3f be 86 28 17 bd 5e 5e 9d bd
       0.0005189509 -0.18740463 -0.03690388 -0.07684015
0000b0 02 af d9 bd 3e fb 2c bc 0c 08 8f 3d fc f2 f2 bc
       -0.10629083 -0.010557948 0.06983957 -0.02965688
0000c0 29 bc cc bd dd bd 0b be a7 b1 3b bd 3d 8d 84 bd
       -0.09996826 -0.13646646 -0.04582372 -0.064722516
0000d0 b4 9b f6 bd 63 02 6f bd f0 98 39 3d c8 49 b8 bd
       -0.12041417 -0.058351886 0.04531187 -0.08998448
0000e0 d7 1a be 3c b9 4b 46 bd 2d 7b 0d be 16 cc ae 3d
       0.023206158 -0.04841206 -0.13816519 0.0853502
0000f0 81 d1 4d bd 28 99 bd bd cf a3 a6 bb 13 df e4 bd
       -0.050248627 -0.09257728 -0.0050854455 -0.111753605
000100 6b ac f1 3c 2a 9e 6a 3d bd 3b 83 bc 84 ef fa bd
       0.02950116 0.057279743 -0.016019696 -0.12252715
000110 96 62 18 3d c0 58 45 3d 18 e2 3b bd 17 e2 a2 bd
       0.037203394 0.04818034 -0.045869917 -0.079532795
000120 f7 ad a6 bc 20 42 42 3d c1 70 da 3b cf 3c b3 3c
       -0.020346625 0.047426343 0.0066662733 0.021879582
000130 f7 86 a0 bd 16 f2 97 bb 11 0e 40 bd b7 3a 34 3d
       -0.078382425 -0.004637013 -0.046888415 0.044001307
000140 f6 2b 12 bd 54 98 f5 bb 8e e6 b7 bd 2d 9e 1c 3d
       -0.035686456 -0.0074949656 -0.08979522 0.038236786
000150 82 25 59 bd a6 66 22 bc 5f 42 aa bb ef 29 a6 bd
       -0.053014286 -0.009912169 -0.0051959003 -0.08113467
000160 8f cb 2f bd 6d a6 8b bc eb 8f 7c bd bc ec 8b 3b
       -0.042918738 -0.017047131 -0.06166069 0.0042701643
000170 fe f3 a8 3b 49 1c 4a bc 26 f9 ad 3c bb b0 e3 bd
       0.0051560393 -0.012335845 0.021236967 -0.11117693
000180 a1 d1 41 bd c5 fd 01 bc 05 bd 11 bd 2c 96 7c bd
       -0.04731906 -0.0079340385 -0.035580654 -0.061666653
000190 3e fe 1f bc c1 0c 5a bd 72 6d 6c 3b 99 b3 c9 bc
       -0.009765206 -0.05323482 0.0036075977 -0.024621772
0001a0 e8 e1 34 3b 20 09 3f bd bc c7 f4 bc 92 73 df bd
       0.002760047 -0.04663956 -0.029880397 -0.10910715
0001b0 1b d9 e2 bd 30 36 3e be b4 be 05 be 2a 72 d0 bc
       -0.11076566 -0.18575358 -0.13061029 -0.025445063
0001c0 62 e9 d5 bd 89 01 c3 bd 54 7c 82 bd 6d 0e 9c 3c
       -0.10444905 -0.09521777 -0.0637137 0.019049847
0001d0 ec 5c 78 bd 1f 5a be bc 26 ad 90 bc 4f ef a8 3d
       -0.060635492 -0.023236332 -0.017660689 0.082487695
0001e0 90 72 42 3d 56 8d 94 bd c2 49 6d 3d e8 24 47 3d
       0.047472537 -0.0725352 0.05793167 0.04861918
0001f0 18 ec b1 bd 24 8a 01 3d 9e ac 11 bd 2e d3 a8 3d
       -0.086876094 0.03162588 -0.03556501 0.08243404
000200 30 83 c6 3c 57 bd a5 bd ee 1a 1c bc 2c 4f 0c be
       0.024232477 -0.08092754 -0.009527905 -0.13702077
000210 65 d7 8a bd 04 69 06 3c 3d ce 0e be ae 9d 9a bd
       -0.067793645 0.008203749 -0.13945861 -0.07549606
000220 c6 fb 2b 3c 8d 62 82 bd 42 df eb 38 dd 11 16 be
       0.010497039 -0.06366453 0.00011247258 -0.14655252
000230 3c 66 fe bd c7 6a a6 bd ad 3c 0d be b6 ed 92 bc
       -0.124218434 -0.08125835 -0.13792677 -0.017935615
000240 39 13 de bb b4 cc 72 bd 01 8a 42 bc fc 70 f7 3d
       -0.006777194 -0.05927725 -0.011873723 0.12082097
000250 9c b4 ff bd c4 0f 7f bd 02 c1 56 bd 89 40 c5 bd
       -0.124856204 -0.062270895 -0.05243016 -0.0963145
000260 3a a3 df bd b3 19 62 bc d8 eb 49 3b 6c 2a f6 bc
       -0.10919805 -0.0138000725 0.003081074 -0.030049525
000270 42 fe d1 3c 47 76 a2 bd 41 ea 4c bd b5 fd 87 bc
       0.025633935 -0.07932716 -0.05002809 -0.01660047
000280 0b fc 77 3d 3e 84 92 bd 09 14 db 3c 17 37 b2 bd
       0.0605431 -0.071541294 0.026742952 -0.08701914
000290 9b 8a ed bc 4a b6 da bd c2 a8 d9 bd b7 51 ac 3c
       -0.028996756 -0.106793 -0.10627891 0.021035058
0002a0 3d a8 8c bc e9 f6 d6 3c fc 8c 03 bd bd 15 81 bc
       -0.017170066 0.026240783 -0.032116875 -0.015757436
0002b0 5b d5 ec bd 7a 9f e9 3c fe 8f a8 bd 15 b6 88 bd
       -0.11564132 0.028518427 -0.08230589 -0.066753544
0002c0 ed 10 0d bd ea 60 56 bc 93 86 e0 bc 69 4e d7 bd
       -0.03443997 -0.01308463 -0.02740792 -0.105130024
0002d0 ba d1 6a 3d ab 98 6d bc bd 5a 02 bd ff 68 22 bd
       0.057328917 -0.014501731 -0.031824816 -0.039650913
0002e0 42 b9 50 bd 26 64 98 bd ce d7 2e bd a4 c1 7e bc
       -0.050957926 -0.07440977 -0.042686276 -0.015549097
0002f0 07 d7 ae bd 7f 6a 28 bd ea c1 e3 3c ed ee 81 bc
       -0.08537107 -0.041117188 0.027802426 -0.015860999
000300 51 09 c6 bd 86 40 13 bc 86 20 90 bc f3 4e 6f bd
       -0.09669746 -0.008987552 -0.017593633 -0.0584249
000310 7d 28 01 be 86 6c ad 3c bf 04 3a 3c f0 d1 bc ba
       -0.12613101 0.021169912 0.011353671 -0.0014405828
000320 b7 97 b1 bd e6 35 27 bb ec 1f 7e bc b4 45 32 bd
       -0.086715154 -0.0025514304 -0.01551054 -0.043523505
000330 7a 19 de bc c7 a5 31 3d 11 e1 d3 3c fe 3c a1 3d
       -0.027111758 0.04337099 0.025864156 0.078729615
000340 91 78 c1 bc c1 bb da 3c 51 94 cc bd 33 80 6c bb
       -0.02361706 0.026700856 -0.099892266 -0.0036087155
000350 44 cb ff bb 76 4e 9f bc 3a 2e e6 bd 3e 1c 9b bd
       -0.0078062136 -0.019446593 -0.11239286 -0.07573746
000360 f3 2b 60 bd 2c ca 84 bd 58 57 b6 bd 96 23 96 bd
       -0.054729413 -0.06483874 -0.08903378 -0.07331006
000370 1b 56 e3 bd c1 11 d5 bc 75 1e 8e bd 0c 57 06 3d
       -0.11100408 -0.026009442 -0.06939403 0.032797858
000380 e1 bc 52 3b d7 1e b5 39 b8 ac 3a bd 2a ef 50 bd
       0.0032156038 0.00034545988 -0.045574874 -0.051009335
000390 b9 e7 45 bd 75 aa 98 bd c7 ef ad bb 1f 97 b8 3d
       -0.04831669 -0.07454387 -0.0053081247 0.09013199
0003a0 2e 11 a7 bc 24 21 06 bd 6c 80 89 bb 92 d1 e0 bd
       -0.020393934 -0.03274645 -0.0041962173 -0.10977472
0003b0 f3 e9 ea bc 81 97 5f bd 92 1f 54 bc 37 3b b6 bb
       -0.028676009 -0.054587845 -0.01294698 -0.005561258
0003c0 d4 67 fb bd ce 92 94 bd b3 6d ed bd 8d 80 16 3c
       -0.12275663 -0.07254563 -0.11593189 0.009185922
0003d0 2a 21 d1 bd f9 b4 c2 bd 64 0f f1 bb eb 04 76 3c
       -0.10211404 -0.09507174 -0.007356571 0.015015821
0003e0 2d b1 04 be da 9b e7 3d cd 07 0e be c7 11 80 bd
       -0.12958212 0.11309023 -0.13870163 -0.06253391
0003f0 00 b9 4f 3d 70 b7 36 bd 09 cf c0 bd fe 0d 94 bd
       0.05071354 -0.044608533 -0.09414489 -0.07229231

Linear2.bias f4 [256]
000000 f0 6a 30 be 48 a1 b8 bd ad 4f 8e bd 5f 22 a7 bc
       -0.17228293 -0.09015137 -0.06948791 -0.020402132
000010 6e 69 7b 3d 5e 4d 06 bf a8 3f 35 be 08 be f8 3e
       0.061379842 -0.524618 -0.17700064 0.48582482
000020 90 d2 b2 be 5c 2d 08 bf 34 a8 d3 3e 22 14 52 be
       -0.3492627 -0.5319421 0.41339266 -0.20515493
000030 17 a3 a0 bd 9d 96 84 bd a6 b3 11 bf 7d be 01 bf
       -0.07843607 -0.0647404 -0.56914747 -0.5068129
000040 25 3f 1a be 9a 80 5e bd 42 8c 1f be 5a a5 db bd
       -0.1506315 -0.054321863 -0.15580848 -0.10724898
000050 bb 99 eb bd 70 9e b6 bd e9 f9 c9 bd e8 2b 31 be
       -0.11503931 -0.08916938 -0.0986212 -0.17301905
000060 03 c6 6a bd 40 7c bd be f1 5d 47 be 57 ea 2a be
       -0.057317745 -0.37008858 -0.1946943 -0.16690956
000070 7f af 29 be fb 67 ec bd 18 12 34 be 36 08 99 bd
       -0.16570853 -0.1154327 -0.17585027 -0.07472269
000080 25 3b 8a bd 19 37 4b be be 77 12 be ff dd b4 bc
       -0.06749562 -0.19845237 -0.1430349 -0.022078512
000090 a6 43 13 be 31 cc 95 bb 0f 5e 85 3e 95 45 88 bd
       -0.14381275 -0.0045714607 0.26048324 -0.06653897
0000a0 76 b5 92 bd f4 dc 18 be 38 3d 3e be a5 41 0b be
       -0.07163517 -0.14928037 -0.1857804 -0.1359926
0000b0 eb cf e9 bd 4e cd 9d bd 7d cc 87 bd 35 22 84 bd
       -0.1141661 -0.077051744 -0.066308 -0.06451837
0000c0 22 15 d6 bd 97 52 a3 be d1 30 ce be d8 18 b6 be
       -0.104532495 -0.3189895 -0.4027162 -0.3556583
0000d0 e5 b6 05 be 83 fe 6b bf 60 5f ba be d9 d9 4c be
       -0.1305805 -0.9218523 -0.3640089 -0.20004977
0000e0 f1 0d cc bd 0c 9e 76 be c0 a7 3c be 95 fa 0d 3f
       -0.099635966 -0.24083728 -0.18423367 0.5546048
0000f0 ec 74 74 be 75 d2 89 bd ed 8a 01 bf e5 53 89 be
       -0.23872727 -0.067295946 -0.5060261 -0.2682182
000100 26 95 36 bf e2 ee d2 bd 9e f3 1a bf 84 47 7d be
       -0.7132133 -0.102994695 -0.6052798 -0.24734312
000110 7d 0a 06 be d9 a6 c8 bd 66 ab 2f bb 28 65 35 bf
       -0.13089938 -0.09797449 -0.0026805042 -0.7085748
000120 ff 2f 7c be e5 e8 05 be d1 d8 4b be 93 c2 ef be
       -0.24627684 -0.13077123 -0.19906928 -0.46828136
000130 2c 7f 6c 3e 12 53 5a bd 78 47 35 be 94 fe fe bd
       0.23095387 -0.05330188 -0.17703044 -0.12450901
000140 04 e1 72 be f0 71 7c bd 5b 39 ed be 68 8b 38 be
       -0.23718649 -0.061632097 -0.4633282 -0.1802193
000150 56 c7 1b be 66 83 18 be b9 19 c6 bd 62 d1 d9 bd
       -0.1521276 -0.14893875 -0.09672875 -0.1063564
000160 b2 04 d9 bd bf ad bf be f0 5e b2 bd e8 be 3e be
       -0.10596599 -0.37437245 -0.08709514 -0.18627512
000170 a3 58 ea bd fb c8 e0 bd c8 b1 c8 be 05 8a 0d be
       -0.11442687 -0.10975834 -0.39198136 -0.13822182
000180 f3 be 1c bf 85 76 8a bd 6e ee 18 be d3 22 fa be
       -0.61228865 -0.06760887 -0.14934704 -0.48854694
000190 2d 68 0c be 0d 19 88 be 2a 15 53 bd 3a d3 d7 be
       -0.13711615 -0.26581612 -0.051533855 -0.4215334
0001a0 65 52 83 bd 81 43 4f be ff cc 22 be 00 ce bf bd
       -0.064122 -0.20240594 -0.15898512 -0.09365463
0001b0 cb 74 67 be e6 90 1c be 50 e5 b2 be 8b 2f e5 bd
       -0.22603147 -0.1528965 -0.34940577 -0.11190709
0001c0 88 c5 68 3e cd 9f ea be 96 83 9f bd 47 14 2a be
       0.22731602 -0.45825043 -0.0778877 -0.16609298
0001d0 c2 c0 55 bd a3 df e0 be 28 52 a1 be 18 03 e2 be
       -0.05218578 -0.4392062 -0.31507993 -0.44142985
0001e0 7e 74 05 be 4e d1 14 bd 45 e8 0f be 6b 5a ee be
       -0.1303272 -0.03633242 -0.14053448 -0.46553358
0001f0 e6 f6 e9 be 79 ca cd be 23 f3 cd be 35 3e af be
       -0.4569618 -0.40193537 -0.4022456 -0.34227148
000200 c5 aa 3f be 49 65 42 bd 40 22 33 be bd 30 09 be
       -0.18717487 -0.047459874 -0.17493534 -0.13397498
000210 e5 3f 04 bf 21 ac 41 be a4 df f9 bd fe 20 15 bf
       -0.51659995 -0.18913318 -0.12200859 -0.5825347
000220 d3 e1 49 3f a1 38 4e be 0a 3a dd bd 84 63 f0 bd
       0.78860205 -0.2013879 -0.10802086 -0.11737731
000230 a3 9c 67 bd 9f c9 a1 bd 43 7b 6b bd 8d 2a 03 be
       -0.056545865 -0.07899784 -0.0574906 -0.128092
000240 af fe 27 bd 21 37 8d 3d dd 3e 03 be af f7 a4 bd
       -0.04101437 0.06895281 -0.12816949 -0.080550544
000250 fa 78 92 be 18 01 3b bd 0f c8 a1 be e7 7b ac be
       -0.28607923 -0.04565534 -0.31597945 -0.3368828
000260 5e af 1c be c4 14 fa bd 95 5b 41 3e 4b a1 ea bd
       -0.15301272 -0.12210992 0.18882592 -0.114565454
000270 85 e4 99 be 2f 6d 20 be 0b 0f 80 be 55 32 86 be
       -0.3005716 -0.1566665 -0.25011477 -0.26210275
000280 5c 8b f0 be 92 db d6 bd de a2 1c be 5d 07 86 be
       -0.46981323 -0.104910985 -0.15296504 -0.26177493
000290 8b f9 ed bd e4 5d ff bd 51 8e aa be 88 d4 3d be
       -0.11619862 -0.1246908 -0.33311704 -0.18538105
0002a0 7f f5 ae bd bc ff 73 be 48 3d b8 bd 39 85 4b be
       -0.085429184 -0.23828024 -0.089960635 -0.19875039
0002b0 f7 f8 77 bd c4 fb 60 be c6 36 1e be 11 16 47 bd
       -0.060540166 -0.21971041 -0.15450582 -0.04860503
0002c0 44 22 fe bd 9d 92 8d bd f0 54 3c be 3d ea 81 be
       -0.124088794 -0.0691273 -0.18391776 -0.25374022
0002d0 ce ce e8 bc 65 58 c0 be 00 70 61 3d e2 25 f3 3e
       -0.028418925 -0.3756744 0.055038452 0.4748984
0002e0 67 2f 26 be d9 9f c5 be 27 81 28 be b1 97 cd bd
       -0.1622902 -0.38598517 -0.16455518 -0.100386985
0002f0 7d b4 8b bd 44 4e ff be 04 40 f8 be 4c 20 f3 bd
       -0.06821535 -0.498644 -0.4848634 -0.118713945
000300 0e 0f 12 be 93 0f e0 3d 81 af c2 be 80 24 3c be
       -0.14263555 0.109404705 -0.38024524 -0.18373299
000310 0d f5 8d be 8f 27 a2 bd 8a 49 50 be 74 b4 f5 be
       -0.2772602 -0.079177015 -0.20340553 -0.47989237
000320 35 3b 04 be 47 41 2f be 53 4e 60 be 40 92 b1 be
       -0.1291321 -0.17114745 -0.21904878 -0.34681892
000330 ff 04 39 bf 21 2b 4a be 30 b8 9b be da a8 50 be
       -0.7227325 -0.19743015 -0.3041396 -0.20376912
000340 bd 22 1c bd de c7 20 3e 54 34 11 bf c0 1e be bd
       -0.038119067 0.15701243 -0.5672047 -0.09283209
000350 cb 08 e0 bd 0c 04 ff bd c8 86 fb bd 28 8d 3f be
       -0.10939177 -0.12451944 -0.12281567 -0.1870619
000360 ad 02 06 be e2 e3 d8 bd 80 ea 34 be db 42 e1 bd
       -0.13086958 -0.1059034 -0.1766758 -0.1099908
000370 e4 38 47 be b1 23 15 be bf b0 ae bd 44 90 f4 bd
       -0.19455296 -0.14564396 -0.085298054 -0.11941579
000380 4d 63 85 bd 3c 55 39 3e 65 fa 00 be 91 25 95 bc
       -0.06513081 0.1809892 -0.12595518 -0.01820639
000390 2d b8 07 be 82 44 58 bc aa 02 d4 bd ea 47 d6 bd
       -0.13253851 -0.013199927 -0.10352071 -0.10462935
0003a0 da c3 d8 be 97 d6 a6 be 65 37 14 be 35 09 84 be
       -0.42336923 -0.32585594 -0.14474256 -0.25788274
0003b0 77 c1 a9 bd 1a 1e e4 be 1a 53 d7 bd 6c 50 78 be
       -0.082888536 -0.44554216 -0.10513897 -0.24249429
0003c0 f7 f2 27 be d5 69 83 bd 36 e9 c9 bd 88 8d 34 be
       -0.16401277 -0.0641667 -0.098589346 -0.17632115
0003d0 65 f0 8a bd bd f9 8d bd d7 5a 2b be 94 1d 7e be
       -0.06784133 -0.069323994 -0.16733871 -0.2481597
0003e0 77 38 ab bd a6 c2 1b be 61 af ce be dd 33 09 be
       -0.08360379 -0.15210971 -0.40368178 -0.1339869
0003f0 4c 0c 47 be 1a bc 94 be e9 c8 4d be 6b 14 e9 bd
       -0.19438285 -0.2904976 -0.20096172 -0.113808475

Linear3.weight f4 [256, 256]
000000 fe 75 24 be 54 c0 ff 3b ec f9 fb bc 8e 31 9f 3d
       -0.16060635 0.0078049097 -0.03075882 0.07773124
000010 76 5f 98 be 14 91 f1 bd 47 88 38 3d c8 67 33 be
       -0.2976033 -0.117952496 0.04505184 -0.17520058
000020 7d f1 1e be 4a 90 d8 3d 4e 4e 95 be 4f d9 34 be
       -0.15521808 0.10574396 -0.29161304 -0.17661022
000030 31 db c8 bd b7 55 3c 3d e7 59 21 bc 36 ac 9f bd
       -0.098074324 0.04598018 -0.009848095 -0.077965185
000040 8f 35 af be ec 8a 81 bc e4 5e 03 be a0 4b 4f bd
       -0.3422055 -0.015813313 -0.12829167 -0.05060923
000050 98 16 46 3d 99 b9 48 bd 9c 71 86 bd 6c 72 83 bd
       0.04836139 -0.049005125 -0.06564638 -0.064183086
000060 de 4f 95 3b 12 d5 6e bd 95 6e 96 3d cc f4 73 bc
       0.00455664 -0.05830867 0.073453106 -0.014889907
000070 ec e4 72 3d 58 e9 bf 3d ad a3 99 bd 69 f7 58 3d
       0.05930035 0.09370679 -0.07501922 0.052970324
000080 3f ba a2 bd 9e c5 91 bc 1d 69 16 3d f6 5c a7 3d
       -0.0794568 -0.017794427 0.036721338 0.08172028
000090 f0 91 4f bd b3 57 e0 bd f4 87 8b bc a0 5b c4 bd
       -0.050676286 -0.10954227 -0.017032601 -0.095877886
0000a0 03 d4 f0 bc 77 d3 a6 bd ee 22 23 bd 03 d3 ec bc
       -0.02939797 -0.081458025 -0.039828233 -0.028909212
0000b0 75 e1 13 3e aa d6 52 bd 58 84 c5 bc fc 5c 0b be
       0.14441474 -0.05147425 -0.024110958 -0.1360969
0000c0 f6 e5 a5 bb 74 cc 71 bc ce e4 17 be 2c 2c fd bd
       -0.005062814 -0.014758218 -0.14833376 -0.12361941
0000d0 ae 24 11 bd ca 1c e5 3c 20 5c ad bb 90 ec cf 3b
       -0.03543537 0.02796783 -0.005290523 0.006345339
0000e0 43 0d f5 bc ed 04 0f 3a 7e d2 9f bb 7b f7 6b bd
       -0.02991355 0.0005455751 -0.0048773875 -0.057609063
0000f0 5f ab 3e be a8 4f c3 bd e3 ec 63 be 9f 45 37 3d
       -0.1862006 -0.095366776 -0.22258334 0.04474413
000100 77 c7 28 bf a5 9a 11 3c b7 b4 28 be 33 bc 7b 3d
       -0.6592936 0.008886968 -0.16475187 0.061458778
000110 4f c5 2f 3d 6b 53 6b 3d 34 c7 8e 3e 45 25 0a be
       0.042912778 0.0574526 0.27886355 -0.1349078
000120 22 48 da be b1 ff c4 bb e7 53 3b 3e 94 4d 0f be
       -0.42633158 -0.006011926 0.18293725 -0.13994437
000130 1a 20 53 3c 55 eb 15 be 15 f8 96 bd b8 fd 39 3e
       0.012886072 -0.14640553 -0.07371537 0.18163192
000140 5d 10 91 3d 23 59 6c be 0f 26 3c 3e d5 00 08 bd
       0.07083199 -0.23080878 0.18373893 -0.03320392
000150 e3 fd f5 bd 56 6c a6 bc d3 a4 75 3d b4 49 0c bd
       -0.12011316 -0.02031533 0.05997164 -0.034249976
000160 c4 f8 86 3d 54 9f 78 be c6 92 59 bd 6c 1b 85 3d
       0.06590417 -0.24279529 -0.05311849 0.06499371
000170 29 50 45 3d 57 dc 3d ba a0 bc 38 bd c9 26 42 bd
       0.04817215 -0.0007242611 -0.04510176 -0.04740027
000180 56 00 1f be 91 47 c5 bd ff 10 b9 3d e1 fd 5c be
       -0.15527472 -0.09632791 0.09036445 -0.21581222
000190 fe 0b be 3c 96 86 12 be c6 4e 1a 3d 0a 31 d2 bd
       0.023199078 -0.14309153 0.03767278 -0.1026326
0001a0 2e ab 9e bd ee 3e 96 be a4 43 7a ba dc 14 0a bd
       -0.07747494 -0.29344887 -0.00095468224 -0.0337113
0001b0 f5 b0 99 bc 68 e2 cf bb 91 73 46 be c6 aa 68 bd
       -0.018761138 -0.0063441284 -0.19380023 -0.056803487
0001c0 c6 39 2a be 8e 8b 90 be df d5 20 bc 21 df 45 3d
       -0.16623601 -0.28231472 -0.009816616 0.048308495
0001d0 3c 31 72 bd b8 ab b6 be cd c7 07 be 4e 9c 21 3e
       -0.059128985 -0.35677886 -0.13259812 0.15782282
0001e0 9f 89 b4 bd 75 eb 09 bd 97 96 00 be ed d6 1e 3d
       -0.08815312 -0.033671815 -0.12557445 0.038779188
0001f0 cc 14 f7 bd 26 3c a7 be 25 20 1b be 1e 26 1d be
       -0.120645136 -0.32663077 -0.15148981 -0.15346572
000200 bd 07 14 3e e5 40 88 bc de c8 1e 3e 58 89 36 be
       0.14456077 -0.016632507 0.15506312 -0.1782583
000210 9e f2 16 be c0 a5 34 3d 74 8e 73 bd 01 8b df 3c
       -0.14740989 0.044103384 -0.059462026 0.027287962
000220 74 e1 fa bd 91 79 5e 3d 4d 94 01 3d 4b 03 e3 3c
       -0.12250033 0.054315154 0.03163557 0.027711531
000230 28 22 bc 3c e0 32 15 bc 83 5f 79 3d c1 9c 42 3d
       0.022965506 -0.009106368 0.060882103 0.047512773
000240 b6 38 93 3d 68 59 b8 bd 37 83 aa 3d f7 ed 2c bc
       0.07188551 -0.09001428 0.083258085 -0.010554782
000250 1f 7e 38 3d f2 6a 62 3d fe bd 18 bd 22 c0 df bc
       0.045042153 0.055277772 -0.037290566 -0.027313296
000260 07 18 20 3d 64 4e 0c 3c 6d 33 81 bd 1a b6 d3 bb
       0.039085414 0.008563612 -0.06308637 -0.006460917
000270 33 84 e3 bd 68 15 3b bd 5f aa ba be 80 07 c5 ba
       -0.111091994 -0.04567471 -0.36458108 -0.0015032142
000280 8c b5 09 be 1f 63 30 3d 28 ea bc bd b5 a5 85 3d
       -0.13448161 0.04306328 -0.09224349 0.06525747
000290 9c ef 71 bd d0 99 b0 be ed 33 03 bf b9 6b c9 3c
       -0.0590664 -0.3449235 -0.5125111 0.024587499
0002a0 ae 37 12 3d f7 03 a1 bb 86 93 9a 3c e5 f4 1c 3e
       0.03569763 -0.0049138027 0.018869173 0.15327795
0002b0 7b b6 61 be 9f 4d 25 3c 81 95 d7 3c 12 d0 da 3d
       -0.22042267 0.010089307 0.026316406 0.106842175
0002c0 90 0b b6 3c b2 ce e1 3d 80 e4 b5 3d d4 fd 7b 3c
       0.02222231 0.11025752 0.088814735 0.015380342
0002d0 ee 26 1a bd 7c 4b f7 bd 3f 62 20 be ce cb 97 be
       -0.037634782 -0.120749444 -0.15662478 -0.29647678
0002e0 2e 36 25 3d 3f 62 80 bd b7 9a a4 bd 38 7a b8 bd
       0.040334873 -0.06268739 -0.08037322 -0.090076864
0002f0 8f 77 a4 3d 89 59 5e be 20 db 4e 3d 8f 56 36 bc
       0.080306165 -0.21713842 0.050501943 -0.011129036
000300 d2 a5 78 bd 57 9c 37 be 8c 3d 04 3e c3 48 e9 3d
       -0.060705014 -0.17930733 0.12914103 0.11390831
000310 ae 15 a0 3c 99 09 44 be a2 f2 e1 3d 69 82 46 be
       0.019541588 -0.19144286 0.11032607 -0.19385685
000320 65 07 83 bb 71 3f ca 3d a2 3b da bb 85 31 89 3d
       -0.003998684 0.09875382 -0.006659941 0.06698898
000330 fc 6e 88 bd e7 a0 2a bd 3d eb 85 bd b1 8a cb bd
       -0.066617936 -0.041657355 -0.06539009 -0.09938563
000340 f6 0d 17 3e f9 38 46 be f8 f2 02 bd 80 ad c4 bb
       0.1475142 -0.19357671 -0.031969994 -0.006002128
000350 c1 4e cf 3b 06 ef 91 3d ce d9 9d bd 59 29 46 3d
       0.006326527 0.07125668 -0.077075586 0.048379276
000360 a7 47 23 3c e3 31 7e bc 98 fe 49 3c c0 c6 d4 bc
       0.009965814 -0.015514824 0.012328766 -0.025973678
000370 01 0c 57 be 07 e2 28 be ed e9 86 bd ea 44 e3 bc
       -0.21000673 -0.16492473 -0.065875866 -0.027742822
000380 d4 38 87 bd 25 5d 15 be 16 02 26 bb 3b 01 e1 3c
       -0.06602636 -0.14586313 -0.0025330833 0.027466407
000390 aa 60 d5 bb aa 0d e7 3d 08 de 31 3c 93 16 62 3d
       -0.0065117674 0.11281903 0.010856159 0.05519731
0003a0 b0 6b 33 be 44 b5 0b bf b5 4b 14 be d8 7c cf bd
       -0.17521548 -0.54573464 -0.14482005 -0.10131234
0003b0 0d 50 9c bd af 99 3c 3d 08 22 c8 bd cc 06 f1 bb
       -0.07632456 0.046045 -0.09772116 -0.0073555466
0003c0 b0 b9 3f 3d 28 58 33 bc 15 aa 0a 3d ae 79 a0 bd
       0.046807945 -0.010946311 0.03385361 -0.078357086
0003d0 8c d9 83 bd 0c 4c 73 bc 00 da 3d 3d bd fd 1d bd
       -0.06437978 -0.014849674 0.04635048 -0.03857206
0003e0 e2 c3 6e bd ee 79 a1 3c a9 6a 4b be 82 cf de 3d
       -0.058292277 0.01971146 -0.19864906 0.10879423
0003f0 f0 72 b7 bd 6b 24 77 be 95 c3 0c 3e 33 10 ee 3b
       -0.089574695 -0.24134986 0.13746484 0.0072651147

Linear3.bias f4 [256]
000000 d0 7b b5 be c6 4c 12 bd 80 8c b3 bd e4 a7 a1 3d
       -0.35446024 -0.035717748 -0.087670326 0.07893351
000010 d0 d5 bf be 4c 56 83 be 19 66 83 3e e9 83 4c be
       -0.37467813 -0.25651777 0.25663832 -0.19972195
000020 31 af c7 be 2c 42 43 3e 8e c4 13 bf 2e 8b 9b be
       -0.39000848 0.19068211 -0.57721794 -0.30379623
000030 43 41 5a 3d 6a c4 54 be 0f 83 a0 be f5 21 03 be
       0.053284895 -0.20778051 -0.3134999 -0.12805922
000040 80 a7 3b be 27 f2 2a be 20 8e 84 3e 3f 70 a6 bd
       -0.18325615 -0.16693936 0.25889683 -0.08126878
000050 af 8e a9 be 40 08 48 be 33 45 ad bd 86 4c 11 bf
       -0.3311667 -0.19534397 -0.08460464 -0.5675739
000060 0f fc 29 bf 35 e4 05 bf e1 00 88 3e a0 e6 b1 be
       -0.66400236 -0.5230134 0.2656317 -0.34746265
000070 ce be 15 be f1 ad c2 bd 82 70 d9 be 84 9e 14 3c
       -0.14623567 -0.09505833 -0.4246865 0.009070996
000080 70 dc b4 be 19 be c1 be b2 22 54 be cb 1b 61 bd
       -0.3532443 -0.37840346 -0.2071636 -0.054958146
000090 4f 25 a0 be a5 d1 8c be ba 3e 5d be 04 1f f1 be
       -0.31278464 -0.27503696 -0.2160596 -0.47093976
0000a0 d4 74 fd be 27 a2 af be 69 bc 4d be 64 b0 b9 bc
       -0.49503195 -0.343034 -0.20091404 -0.022667117
0000b0 50 6d 46 3d c7 d3 ba be 60 95 31 be 80 ba bc be
       0.048444092 -0.36489698 -0.17342138 -0.36861038
0000c0 b4 15 84 be f8 e9 b5 be 7a d3 d8 bd ed f5 84 be
       -0.25797808 -0.35530066 -0.10587211 -0.25968876
0000d0 db c0 65 bd 57 79 a8 be 03 ab e2 be 44 47 7c be
       -0.056092124 -0.32905075 -0.44271097 -0.2463656
0000e0 2a 9f 0c bf c0 34 32 be c9 ed d7 bd 86 09 18 be
       -0.54930365 -0.17402935 -0.10543401 -0.14847383
0000f0 55 00 06 be 22 98 d5 be 8d 63 06 bf 58 43 b1 be
       -0.13086064 -0.4171763 -0.5249565 -0.34621692
000100 8e 15 93 be 94 d6 74 be 68 2f bf be b1 c3 4e be
       -0.28727382 -0.2390998 -0.37340856 -0.20191838
000110 22 73 d7 be 86 6e 9c bb 1b b8 84 3e b8 97 b1 be
       -0.42080027 -0.0047739176 0.2592171 -0.34686065
000120 c6 f1 1c bf b1 c8 c9 be 61 68 c5 be 7e 80 1c be
       -0.61306417 -0.39410928 -0.38556197 -0.15283391
000130 f2 23 d9 be 64 7c fc bd f4 4a 78 be 6c 2a 0f 3d
       -0.42410237 -0.12328413 -0.24247342 0.034952566
000140 1a b7 57 be 56 17 97 be 89 01 c3 be 64 b8 8f be
       -0.21065941 -0.2950999 -0.3808711 -0.28070366
000150 82 3d 55 be 5e f8 14 be 1b f2 e2 be ea 22 58 bf
       -0.20824245 -0.1454787 -0.44325337 -0.84428275
000160 28 6d bc be a7 81 aa be 37 76 a8 be f2 bd d0 bd
       -0.3680203 -0.33302042 -0.3290269 -0.10192479
000170 5a e4 5d be ec 46 56 bf cb 34 61 be 39 8c ce be
       -0.2166914 -0.8370197 -0.21992795 -0.40341356
000180 01 b8 cb be 4e 3d 9c be 10 ee 3c be 8e 42 18 be
       -0.3978882 -0.30515522 -0.18450189 -0.14869139
000190 3e 91 14 bf 44 aa f8 be 5e 68 93 be 59 da 4e be
       -0.5803412 -0.48567402 -0.28790563 -0.2020048
0001a0 94 cb fa bd f6 57 13 be fa a8 5d be 4e 16 96 be
       -0.12245861 -0.14389023 -0.2164649 -0.29313892
0001b0 d3 ea 61 be 93 cc 65 be 6d 5b 0b bf 5a 1b d9 be
       -0.22062235 -0.2244132 -0.5443638 -0.4240368
0001c0 fa fc 68 bd f2 4d d2 be d4 61 fc bc a4 d2 f7 be
       -0.056881882 -0.41075093 -0.030808367 -0.48402894
0001d0 4e 81 19 bf 58 f4 b9 bd 44 72 79 bd ac aa 80 3c
       -0.5996293 -0.09079808 -0.060899988 0.015706383
0001e0 ae 88 11 bf d6 88 1b be f5 8e 8e be 70 45 30 be
       -0.5684918 -0.15188918 -0.27843443 -0.17213988
0001f0 53 5b 62 be b9 58 c8 be cc 99 fe bd 27 cd 2c be
       -0.2210515 -0.3913019 -0.12431678 -0.16875134
000200 c6 9f 99 be 31 31 dc be 07 18 a0 be 44 6b 76 be
       -0.3000471 -0.4300628 -0.3126833 -0.24064356
000210 de f4 9f be ec eb f5 bd b0 1b b8 be cd 6b 0e be
       -0.31241506 -0.12007889 -0.35958624 -0.1390831
000220 01 8a c2 be 56 f1 14 be ba 1e 5a be af bb 2e be
       -0.37995914 -0.14545187 -0.21300784 -0.17063783
000230 5a 0d 53 be ac bd 04 3d 0b 0a e5 be 96 7a c8 be
       -0.20610562 0.032407448 -0.44734225 -0.39156026
000240 4e 71 97 be 75 08 81 be 9a 58 d4 be d6 a2 1f bf
       -0.29578632 -0.25201765 -0.41473848 -0.6235784
000250 58 7c b4 bd 77 96 ac be 8a ba b2 3d 10 f9 36 be
       -0.08812779 -0.33708546 0.08726986 -0.17868447
000260 9e a6 f5 bc 59 69 cc be 78 7a b9 bd 43 1e 6e be
       -0.029986676 -0.39924124 -0.09056562 -0.23253731
000270 0e 80 94 be c8 f6 30 be 39 18 c0 be 2e 20 98 be
       -0.29003948 -0.1728164 -0.3751848 -0.2971205
000280 08 83 bc be 66 c3 1e be af 23 a6 be 53 31 e9 bd
       -0.3681872 -0.15504226 -0.324491 -0.11386361
000290 c7 b5 a6 be 4f 13 23 be 26 25 2f 3e 7e 29 1e be
       -0.3256056 -0.15925334 0.17104015 -0.15445516
0002a0 23 3d f9 3d 97 4c a4 be c5 57 0c be 97 d1 2b bd
       0.12169864 -0.32089683 -0.13705356 -0.041947927
0002b0 6d 79 06 be 89 8d cd be 2b cb ef bd 03 6c e0 be
       -0.13132258 -0.40147045 -0.11708673 -0.43832406
0002c0 88 2b bc be a1 21 f5 be 2d ff 90 be fe 8a 94 be
       -0.36751962 -0.4787722 -0.28319684 -0.29012293
0002d0 ca 94 d1 be 30 54 39 be 65 23 8f be be c8 11 be
       -0.4093383 -0.18098521 -0.2795669 -0.14236733
0002e0 a6 36 11 bf 10 af 3a bf d9 cd 4e be a3 45 69 be
       -0.5672401 -0.72923374 -0.20195712 -0.2278047
0002f0 7a 90 df be e0 81 4b be 18 51 36 be 68 0f bc be
       -0.43664914 -0.19873762 -0.17804372 -0.36730504
000300 08 64 bd be ec 3e 7d be e3 b3 60 be 40 cb b4 be
       -0.3699038 -0.24731034 -0.21943621 -0.35311317
000310 5d b0 07 be 9b fe e2 be da df 64 be 76 47 9c be
       -0.13250871 -0.44334874 -0.22351018 -0.3052327
000320 60 19 35 be ff 0b 25 be a0 3e 34 be 17 26 a0 be
       -0.17685461 -0.16117857 -0.17602015 -0.3127906
000330 28 58 33 bf 1f 69 2f be 1f 87 2a bf bc 18 74 be
       -0.7005639 -0.17129944 -0.6661243 -0.2383756
000340 d5 65 4f be d1 b9 cc be ba c1 dc bd 21 c5 c1 be
       -0.2025369 -0.39985517 -0.10779138 -0.3784571
000350 b6 58 16 bf 86 d1 18 bf d3 c1 ec bd b5 03 07 be
       -0.5872911 -0.5969471 -0.115604065 -0.13185008
000360 be 42 9f be 65 aa 29 bf bc 9c f7 bd 1a b8 db be
       -0.31105608 -0.66275626 -0.120904416 -0.42913896
000370 be ca 19 be 0e ed 9f bd ca e1 75 be 62 fd 5a be
       -0.15018746 -0.078088865 -0.24011913 -0.2138572
000380 b6 b5 93 be fb ee e2 be 4a b4 52 bf 05 ea 96 bd
       -0.28849572 -0.44322953 -0.8230635 -0.073688544
000390 97 47 a9 be 26 b5 17 be 98 8f b6 be f8 7f 9b 3e
       -0.3306243 -0.14815196 -0.35656428 0.3037107
0003a0 6d 1a 81 be d7 15 2a bf c9 4b c0 be 78 35 b8 bd
       -0.25215474 -0.66439575 -0.3755782 -0.08994573
0003b0 0e 02 90 be 67 dd a2 be 1f 21 a2 be 4b 05 eb be
       -0.28126568 -0.31809542 -0.31665894 -0.45902476
0003c0 d5 c6 80 be 97 52 23 be 30 18 43 3d 99 c7 ce be
       -0.25151697 -0.15949474 0.04763049 -0.40386656
0003d0 4e b1 11 bf c9 97 44 be b1 81 c0 be 69 7b 43 be
       -0.5691117 -0.19198526 -0.37598947 -0.19090046
0003e0 cd 38 0a be 28 10 bf bc 65 4f 90 be 77 70 2a be
       -0.1349823 -0.023323134 -0.28185573 -0.16644464
0003f0 8f 47 ac bd 46 40 92 be 76 54 9e be 53 1d e4 bd
       -0.08412086 -0.28564662 -0.30923814 -0.11138406

Linear4.weight f4 [7, 256]
000000 85 d3 87 3d bd 83 10 3f a8 53 ba ba e1 f3 46 40
       0.06632141 0.56451017 -0.0014215605 3.1086352
000010 f7 7a 22 3e e2 f1 de 3d b1 5d 09 be a7 68 2a bd
       0.1586722 0.10885979 -0.13414647 -0.04160371
000020 e4 83 01 bc 59 74 0e bd 56 93 2c 3e 0b ac 7c bd
       -0.00790498 -0.034778927 0.16853079 -0.06168751
000030 6c 21 7d 40 11 09 de bd 5b c7 ff 3c 73 4b fa bc
       3.955165 -0.10841573 0.03122299 -0.030553555
000040 39 e8 c7 bd 01 55 cf 3c 0b d3 03 3d 86 27 13 bd
       -0.0976109 0.025309088 0.032183688 -0.035926364
000050 f2 83 e2 3d a3 8b ee 3c 77 8f 9c bc 66 5c 2b 3e
       0.11060323 0.029119318 -0.019111378 0.16734466
000060 23 cd fa 3d 3b b5 75 be 9d ae c6 bd 60 5d cb bd
       0.12246158 -0.23994915 -0.097012736 -0.09929919
000070 df ab a7 3e 9a 0f 5c bd 4f 14 27 3e ed 3e 91 bd
       0.32748315 -0.053725816 0.16316341 -0.0709208
000080 9c ae 80 3e dd 90 86 3c bd a2 8f bd 61 53 55 bc
       0.25133216 0.016426498 -0.07013462 -0.013020367
000090 95 4b 87 bb 5b 42 78 3c 29 bb 48 3f da 9c 6b be
       -0.004128883 0.015152539 0.78410584 -0.23009053
0000a0 f1 ea d5 bd be 54 9c bd 53 9b e8 3c 60 61 03 3e
       -0.10445202 -0.07633351 0.028394377 0.12830114
0000b0 31 02 cf 3c 4c 8a f2 3d 51 ef 5a bd 1d 89 99 bd
       0.0252696 0.11842784 -0.053450886 -0.074968554
0000c0 25 98 07 3c a2 7b e0 bd 99 b2 de bc ac e8 81 3d
       0.00827602 -0.10961081 -0.027184771 0.06343207
0000d0 f3 a3 fe 3b 3d 16 9c 3c b9 2b c3 bd 5e 49 14 3d
       0.007771009 0.019053573 -0.09529824 0.03620278
0000e0 0b 7f a4 3d 24 a6 f4 bc e7 f5 a0 bc 1c 7e 86 3c
       0.08032044 -0.029864378 -0.019648505 0.016417556
0000f0 9a c9 6f bd b1 e8 cc bd b8 c6 be bc 32 a5 51 bd
       -0.05854187 -0.1000532 -0.023288116 -0.051182933
000100 e8 95 30 be 01 d8 ce 3c db c4 75 bd c6 5e 28 bd
       -0.17244685 0.025249483 -0.06000219 -0.041106008
000110 dd b4 80 3c 89 da 55 3d 38 61 45 be 82 b6 de 3b
       0.015711242 0.052210364 -0.19275367 0.006796659
000120 80 51 41 be 80 0a 38 3d 75 33 97 3e 1a 37 e4 3f
       -0.18878746 0.04493189 0.29531446 1.7829316
000130 93 5b fc bd 39 b5 5c 3f 04 d1 fd 3d 8e 6c 91 bd
       -0.12322154 0.86214024 0.12393382 -0.07100783
000140 64 78 05 3d 05 77 8c bc 34 d6 ff 3b c0 95 1d ba
       0.032585517 -0.017146597 0.0078075174 -0.0006011389
000150 3c 6f 89 3d d9 02 42 bd 2b 90 e4 3d 62 78 53 bc
       0.067106694 -0.047365997 0.1116031 -0.0129071195
000160 e5 5d 18 be d7 eb b0 3b 04 32 8b 3d 6e 42 24 3e
       -0.14879568 0.005399208 0.06796649 0.16040966
000170 4a 89 6e 3d c4 9b c8 3d 28 08 b8 bd 3c bf 84 3d
       0.058236398 0.09795335 -0.08985931 0.064817876
000180 9a 5e d3 bb 86 79 16 bc e7 44 b1 bc fe a0 21 3e
       -0.0064504864 -0.009184247 -0.0216393 0.1578407
000190 c2 16 69 bc e3 c2 ea 3d 97 29 2e 3d cc ae 07 3c
       -0.014226617 0.11462953 0.042520132 0.008281421
0001a0 be b6 94 bb eb ef ec bd fd 57 90 3d a3 81 f8 3d
       -0.004538386 -0.11569198 0.070480324 0.12134101
0001b0 96 df 98 3d 37 b6 2e 3e c2 5d d9 3c 73 af 61 bd
       0.07464521 0.17061697 0.026533965 -0.055098962
0001c0 63 5c 79 3f e3 44 7f 3e 73 82 f5 3d bb 4b 78 3d
       0.97406596 0.24928622 0.11987772 0.060619097
0001d0 8c 64 0a 3e ad 65 9b 3d 73 3b 6c bc 4a e4 8b 3d
       0.13514918 0.075877525 -0.014418471 0.06830652
0001e0 48 89 3c 3d 2c 8b 02 3c 3b 1b 65 3d cf 31 b9 bd
       0.04602936 0.0079677515 0.055934172 -0.09042703
0001f0 bb 17 70 bd 9a c4 db 3d 1d e9 89 bd 3a 5f e2 3b
       -0.05861638 0.10730858 -0.06733916 0.0069083245
000200 1c 39 85 3d ef 44 2e be e2 f0 da bd 46 14 91 bd
       0.065050334 -0.17018484 -0.10690476 -0.07083945
000210 51 08 5b 3c 0e ab aa bc a0 94 c7 3c c6 8a 90 bc
       0.013368682 -0.020833518 0.024362862 -0.017644297
000220 f9 7c c3 be f8 6f c1 3c f9 0c de bd 4e c7 1e 3d
       -0.38181284 0.023612961 -0.10842318 0.03876429
000230 5d 36 93 3e 75 b5 92 3d 0f fa 3a 3d 92 ab 9e 3d
       0.28752413 0.071635164 0.04564863 0.07747568
000240 3a 60 bc 3d 1a b9 5f bd e9 bd d3 3e 5b 3c 80 bd
       0.09198041 -0.054619886 0.41355827 -0.06261512
000250 41 88 54 bd a2 36 5f bd b0 e6 cf bd 45 47 95 bd
       -0.051887754 -0.05449546 -0.10151422 -0.07288984
000260 1b 0a ab bd 90 0a b2 3e 93 ad ff 3c 9d 5b 12 be
       -0.08351537 0.34773684 0.031210696 -0.1429276
000270 9d 46 89 bb e1 21 d7 3c 4b 95 6c ba 01 d6 5f 3d
       -0.004189326 0.026261272 -0.0009024932 0.05464745
000280 63 f9 7c be ba 41 d0 bc eb ec f9 3d 5e 8e ae bc
       -0.24704508 -0.025421966 0.12203392 -0.02130812
000290 e3 55 f8 bc 9d 90 9e bd ae 50 12 3d 25 17 10 bd
       -0.030314391 -0.077424265 0.035721473 -0.035178322
0002a0 28 7c c6 bd d9 4c d7 3c 90 79 c5 bc d0 c8 3d bb
       -0.0969165 0.026281761 -0.024105817 -0.0028958805
0002b0 b9 20 c9 3e ff ed 29 bd 3d 41 99 3c 00 af c0 bd
       0.39282778 -0.041486736 0.018707866 -0.094083786
0002c0 15 1c 11 3e 60 a4 51 3b 1d 3b 0d be a6 1e 15 bd
       0.14170869 0.0031988844 -0.13792081 -0.03640618
0002d0 ce 0c 22 3e 12 f8 64 bc bb 7b f0 3d 69 04 c2 bc
       0.15825197 -0.01397516 0.1174235 -0.023683744
0002e0 bd 22 1c 3e 9b 95 67 bd f7 19 2e bd bd fd 04 3d
       0.15247627 -0.05653916 -0.04250523 0.032468546
0002f0 62 33 52 3d 9a d1 c0 3d 26 25 96 bc bf 93 37 3e
       0.051318534 0.09414978 -0.01832826 0.17927454
000300 54 cf 89 3c 79 7d 45 be 1d 98 8a 3e cb 2c 73 be
       0.016822495 -0.19286145 0.27069178 -0.23747556
000310 dd 1c 11 bd d2 19 d6 bd 62 1b 6f bc f4 75 f5 3c
       -0.035427917 -0.104541436 -0.014593931 0.029963471
000320 d0 6e 4c bd ab 9b f9 3d ac 33 82 bd b9 6f c0 3d
       -0.049910367 0.121878944 -0.06357512 0.093963094
000330 af e0 ac 3d b8 f6 b6 bc 6f 9c 2e bd d2 e1 6f 3b
       0.084412925 -0.022334442 -0.042629655 0.0036603105
000340 57 ff 10 3e 0d ea 13 be bd 67 1d 3e 97 21 27 3f
       0.14159904 -0.14444752 0.15371604 0.6528563
000350 75 73 84 3d ed 61 8c 3e 1e ec 2e 3d d4 c9 8c 3e
       0.06467334 0.2741846 0.042705648 0.27497733
000360 6f 59 35 3e 31 11 e5 3d b7 12 2a 3d 87 a6 b4 3d
       0.17709897 0.111849196 0.041521754 0.08820825
000370 a3 14 6d 3d b9 e2 4a 3d 2e 0c 4c bd 6d c9 1a be
       0.05788101 0.049532626 -0.049816303 -0.151159
000380 ed ed 16 3e b9 29 d4 be 18 38 cf 3c ec 75 78 bd
       0.14739199 -0.41438082 0.025295302 -0.060659334
000390 33 07 7c bd 2f 24 28 bd c4 38 74 3e f0 57 02 be
       -0.061530303 -0.041050132 0.2384978 -0.12728858
0003a0 18 14 3c bd 51 00 54 3e 0b d6 75 3c ad 2b 14 3f
       -0.0459176 0.20703246 0.015004645 0.57879144
0003b0 2d 07 98 3e f1 9f d5 3d 3e 37 23 3b e8 64 b4 bc
       0.29692975 0.10430897 0.0024904753 -0.022020772
0003c0 5e a0 ab bd 73 d5 fc 3c 97 ba b3 3f a7 87 29 3e
       -0.08380197 0.0308635 1.4041318 0.16555654
0003d0 f2 44 e0 3e 86 3f 28 3d 97 ee 22 3e 35 98 01 bd
       0.438026 0.041076206 0.15911327 -0.031639297
0003e0 0b c6 67 3b e0 47 40 3f 4c 52 73 3d 87 ea b1 3d
       0.0035365846 0.7510967 0.059404656 0.08687311
0003f0 de c2 9f bc e8 7b 45 3e 20 51 33 bd 24 15 88 bd
       -0.0195021 0.19285548 -0.04377854 -0.06644657

Linear4.bias f4 [7]
000000 3d c3 82 bd 8b 1b 42 bd 5f 18 98 bd a7 b8 e0 bd
       -0.06384895 -0.04738955 -0.074265234 -0.1097272
000010 4f a1 bb 3f 89 48 a2 bf 74 cf f7 3e
       1.4658602 -1.2678386 0.48400462
