utils/dataBase/loadNet/64_actor_net.pkl (torch, 550223 bytes, 8 tensors)

Linear1.weight f4 [256, 13]
0	0xbd389e48	-0.045072824
1	0xbd99e803	-0.07514956
2	0xbd9e456e	-0.077280864
3	0xbe8d8652	-0.2764154
4	0x3e2ed26f	0.17072462
5	0x3eb43753	0.3519846
6	0x3edd140a	0.4317935
7	0xbdbfb410	-0.09360516
8	0x3d30f3b5	0.043201167
9	0xbe2b9c94	-0.16758949
10	0xbf958068	-1.1679811
11	0x3f43bcf0	0.7646017
12	0xbfe81197	-1.8130368
13	0xbe04b775	-0.12960608
14	0xbf84502d	-1.0336968
15	0xbebd607f	-0.36987683
16	0x3bf31b51	0.007419028
17	0x3e334d3a	0.17509928
18	0xbebde306	-0.37087268
19	0xbd58528c	-0.052813098
20	0xbd9dbc6e	-0.07701956
21	0x3e92cf07	0.28673574
22	0x3c7e8be3	0.015536281
23	0xbebbbb4e	-0.3666634
24	0xbee99b6f	-0.456264
25	0xbf24b188	-0.6433339
26	0xbe6f115b	-0.23346464
27	0xbf4232a4	-0.7585852
28	0xbf154a95	-0.5831693
29	0xbe306db2	-0.17229345
30	0xbe978687	-0.29594824
31	0xbd7b3a33	-0.0613348
32	0xbde841ae	-0.113406524
33	0xbe3e4b8d	-0.18583508
34	0x3eae8a24	0.34089768
35	0xbd8fa334	-0.070135504
36	0xbf0961ab	-0.53664654
37	0x3f43ac72	0.76435006
38	0xbeb24897	-0.34821007
39	0xbe082588	-0.13295567
40	0xbf1c36d4	-0.6102116
41	0xbf40df0f	-0.7534036
42	0x3dd6598d	0.10466299
43	0xbeba3db3	-0.36375198
44	0xbef8a9d9	-0.48567083
45	0xbe988ea7	-0.29796335
46	0x3d3fea17	0.046854105
47	0x3e5598bd	0.20859046
48	0xbde8d099	-0.11367912
49	0xbeec1216	-0.46107548
50	0x3dbe42f8	0.09290117
51	0xbd846d9e	-0.0646622
52	0xbf1d99a3	-0.61562556
53	0xbf9a2f5b	-1.2045702
54	0x3eb59ac8	0.3546965
55	0xbe8e8ca8	-0.27841687
56	0xbf43c749	-0.7647596
57	0xbe87d8de	-0.26532644
58	0xbd9546c4	-0.07288888
59	0xbef8827b	-0.4853705
60	0x3e98cb87	0.2984278
61	0x3d8e9f68	0.06963998
62	0xbe89db75	-0.26925245
63	0x400fb11d	2.2451851
64	0xbf14bf8b	-0.5810477
65	0xbf3de5e7	-0.7417893
66	0x3ecbf140	0.39832497
67	0xbf269e7d	-0.65085584
68	0x3d51c8e9	0.051216993
69	0x3e392349	0.18079866
70	0xbe661ac2	-0.22471145
71	0x3e855ff5	0.26049772
72	0x3e282c64	0.16423184
73	0x3e3ee832	0.18643263
74	0x3e1d2b28	0.15348494
75	0xbe08e22a	-0.13367525
76	0x3ed56058	0.41675067
77	0xbf4bef18	-0.79661703
78	0x3e456396	0.1927627
79	0xbe7c267d	-0.24624057
80	0xbf010ce0	-0.5041027
81	0x3e21d586	0.15804109
82	0xbcd6f7f0	-0.026241273
83	0xbf378407	-0.7168583
84	0x3d6c2ee9	0.057661925
85	0x3dfcc3ca	0.12342031
86	0x3d0e05ed	0.03467362
87	0xbe340bdb	-0.17582648
88	0xbe4351ae	-0.19074127
89	0xbf236dd5	-0.63839465
90	0xbf1984d7	-0.5996832
91	0xbf06c5cf	-0.5264558
92	0xbf5f1c0a	-0.8715216
93	0xbc28d500	-0.010304689
94	0xbec8aa74	-0.39192545
95	0xbe98b805	-0.29827896
96	0x3cb0ea9e	0.02159625
97	0x3c4f84e3	0.01266596
98	0xbe68f74a	-0.22750583
99	0x3e062cd1	0.13103034
100	0xbd23a4d5	-0.039952118
101	0xbf23e010	-0.6401377
102	0x40136a68	2.3033695
103	0xbf790f84	-0.972893
104	0xbf963233	-1.173407
105	0x3e0d02a3	0.13770537
106	0xbf42300b	-0.7585456
107	0xbebafd72	-0.36521488
108	0xbe6d4744	-0.23171717
109	0xbe4ddeb8	-0.20104492
110	0x3e3b05b1	0.1826389
111	0x3da1dddd	0.07903645
112	0x3e065470	0.13118148
113	0x3e352a73	0.17691974
114	0xbec08529	-0.37601593
115	0x3e6d9e33	0.2320488
116	0xbf380b3e	-0.71892154
117	0xbdfa454d	-0.12220249
118	0xbe1a2631	-0.15053631
119	0xbf22f967	-0.6366181
120	0xbda2a718	-0.07942027
121	0xbe3008f9	-0.17190923
122	0xbe768ccc	-0.24077147
123	0x3d995611	0.07487119
124	0xbdaf3ea1	-0.085568674
125	0x3d8d1a27	0.06889754
126	0x3d88b5d4	0.06675306
127	0xbef7b90d	-0.4838337
128	0xbe5a042a	-0.21290651
129	0xbf4fdb34	-0.8119385
130	0xbf81451b	-1.0099214
131	0xc0192b3a	-2.3932633
132	0xc00c78af	-2.194866
133	0xbe0389d0	-0.1284554
134	0x3dff7a93	0.12474551
135	0xbe3490d2	-0.1763337
136	0xbe437f71	-0.19091584
137	0xbc8d7329	-0.017266827
138	0x3debe4fc	0.11518285
139	0xbcd342a5	-0.025788615
140	0x3fed47cd	1.8537537
141	0x4038818b	2.8829067
142	0x403be05b	2.9355686
143	0x3dd596f6	0.10429184
144	0xbe19ee16	-0.15032229
145	0xbfd4ef67	-1.663556
146	0x3e6d6986	0.23184785
147	0xbf3c6667	-0.73593754
148	0xbea456dc	-0.32097518
149	0xbf2650d1	-0.64967066
150	0xbd160c47	-0.036632802
151	0xbbd4ec57	-0.0064979005
152	0xbddcf83b	-0.10789534
153	0x3d41979c	0.047263727
154	0x3d720a4b	0.059091847
155	0xbc96a034	-0.018386938
156	0xbe586416	-0.2113193
157	0xbf62aaef	-0.88542074
158	0xbed19abf	-0.40938374
159	0xbe95b961	-0.29242995
160	0xbed6bf4d	-0.41942826
161	0xbee1d785	-0.4410974
162	0xbe1c55d2	-0.15267113
163	0xbdd57156	-0.10422008
164	0x3e5ff82e	0.21872017
165	0xbcd1dfe3	-0.025619453
166	0xbe9727c4	-0.29522526
167	0x3fda9e94	1.7079644
168	0xbf8e9940	-1.1140518
169	0xbcb74c9c	-0.022375397
170	0xbe9941e6	-0.2993309
171	0xbf02468d	-0.508889
172	0x3cc36c11	0.023855241
173	0xbd814d13	-0.06313529
174	0xbe7dc586	-0.2478238
175	0x3d9169ab	0.07100233
176	0xbe046d40	-0.129323
177	0x3e9e153f	0.30875584
178	0x3dae1a7d	0.08501146
179	0xbf2053e3	-0.62628
180	0xbf281df3	-0.656707
181	0xbf04423c	-0.51663566
182	0xbe50318c	-0.203314
183	0x3c168789	0.009187588
184	0xbf4b65f6	-0.79452455
185	0x3d8df620	0.0693171
186	0xbf045a3a	-0.51700175
187	0xbf27b3db	-0.6550881
188	0xbd4d5cc8	-0.05013731
189	0x3edc76b8	0.43059325
190	0x3efc73d5	0.49307123
191	0xbb68d8cd	-0.0035529614
192	0xbf006828	-0.5015893
193	0x3ee9b705	0.45647445
194	0xbf7a88bc	-0.9786489
195	0xbf9e5d6f	-1.2372264
196	0xbff4d5e1	-1.9127771
197	0x3f09f217	0.53885025
198	0x3d2a118d	0.041520644
199	0xbea2d4fb	-0.31803116
200	0xbe9a7df5	-0.30174223
201	0x3f18fe4d	0.5976303
202	0xbe9bf241	-0.30458263
203	0x3e20b825	0.15695246
204	0xbc521d8c	-0.012824427
205	0x3fbf8af9	1.4964286
206	0xbde335f0	-0.11094272
207	0x3f4dc718	0.8038192
208	0xbef6bc46	-0.48190516
209	0xbf90b159	-1.1304122
210	0xbd965b99	-0.073416896
211	0xbd70aa09	-0.05875591
212	0xbd43ceb0	-0.047804534
213	0xbd435532	-0.04768867
214	0xbe10e74c	-0.14150733
215	0xbe0468a9	-0.1293055
216	0x3d20673a	0.039160945
217	0xbc4f5cc2	-0.0126563925
218	0x3bf8154d	0.0075708986
219	0x3e792ef8	0.24334323
220	0xbea0220d	-0.3127598
221	0xbefe62cf	-0.4968476
222	0xbf4e144b	-0.80499715
223	0xbf6b5569	-0.919272
224	0xbef2d782	-0.47430044
225	0x3cf3cc6d	0.029760564
226	0xbebbece9	-0.36704186
227	0x3ec0af82	0.37633902
228	0xbd872819	-0.06599445
229	0x3e0e8b94	0.13920432
230	0x3e3aaa56	0.1822904
231	0xbead3ef6	-0.33837098
232	0xbdbb3f8e	-0.091429815
233	0xbec36b0b	-0.38167605
234	0xbd152460	-0.036411643
235	0xbf72e64d	-0.9488266
236	0xbe210395	-0.15724023
237	0xbeb44bd4	-0.35214102
238	0xbea7158d	-0.3263363
239	0xbecbcf7d	-0.39806738
240	0x3eaa3358	0.33242297
241	0x3cda3e1c	0.026640944
242	0x3dfe6fe2	0.12423684
243	0xbcd1d0ab	-0.025612196
244	0xbdf90d06	-0.12160687
245	0x3e1a0ccc	0.15043944
246	0xbc8d1ad9	-0.017224716
247	0xbf18fd2a	-0.597613
248	0xbdc9caa1	-0.098531015
249	0xbf801a17	-1.0007962
250	0xbe93a69c	-0.2883805
251	0xbe954ed9	-0.29161718
252	0xbe827d23	-0.25486097
253	0x3db04989	0.08607776
254	0x3b9ba9b9	0.004750457
255	0x3f036927	0.51332325

Linear1.bias f4 [256]
0	0xbf045954	-0.51698804
1	0xbf3deaa7	-0.74186176
2	0xbee8da08	-0.45478845
3	0xbecea1fb	-0.40357956
4	0xbe78391e	-0.24240538
5	0xbf7c3ea8	-0.98533106
6	0xbf40a553	-0.75252265
7	0xbef6ca73	-0.48201331
8	0xbf0ae0a8	-0.5424905
9	0xbf107fac	-0.5644481
10	0xbe40480f	-0.18777488
11	0xbee9a501	-0.456337
12	0xbe4e8088	-0.20166218
13	0xbefee7ec	-0.49786317
14	0xbf5c7d8b	-0.86129063
15	0xbeb6950a	-0.35660583
16	0xbf475f85	-0.77880126
17	0xbf0ed145	-0.5578807
18	0xbeb9ecdb	-0.3631352
19	0xbeef1157	-0.46692917
20	0xbf173b60	-0.59074974
21	0xbedb2644	-0.42802632
22	0xbf0004ef	-0.5000753
23	0xbee9f558	-0.45694995
24	0xbf067716	-0.5252546
25	0xbec7f8e4	-0.39057076
26	0xbedc8164	-0.43067467
27	0x3e09b027	0.13446103
28	0xbf35313b	-0.70778245
29	0xbf2ad8a9	-0.6673685
30	0xbeec9c63	-0.46213064
31	0xbeca5f03	-0.39525613
32	0xbf355e43	-0.70846957
33	0xbf25218b	-0.6450431
34	0xbf4ff958	-0.81239843
35	0xbf30d0e5	-0.6906875
36	0xbf04a1eb	-0.5180957
37	0xbef97fd3	-0.48730335
38	0xbf2d7292	-0.67752945
39	0xbf587c0a	-0.8456427
40	0x3e1d89a6	0.1538454
41	0xbed3612e	-0.4128508
42	0xbe8f9dc8	-0.28050065
43	0xbee96925	-0.4558803
44	0xbefd9cd4	-0.49533713
45	0xbee05c1c	-0.43820274
46	0xbebb95f6	-0.3663785
47	0xbf22bdf4	-0.63571095
48	0xbdd0f41f	-0.102028124
49	0xbe3e3f57	-0.1857885
50	0xbf24d6a5	-0.6439002
51	0xbda7e713	-0.08198371
52	0xbec583bd	-0.3857707
53	0xbe553bc4	-0.2082358
54	0xbee9cc19	-0.45663527
55	0xbf0a1fa4	-0.5395453
56	0xbf3bb378	-0.7332072
57	0xbea73fdb	-0.32665905
58	0xbeb44332	-0.35207516
59	0xbf0afc8e	-0.5429162
60	0xbe6012af	-0.21882127
61	0xbe924530	-0.2856841
62	0xbed5ef98	-0.41784358
63	0xbf0e97b4	-0.5570023
64	0xbf00752f	-0.5017881
65	0xbed342b3	-0.41261825
66	0xbead52b5	-0.33852163
67	0x3e34e8e2	0.17666963
68	0xbedf46a6	-0.43608588
69	0xbf221a3a	-0.6332127
70	0xbf0cf3b4	-0.5505936
71	0xbed8b954	-0.42328894
72	0xbef5ea36	-0.4803025
73	0xbf152a32	-0.5826751
74	0xbf46ffde	-0.7773417
75	0xbf105a4e	-0.56387794
76	0xbe185913	-0.14877729
77	0xbf062d70	-0.5241308
78	0xbf0c4554	-0.54793286
79	0xbef92b0a	-0.4866565
80	0xbf1ce29a	-0.61283267
81	0xbf156726	-0.5836052
82	0x3e849103	0.25891885
83	0xbe8a91ef	-0.27064463
84	0x3dc488da	0.09596415
85	0x3d98ed53	0.07467141
86	0xbf210417	-0.62896866
87	0xbf1e899b	-0.6192872
88	0xbea5657f	-0.32303998
89	0xbf3087ea	-0.6895739
90	0xbf37c990	-0.71791935
91	0xbf281682	-0.65659344
92	0xbf14a5b2	-0.5806533
93	0xbf3e385e	-0.7430476
94	0xbf0cce23	-0.5500204
95	0xbf1acd1a	-0.6046921
96	0xbf1d837b	-0.6152875
97	0xbf2a7483	-0.6658403
98	0xbf29d73f	-0.66344064
99	0xbeb0b4cd	-0.3451294
100	0xbe8fc0d1	-0.28076795
101	0xbecc6cc9	-0.39926746
102	0xbf1f1cd5	-0.6215337
103	0xbf0adde1	-0.5424481
104	0xbf219386	-0.6311573
105	0x3e867b2d	0.2626585
106	0xbee40ef1	-0.4454265
107	0xbefb2171	-0.4904895
108	0xbeef518c	-0.46741903
109	0xbf06be99	-0.5263458
110	0xbf0e7863	-0.55652446
111	0xbef21503	-0.47281656
112	0xbeb1567f	-0.34636304
113	0x3cf6f08c	0.030143999
114	0xbf4c298c	-0.79750896
115	0xbf29e91e	-0.66371334
116	0xbebc6f67	-0.36803743
117	0xbec06aa3	-0.37581357
118	0xbea16afb	-0.31526932
119	0xbf2053ef	-0.6262807
120	0xbf204a6f	-0.62613577
121	0xbdcb8a1b	-0.09938451
122	0xbf09058c	-0.5352409
123	0xbf24260c	-0.64120555
124	0xbedec49b	-0.43509373
125	0xbf1b5b52	-0.6068622
126	0xbbc6caef	-0.006066672
127	0xbe84344c	-0.2582115
128	0xbf2f3a8d	-0.68448716
129	0xbf25f7ab	-0.64831036
130	0xbf5a2db3	-0.8522598
131	0xbf056861	-0.52112395
132	0xbf7289a9	-0.947413
133	0xbf25eff7	-0.6481928
134	0xbf0d8d09	-0.5529333
135	0xbf3f58f3	-0.747451
136	0xbf082889	-0.5318685
137	0xbeb71665	-0.35759273
138	0xbf366ba5	-0.71258
139	0xbf1e3028	-0.6179223
140	0xbf2a04b4	-0.66413426
141	0xbede8dc2	-0.43467528
142	0xbecc8d0f	-0.3995137
143	0xbf357188	-0.7087636
144	0xbedff2b5	-0.43739858
145	0xbf1d5beb	-0.6146838
146	0xbee98834	-0.45611727
147	0xbf3d669c	-0.73984694
148	0xbf112941	-0.56703573
149	0xbf291067	-0.66040653
150	0x3e04a7cb	0.12954633
151	0xbdfd96da	-0.12382288
152	0x3e760a0c	0.2402727
153	0xbef6884c	-0.4815086
154	0xbf0e9f08	-0.5571141
155	0xbf2f8ecb	-0.6857726
156	0xbe94d2fa	-0.29067212
157	0xbeff3cd2	-0.4985109
158	0xbf7e0e07	-0.99240154
159	0xbf34ed61	-0.7067471
160	0xbf06b6b8	-0.52622557
161	0xbe7c6e76	-0.24651513
162	0xbe445853	-0.19174318
163	0xbf0bd754	-0.5462544
164	0xbf0c6985	-0.5484851
165	0xbe76cd55	-0.24101765
166	0xbec3cd97	-0.3824279
167	0xbf15a439	-0.5845371
168	0xbef09e64	-0.46995842
169	0xbedf7257	-0.43641922
170	0xbf0b8791	-0.5450373
171	0xbf11c765	-0.56944877
172	0xbe950bb7	-0.291105
173	0xbf32859a	-0.6973511
174	0xbf069401	-0.52569586
175	0xbf0ac1f1	-0.5420218
176	0xbeff10b0	-0.4981742
177	0xbf0b4813	-0.5440685
178	0xbef9c1c6	-0.4878065
179	0xbedeee6a	-0.4354127
180	0xbf2165f3	-0.6304619
181	0xbee63cad	-0.44968167
182	0xbf315bb3	-0.69280547
183	0xbee27b76	-0.44234818
184	0xbe8ad4f1	-0.27115586
185	0xbf29af1a	-0.6628281
186	0xbee09224	-0.43861496
187	0xbf112bae	-0.56707275
188	0xbf1f8e48	-0.6232648
189	0xbf0f26f5	-0.5591882
190	0xbe97c422	-0.29641825
191	0xbe2ad672	-0.16683367
192	0xbec440e2	-0.38330752
193	0xbed374a7	-0.41299936
194	0xbf095fe8	-0.53661966
195	0xbf1063f9	-0.56402546
196	0xbf0fa634	-0.5611298
197	0xbee1d9a0	-0.44111347
198	0xbf1fc89c	-0.6241548
199	0xbee73bca	-0.45162803
200	0xbec406d0	-0.38286448
201	0xbf4cf093	-0.8005459
202	0xbeffb683	-0.49943933
203	0xbf452c76	-0.77020967
204	0xbf2184e6	-0.6309341
205	0xbf067afd	-0.52531415
206	0xbf03fe92	-0.5156032
207	0xbf62eb75	-0.8864053
208	0xbe1aede9	-0.15129818
209	0xbf10f45e	-0.56622875
210	0xbf2a6e45	-0.6657451
211	0xbf225b65	-0.63420707
212	0xbec7d794	-0.3903166
213	0xbf07e52e	-0.53084075
214	0xbedde9c3	-0.4334241
215	0xbf45c2e9	-0.77250534
216	0xbf2e9001	-0.6818848
217	0xbec7072a	-0.38872653
218	0xbf074fe8	-0.528563
219	0xbea7c403	-0.32766733
220	0xbe70a0f6	-0.23498902
221	0xbed1bd06	-0.40964526
222	0xbf0c7d1e	-0.54878414
223	0xbf397212	-0.7243968
224	0xbf21d485	-0.63214904
225	0xbf103dda	-0.5634438
226	0xbf1d9698	-0.6155791
227	0xbf06a942	-0.52602017
228	0xbf16adb5	-0.58858806
229	0xbf2e1b05	-0.6800998
230	0xbef695c4	-0.48161137
231	0xbf5e8e83	-0.86936206
232	0xbed64038	-0.4184587
233	0xbeeee893	-0.46661815
234	0xbf20f2d9	-0.62870556
235	0x3e416211	0.18885066
236	0xbebe4ac7	-0.37166426
237	0xbe8fd086	-0.28088778
238	0xbee1a625	-0.4407207
239	0xbf0cbd39	-0.5497623
240	0xbeacad5c	-0.33726013
241	0xbf49ff1e	-0.789049
242	0xbeda32f0	-0.42616987
243	0xbeaf7280	-0.34267044
244	0xbf03572a	-0.51304877
245	0xbd925d41	-0.07146693
246	0xbf2a2f60	-0.6647854
247	0xbf30a7d4	-0.69006085
248	0xbea2cdec	-0.3179773
249	0xbf40f277	-0.7536997
250	0xbe80e579	-0.25175074
251	0xbe8e1d01	-0.27756503
252	0xbf447480	-0.76740265
253	0xbf01b254	-0.5066273
254	0xbf074491	-0.52839
255	0xbf2b60a9	-0.66944367

Linear2.weight f4 [256, 256]
0	0xbd5da9bf	-0.05411696
1	0xbd1d55e9	-0.03841201
2	0xbd228a4a	-0.039682664
3	0xbe3df762	-0.185514
4	0xbc289af3	-0.010290849
5	0xbd522eb4	-0.05131407
6	0x3cfcd94c	0.030865334
7	0xbc8de496	-0.017320912
8	0xbb82591f	-0.003977909
9	0xbd0ed16d	-0.034867693
10	0x3cc0d20e	0.023537662
11	0xbd7ff164	-0.062486067
12	0xbe4d9741	-0.2007723
13	0x3c831787	0.01600243
14	0xbe19a8fa	-0.15005866
15	0xbd9dd46f	-0.07706534
16	0xbda42cda	-0.08016367
17	0xbc8fdf57	-0.017562551
18	0xbd951cc2	-0.07280876
19	0xbbbee249	-0.005825315
20	0x3dae86e7	0.08521824
21	0xbc0cf0b7	-0.008602313
22	0xbc0c3128	-0.008556642
23	0xbd8981fc	-0.06714246
24	0xbdcaf5e6	-0.09910183
25	0xbc1150b1	-0.008869336
26	0xbd58e2ad	-0.05295055
27	0xbdde16be	-0.108441815
28	0xbc36d676	-0.01115953
29	0xbd8eb4f3	-0.06968107
30	0x3cbe10d1	0.023201378
31	0xbca1701f	-0.019706784
32	0xbd6d4c0d	-0.057933856
33	0x3dccc02c	0.099975914
34	0xbc673ffb	-0.014114375
35	0x3d28ff53	0.04125912
36	0xbc7b002b	-0.015319864
37	0x3cf3d636	0.02976523
38	0x3c90e620	0.017687857
39	0xbd3b233e	-0.045687906
40	0x3a080ace	0.00051895983
41	0xbe3fe76f	-0.18740629
42	0xbd172910	-0.036904395
43	0xbd9d5eb6	-0.0768408
44	0xbdd9af8a	-0.106291845
45	0xbc2cfb2d	-0.010557932
46	0x3d8f07aa	0.06983884
47	0xbcf2f306	-0.029656898
48	0xbdccbca4	-0.09996918
49	0xbe0bbe03	-0.13646702
50	0xbd3bb0d6	-0.04582294
51	0xbd848d5b	-0.06472274
52	0xbdf69c13	-0.120414875
53	0xbd6f02ea	-0.05835239
54	0x3d3999a0	0.045312524
55	0xbdb84a05	-0.08998493
56	0x3cbe1a4b	0.023205897
57	0xbd464c3a	-0.04841254
58	0xbe0d7b9e	-0.13816687
59	0x3daecbc2	0.085349575
60	0xbd4dd1f2	-0.050249048
61	0xbdbd99a5	-0.09257821
62	0xbba6a408	-0.005085472
63	0xbde4df69	-0.111754246
64	0x3cf1aba4	0.02950079
65	0x3d6a9dfd	0.057279576
66	0xbc833c6e	-0.016020026
67	0xbdfaefa4	-0.12252739
68	0x3d186299	0.037203405
69	0x3d455890	0.048180163
70	0xbd3be245	-0.045870084
71	0xbda2e297	-0.07953375
72	0xbca6ae6b	-0.02034684
73	0x3d42417e	0.04742574
74	0x3bda7001	0.006666184
75	0x3cb33c9c	0.021879487
76	0xbda08793	-0.07838359
77	0xbb97f241	-0.004637033
78	0xbd400e28	-0.0468885
79	0x3d343a09	0.04400066
80	0xbd122c59	-0.035686824
81	0xbbf59905	-0.007495048
82	0xbdb7e5bc	-0.08979365
83	0x3d1c9e17	0.038236704
84	0xbd592607	-0.05301478
85	0xbc22663a	-0.009912068
86	0xbbaa429d	-0.005195929
87	0xbda62a77	-0.08113568
88	0xbd2fcc15	-0.042919237
89	0xbc8ba66f	-0.017047135
90	0xbd7c8fb0	-0.06166047
91	0x3b8bec12	0.004270085
92	0x3ba8f3a7	0.0051559987
93	0xbc4a1c66	-0.012335872
94	0x3cadf8d2	0.02123681
95	0xbde3b0c6	-0.11117701
96	0xbd41d1ba	-0.04731915
97	0xbc01fe03	-0.007934096
98	0xbd11bcc0	-0.035580397
99	0xbd7c96dd	-0.061667312
100	0xbc1ffee7	-0.009765363
101	0xbd5a0c34	-0.053234294
102	0x3b6c6ca7	0.0036075504
103	0xbcc9b44e	-0.024622109
104	0x3b34e213	0.002760057
105	0xbd3f0998	-0.04664001
106	0xbcf4c85d	-0.029880697
107	0xbddf73e2	-0.10910775
108	0xbde2d9cd	-0.110766985
109	0xbe3e364d	-0.18575402
110	0xbe05be42	-0.13060859
111	0xbcd0727a	-0.025445212
112	0xbdd5e9c1	-0.10444976
113	0xbdc301e4	-0.09521845
114	0xbd827c2c	-0.0637134
115	0x3c9c0df4	0.019049622
116	0xbd785ce2	-0.060635455
117	0xbcbe595c	-0.02323597
118	0xbc90addb	-0.017661026
119	0x3da8ef93	0.0824882
120	0x3d4271f3	0.04747195
121	0xbd948d8d	-0.07253561
122	0x3d6d495b	0.057931285
123	0x3d472440	0.048618555
124	0xbdb1ec27	-0.086876206
125	0x3d01898b	0.03162531
126	0xbd11ace7	-0.035565283
127	0x3da8d2f8	0.08243364
128	0x3cc68263	0.024232095
129	0xbda5bd53	-0.08092751
130	0xbc1c1b99	-0.009528064
131	0xbe0c4ecf	-0.13701938
132	0xbd8ad77c	-0.06779382
133	0x3c0668f1	0.008203731
134	0xbe0eceea	-0.13946119
135	0xbd9a9dab	-0.07549604
136	0x3c2bfafd	0.010496852
137	0xbd826342	-0.06366588
138	0x38ebde87	0.00011247122
139	0xbe1611a0	-0.14655161
140	0xbdfe668c	-0.12421903
141	0xbda66b49	-0.08125932
142	0xbe0d3d15	-0.13792832
143	0xbc92edec	-0.017935716
144	0xbbde128a	-0.0067771124
145	0xbd72cd52	-0.05927784
146	0xbc428a9b	-0.011873866
147	0x3df771a2	0.120822206
148	0xbdffb4ff	-0.12485694
149	0xbd7f103e	-0.06227135
150	0xbd56c12c	-0.052430317
151	0xbdc54107	-0.096315436
152	0xbddfa3f2	-0.10919942
153	0xbc621a06	-0.01380015
154	0x3b49eb53	0.003081043
155	0xbcf62ac6	-0.030049693
156	0x3cd1fe81	0.025634052
157	0xbda276ea	-0.07932837
158	0xbd4cea67	-0.05002823
159	0xbc87fe5a	-0.016600776
160	0x3d77fbde	0.060542934
161	0xbd928441	-0.07154132
162	0x3cdb136c	0.02674266
163	0xbdb236b6	-0.087018415
164	0xbced8aa6	-0.028996777
165	0xbddab6c8	-0.10679394
166	0xbdd9a908	-0.10627943
167	0x3cac51d5	0.021035114
168	0xbc8ca878	-0.017170176
169	0x3cd6f68b	0.026240608
170	0xbd038c8d	-0.03211646
171	0xbc811608	-0.015757576
172	0xbdecd5bd	-0.11564205
173	0x3ce99f08	0.028518215
174	0xbda88f82	-0.08230497
175	0xbd88b663	-0.066754125
176	0xbd0d1164	-0.034440413
177	0xbc566196	-0.01308479
178	0xbce0870d	-0.027408147
179	0xbdd74dbe	-0.10512875
180	0x3d6ad0e9	0.05732814
181	0xbc6d98e1	-0.014501781
182	0xbd025b26	-0.031825207
183	0xbd2268fe	-0.03965091
184	0xbd50b93a	-0.050957896
185	0xbd9864ae	-0.07441078
186	0xbd2ed70d	-0.042685557
187	0xbc7ec1ff	-0.015549182
188	0xbdaed71e	-0.08537124
189	0xbd286b32	-0.041117854
190	0x3ce3c136	0.027802091
191	0xbc81ef48	-0.015861169
192	0xbdc60973	-0.09669771
193	0xbc1340bd	-0.008987603
194	0xbc90209d	-0.017593676
195	0xbd6f4ef1	-0.058424894
196	0xbe0128ff	-0.12613295
197	0x3cad6c73	0.021169877
198	0x3c3a045f	0.011353581
199	0xbabcd26c	-0.0014405972
200	0xbdb19761	-0.08671451
201	0xbb273544	-0.0025513927
202	0xbc7e2008	-0.0155105665
203	0xbd3245b4	-0.043523505
204	0xbcde19e7	-0.02711196
205	0x3d31a538	0.043370456
206	0x3cd3e0df	0.025864063
207	0x3da13c95	0.07872883
208	0xbcc178e9	-0.023617225
209	0x3cdabb43	0.026700621
210	0xbdcc94ab	-0.09989294
211	0xbb6c805f	-0.0036087257
212	0xbbffcbca	-0.007806276
213	0xbc9f4ebc	-0.019446723
214	0xbde62dd1	-0.112392075
215	0xbd9b1c3f	-0.07573747
216	0xbd602c66	-0.05472984
217	0xbd84c9fc	-0.06483838
218	0xbdb6578a	-0.089034155
219	0xbd96240d	-0.07331095
220	0xbde35655	-0.11100451
221	0xbcd5112f	-0.02600917
222	0xbd8e1f01	-0.06939507
223	0x3d0656b8	0.032797545
224	0x3b52bc85	0.0032155823
225	0x39b51e67	0.00034545662
226	0xbd3aad6b	-0.04557554
227	0xbd50ef70	-0.051009595
228	0xbd45e872	-0.04831738
229	0xbd98aa5c	-0.074543685
230	0xbbadf059	-0.0053081927
231	0x3db89690	0.090130925
232	0xbca710f2	-0.020393822
233	0xbd06205e	-0.03274571
234	0xbb897ffb	-0.0041961647
235	0xbde0d17c	-0.10977456
236	0xbceaea15	-0.028676072
237	0xbd5f971b	-0.054587465
238	0xbc541fd0	-0.012947038
239	0xbbb63ac4	-0.0055612046
240	0xbdfb6880	-0.12275791
241	0xbd949388	-0.07254702
242	0xbded6de5	-0.11593226
243	0x3c168070	0.009185895
244	0xbdd1217a	-0.10211463
245	0xbdc2b4f5	-0.09507171
246	0xbbf10fde	-0.007356628
247	0x3c760442	0.015015664
248	0xbe04b1da	-0.1295847
249	0x3de79b21	0.11308885
250	0xbe0e0866	-0.13870391
251	0xbd801218	-0.06253451
252	0x3d4fb8b4	0.050713256
253	0xbd36b7e4	-0.044608966
254	0xbdc0cf5f	-0.09414553
255	0xbd940e0c	-0.07229242

Linear2.bias f4 [256]
0	0xbe306b00	-0.17228317
1	0xbdb8a166	-0.09015159
2	0xbd8e5032	-0.0694889
3	0xbca7230a	-0.02040245
4	0xbd71d19e	-0.059037797
5	0xbf02c931	-0.51088244
6	0xbe353fb3	-0.1770008
7	0x3edca5cd	0.43095246
8	0xbeb2d2b5	-0.34926382
9	0xbf082ca8	-0.5319314
10	0x3ed78e36	0.42100686
11	0xbe521438	-0.20515525
12	0xbda0a38e	-0.078436956
13	0xbd84970a	-0.06474121
14	0xbf11b3b8	-0.56914854
15	0xbec0a37f	-0.37624738
16	0xbe1a3eb3	-0.1506298
17	0xbd5e80bc	-0.05432199
18	0xbe2cfc07	-0.16893016
19	0xbddba5bf	-0.10724973
20	0xbdeb99d2	-0.11503948
21	0xbdb69f1a	-0.08917065
22	0xbdc9fa93	-0.09862246
23	0xbe312c52	-0.17302063
24	0xbd6ac688	-0.05731824
25	0xbead4d2d	-0.33847943
26	0xbe475e85	-0.1946965
27	0xbe2aea85	-0.16691025
28	0xbe29affd	-0.1657104
29	0xbdec68a9	-0.115434
30	0xbe341268	-0.17585146
31	0xbd990886	-0.07472329
32	0xbd8a3b4b	-0.067495905
33	0xbe4b3797	-0.19845425
34	0xbe127807	-0.143036
35	0xbcb4ddc9	-0.022078412
36	0xbe134425	-0.14381464
37	0x3d5e9d5b	0.054349285
38	0x3eaf5904	0.342476
39	0xbd8845ef	-0.06653964
40	0xbd92b575	-0.071635164
41	0xbe377e43	-0.17919259
42	0xbe3e3dbf	-0.18578242
43	0xbe0b41a5	-0.1359926
44	0xbde9d08f	-0.114167325
45	0xbd9dcd71	-0.077052005
46	0xbd87cc91	-0.06630815
47	0xbd84229e	-0.06451915
48	0xbdd6159f	-0.10453343
49	0xbea352be	-0.31899065
50	0xbece312f	-0.402719
51	0xbeb6195a	-0.35566217
52	0xbe05b76d	-0.13058253
53	0xbf6bfed2	-0.921857
54	0xbeba5fb6	-0.36401147
55	0xbe4cd9fd	-0.20005031
56	0xbdcc0e9f	-0.09963726
57	0xbe769e87	-0.24083911
58	0xbe3ca845	-0.18423565
59	0x3f0026ff	0.50059503
60	0xbe747537	-0.23872839
61	0xbd89d278	-0.06729597
62	0xbf018af9	-0.5060268
63	0xbe8953ed	-0.26821843
64	0xbf424707	-0.7588963
65	0xbdd2ef22	-0.10299517
66	0xbf1af3e6	-0.6052841
67	0xbe7d47df	-0.24734448
68	0xbe060aab	-0.13090007
69	0xbdc8a6e1	-0.097974546
70	0xbca14fb7	-0.019691331
71	0xbf3565bf	-0.7085838
72	0xbe873b88	-0.26412606
73	0xbe05e953	-0.13077287
74	0xbe4bd8ed	-0.1990697
75	0xbeefc297	-0.46828148
76	0x3ea1d71b	0.31609425
77	0xbd5a539f	-0.053302404
78	0xbe3547f5	-0.1770323
79	0xbdfefec2	-0.12450935
80	0xbe72e13d	-0.23718734
81	0xbdc05c86	-0.093926474
82	0xbeed39ce	-0.46333164
83	0xbe388bac	-0.1802203
84	0xbe1bc774	-0.15212804
85	0xbe1883f3	-0.14894085
86	0xbdc61a52	-0.09672989
87	0xbdd9d1e4	-0.106357366
88	0xbdd904ec	-0.10596642
89	0xbeb94556	-0.36185712
90	0xbdb25f13	-0.0870954
91	0xbe3ebf37	-0.1862763
92	0xbdea594b	-0.114428125
93	0xbde0c924	-0.109758645
94	0xbec8b12f	-0.3919768
95	0xbe0d8abc	-0.13822454
96	0xbefa2ff1	-0.488647
97	0xbd8a76f9	-0.067609735
98	0xbe18eea8	-0.1493479
99	0xbefa2238	-0.48854232
100	0xbe0c68e4	-0.13711888
101	0xbe881913	-0.2658163
102	0xbd5315c7	-0.05153444
103	0xbed7d391	-0.421536
104	0xbd83528f	-0.06412231
105	0xbe6b5fc1	-0.22985746
106	0xbe22cdb5	-0.15898784
107	0xbdbfce7b	-0.09365555
108	0xbe677534	-0.22603303
109	0xbe1c915c	-0.15289825
110	0xbeb2e591	-0.3494077
111	0xbde53011	-0.111908086
112	0x3e66d9c2	0.22544006
113	0xbeeb6e9e	-0.45982832
114	0xbd9f83da	-0.077888206
115	0xbe2a14fa	-0.16609564
116	0xbd55c0b9	-0.052185748
117	0xbee0dfaa	-0.43920642
118	0xbebe44ef	-0.37161967
119	0xbeeb1d20	-0.45920658
120	0xbe05753c	-0.13033003
121	0xbd14d1ab	-0.036332767
122	0xbe0fe889	-0.14053549
123	0xbeee5b18	-0.46553874
124	0xbecf1c3e	-0.40451235
125	0xbecdcafb	-0.40193924
126	0xbee5eeb8	-0.4490869
127	0xbeaf6d2d	-0.34262982
128	0xbe0cb362	-0.13740304
129	0xbd42658d	-0.047460128
130	0xbe3322be	-0.17493722
131	0xbe093151	-0.13397719
132	0xbf04407b	-0.5166089
133	0xbe41acc3	-0.1891356
134	0xbdf9e004	-0.12200931
135	0xbf15212f	-0.5825376
136	0x3f4aec91	0.7926722
137	0xbe4e38e5	-0.20138891
138	0xbddd3a9e	-0.10802196
139	0xbdf0638d	-0.11737738
140	0xbd679d20	-0.05654633
141	0xbda1ca1f	-0.0789988
142	0xbd6b7bc3	-0.057491075
143	0xbe032b20	-0.1280942
144	0xbd27ff37	-0.041014876
145	0x3cab1738	0.020885095
146	0xbe033f74	-0.12817174
147	0xbda4f80c	-0.08055124
148	0xbe4a7b21	-0.19773532
149	0xbd3b017a	-0.045655705
150	0xbea1c873	-0.31598243
151	0xbeac7c54	-0.33688605
152	0xbe1cb018	-0.1530155
153	0xbdfa14d2	-0.122110024
154	0x3e0cd66f	0.13753675
155	0xbdeaa1f3	-0.114566706
156	0xbe830926	-0.25592917
157	0xbe206d5a	-0.15666714
158	0xbe800f6b	-0.25011763
159	0xbe8632e9	-0.26210716
160	0xbef08b7e	-0.46981424
161	0xbdd6dc27	-0.104912095
162	0xbe1ca309	-0.15296568
163	0xbe860790	-0.26177645
164	0xbdedf9bd	-0.116198994
165	0xbdff5e7f	-0.124691956
166	0xbe98bb1d	-0.29830256
167	0xbe3dd523	-0.18538336
168	0xbdaef5bf	-0.08542966
169	0xbe73fff6	-0.2382811
170	0xbdb83d5c	-0.08996078
171	0xbe4b8543	-0.19875054
172	0x3d369d58	0.04458365
173	0xbe60fc7d	-0.21971317
174	0xbe1e372e	-0.15450737
175	0xbd471657	-0.04860529
176	0xbdfe229d	-0.12408946
177	0xbd8d92e0	-0.0691278
178	0xbe3c5560	-0.18391943
179	0xbe81ea97	-0.2537429
180	0xbdb90592	-0.090342656
181	0xbe9c3c34	-0.3051468
182	0x3d7e1d37	0.06203958
183	0x3ebafc13	0.36520442
184	0xbe26301f	-0.16229294
185	0xbec5a008	-0.38598657
186	0xbe2881da	-0.16455784
187	0xbdcd9832	-0.100387946
188	0xbd8bb4db	-0.06821605
189	0xbeff4ec8	-0.49864793
190	0xbef84065	-0.4848663
191	0xbdf320b5	-0.11871473
192	0xbe120fc7	-0.14263831
193	0x3e21e824	0.15811211
194	0xbec2af87	-0.38024542
195	0xbe3c24b1	-0.18373372
196	0xbe8df576	-0.27726334
197	0xbd6cc85c	-0.057808265
198	0xbe50499a	-0.20340577
199	0xbef5b4e5	-0.47989574
200	0xbe043be3	-0.1291347
201	0xbe2f41d7	-0.1711496
202	0xbe604eee	-0.2190511
203	0xbe6b47c2	-0.22976592
204	0xbf4256c1	-0.75913626
205	0xbe4a2bad	-0.19743223
206	0xbea9cce0	-0.3316412
207	0xbe50a903	-0.20376973
208	0xbd1c2207	-0.03811839
209	0x3e339610	0.17537713
210	0xbf19672f	-0.5992307
211	0xbdbe1f6f	-0.09283339
212	0xbde00922	-0.10939242
213	0xbdff043f	-0.12451982
214	0xbd2de420	-0.042453885
215	0xbe3f8d52	-0.18706253
216	0xbe060305	-0.1308709
217	0xbdd8e3f8	-0.105903566
218	0xbe34eb0b	-0.17667787
219	0xbde142dd	-0.10999081
220	0xbe3effc2	-0.18652251
221	0xbe38711d	-0.180119
222	0xbdaeb115	-0.085298695
223	0xbdf49086	-0.11941628
224	0xbd856382	-0.0651312
225	0x3e2de7b2	0.16982916
226	0xbe00fab1	-0.12595631
227	0xbd3cb229	-0.046068344
228	0xbe07b889	-0.13253988
229	0xbc58453c	-0.0132001005
230	0xbdd402f2	-0.10352124
231	0xbdd6485f	-0.104630224
232	0xbed8c495	-0.4233748
233	0xbea6d71d	-0.32585993
234	0xbe1436ce	-0.14474031
235	0xbe84096d	-0.2578844
236	0xbda9c1fe	-0.08288954
237	0xbee41da4	-0.44553864
238	0xbdd753d1	-0.105140336
239	0xbe785073	-0.24249439
240	0xbe3a4f43	-0.18194298
241	0xbd8369ea	-0.06416686
242	0xbde24828	-0.11048919
243	0xbe348dcc	-0.17632216
244	0xbd8af0ae	-0.06784187
245	0xbd8dfa0c	-0.06932458
246	0xbe2b5afc	-0.16733927
247	0xbe7e1dd0	-0.2481606
248	0xbdab38b2	-0.08360423
249	0xbd70b1f2	-0.058763452
250	0xbeceafc1	-0.40368465
251	0xbe09340c	-0.1339876
252	0xbe7effee	-0.24902317
253	0xbeb1923e	-0.34681886
254	0xbe4dc94a	-0.20096317
255	0xbde91504	-0.113809615

Linear3.weight f4 [256, 256]
0	0xbe2475c3	-0.16060548
1	0x3bffc0a0	0.007804945
2	0xbcfbfa55	-0.030759016
3	0x3d9f31f9	0.077732034
4	0xbe985f8c	-0.29760396
5	0xbdf19186	-0.117953345
6	0x3d388785	0.045051116
7	0xbe3367e6	-0.17520103
8	0xbe1ef155	-0.15521748
9	0x3dd890f3	0.10574522
10	0xbe954e85	-0.29161468
11	0xbe34d8c5	-0.17660816
12	0xbdc8dbc4	-0.09807542
13	0x3d3c5546	0.04597976
14	0xbc215a73	-0.009848225
15	0xbd9fac91	-0.07796586
16	0xbeaf35cd	-0.34220734
17	0xbc818a49	-0.01581301
18	0xbe035e56	-0.12828955
19	0xbd4f4b6e	-0.050609045
20	0x3d4615e0	0.048360705
21	0xbd48ba2e	-0.04900568
22	0xbd867125	-0.06564549
23	0xbd837229	-0.06418259
24	0x3b955077	0.0045567113
25	0xbd6ed489	-0.058308158
26	0x3d966e49	0.07345254
27	0xbc73f540	-0.014890015
28	0x3d72e509	0.059300456
29	0x3dbfe9e8	0.09370786
30	0xbd99a2df	-0.07501768
31	0x3d58f6b3	0.052969646
32	0xbda2babc	-0.07945773
33	0xbc91c5ff	-0.017794607
34	0x3d16688d	0.0367208
35	0x3da75cdd	0.08172009
36	0xbd4f9191	-0.050675932
37	0xbde05840	-0.10954332
38	0xbc8b87ad	-0.017032469
39	0xbdc45ad2	-0.09587635
40	0xbcf0d36a	-0.029397685
41	0xbda6d38c	-0.08145818
42	0xbd2322ba	-0.03982804
43	0xbcecd34e	-0.028909352
44	0x3e13e0d3	0.14441232
45	0xbd52d759	-0.051474903
46	0xbcc58458	-0.024110958
47	0xbe0b5cb4	-0.13609582
48	0xbba5e5cb	-0.005062794
49	0xbc71cd03	-0.014758351
50	0xbe17e54e	-0.14833567
51	0xbdfd2cb6	-0.123620436
52	0xbd1124aa	-0.035435356
53	0x3ce51c71	0.027967663
54	0xbbad5cdc	-0.0052906107
55	0x3bcfebc1	0.0063452427
56	0xbcf50cec	-0.029913388
57	0x3a0f04f0	0.0005455753
58	0xbb9fd2d8	-0.0048774295
59	0xbd6bf7c0	-0.05760932
60	0xbe3eaadc	-0.18619865
61	0xbdc34f3e	-0.095365986
62	0xbe63ed32	-0.22258452
63	0x3d37455b	0.044743877
64	0xbf28c77b	-0.65929383
65	0x3c119a03	0.008886817
66	0xbe28b533	-0.16475372
67	0x3d7bbbfc	0.061458573
68	0x3d2fc605	0.042913456
69	0x3d6b5418	0.057453245
70	0x3e8ec67b	0.27885804
71	0xbe0a25f9	-0.13491048
72	0xbeda481d	-0.42633143
73	0xbbc4ffe4	-0.00601195
74	0x3e3b53d3	0.18293695
75	0xbe0f4ce2	-0.13994172
76	0x3c5320b4	0.012886215
77	0xbe15eacb	-0.14640348
78	0xbd96f79a	-0.07371445
79	0x3e39fdb4	0.18163186
80	0x3d91101f	0.07083153
81	0xbe6c593f	-0.2308092
82	0x3e3c2596	0.18373713
83	0xbd080171	-0.0332045
84	0xbdf5fd7f	-0.12011241
85	0xbca66c47	-0.020315303
86	0x3d75a437	0.05997106
87	0xbd0c49ab	-0.034249943
88	0x3d86f858	0.065903366
89	0xbe789f77	-0.24279581
90	0xbd5992c6	-0.05311849
91	0x3d851ad8	0.06499261
92	0x3d455077	0.04817244
93	0xba3ddc24	-0.00072425813
94	0xbd38bd2d	-0.045102287
95	0xbd422756	-0.047400795
96	0xbe1f00d5	-0.15527661
97	0xbdc54826	-0.09632902
98	0x3db91057	0.0903632
99	0xbe5cfd90	-0.21581101
100	0x3cbe0b2c	0.023198687
101	0xbe1286e0	-0.14309263
102	0x3d1a4f7a	0.03767345
103	0xbdd231bd	-0.10263393
104	0xbd9eabbb	-0.07747599
105	0xbe963ef1	-0.29344895
106	0xba7a43e1	-0.0009546858
107	0xbd0a149c	-0.03371106
108	0xbc99b072	-0.018760893
109	0xbbcfe20d	-0.006344086
110	0xbe467443	-0.19380288
111	0xbd68aac6	-0.056803487
112	0xbe2a3967	-0.1662346
113	0xbe908c05	-0.28231826
114	0xbc20d5db	-0.009816612
115	0x3d45dfac	0.048309013
116	0xbd7231ef	-0.05912965
117	0xbeb6ac41	-0.35678294
118	0xbe07c879	-0.13260068
119	0x3e219bd0	0.15782094
120	0xbdb48979	-0.08815283
121	0xbd09eb9b	-0.033671957
122	0xbe009711	-0.12557627
123	0x3d1ed65c	0.038778648
124	0xbdf71580	-0.12064648
125	0xbea73bc8	-0.32662797
126	0xbe1b1faa	-0.15148798
127	0xbe1d2689	-0.15346731
128	0x3e140780	0.14455986
129	0xbc8840e1	-0.0166325
130	0x3e1ec996	0.15506586
131	0xbe36896c	-0.1782586
132	0xbe16f334	-0.14741212
133	0x3d34a5b8	0.044103354
134	0xbd738eac	-0.059462234
135	0x3cdf8a80	0.027287722
136	0xbdfae17e	-0.122500405
137	0x3d5e7971	0.054315034
138	0x3d0194a4	0.031635895
139	0x3ce303f0	0.027711838
140	0x3cbc227a	0.022965658
141	0xbc1532e0	-0.009106368
142	0x3d795ee6	0.060881518
143	0x3d429ccf	0.047512826
144	0x3d933943	0.07188656
145	0xbdb859d2	-0.09001507
146	0x3daa8388	0.08325869
147	0xbc2cee4c	-0.010554861
148	0x3d387db1	0.045041744
149	0x3d626a5e	0.05527722
150	0xbd18be76	-0.037291013
151	0xbcdfc0d2	-0.027313624
152	0x3d201867	0.039085772
153	0x3c0c4d9a	0.0085634235
154	0xbd81337c	-0.06308648
155	0xbbd3b623	-0.0064609214
156	0xbde38459	-0.11109228
157	0xbd3b15fe	-0.04567527
158	0xbebaa9a2	-0.36457545
159	0xbac506cf	-0.0015031936
160	0xbe09b529	-0.13448013
161	0x3d30627e	0.04306268
162	0xbdbcea70	-0.09224403
163	0x3d85a662	0.06525876
164	0xbd71efce	-0.059066586
165	0xbeb09a7f	-0.3449287
166	0xbf03346a	-0.5125185
167	0x3cc96c67	0.024587823
168	0x3d1237e3	0.03569783
169	0xbba104ad	-0.0049138875
170	0x3c9a93fb	0.01886939
171	0x3e1cf488	0.15327656
172	0xbe61b69b	-0.22042315
173	0x3c254de5	0.010089372
174	0x3cd7955b	0.026316335
175	0x3ddad06f	0.10684287
176	0x3cb60b9f	0.022222338
177	0x3de1cea3	0.11025741
178	0x3db5e47f	0.08881473
179	0x3c7bfe64	0.015380476
180	0xbd1a2718	-0.03763494
181	0xbdf74c23	-0.12075069
182	0xbe2062d1	-0.15662695
183	0xbe97cc7f	-0.29648206
184	0x3d253599	0.040334318
185	0xbd8062ac	-0.0626882
186	0xbda49b71	-0.080374606
187	0xbdb87a68	-0.09007722
188	0x3da477ec	0.08030686
189	0xbe5e5929	-0.217137
190	0x3d4eda92	0.050501414
191	0xbc365662	-0.011128994
192	0xbd78a5d2	-0.060705014
193	0xbe379c0b	-0.1793062
194	0x3e043d5d	0.12914033
195	0x3de94938	0.113909185
196	0x3ca014f0	0.019541234
197	0xbe44099b	-0.19144289
198	0x3de1f25e	0.11032556
199	0xbe4682b9	-0.19385804
200	0xbb8307f0	-0.003998749
201	0x3dca4010	0.098755
202	0xbbda3b9b	-0.0066599376
203	0x3d893238	0.066990316
204	0xbd886ed7	-0.06661766
205	0xbd2aa161	-0.04165781
206	0xbd85eb63	-0.06539037
207	0xbdcb8abf	-0.09938573
208	0x3e170e8c	0.14751643
209	0xbe46395c	-0.19357818
210	0xbd02f2f8	-0.031969994
211	0xbbc4ad80	-0.006002128
212	0x3bcf4f5f	0.0063266004
213	0x3d91efaf	0.07125794
214	0xbd9dda3f	-0.07707643
215	0x3d46297a	0.0483794
216	0x3c234800	0.009965897
217	0xbc7e319f	-0.01551476
218	0x3c49fe33	0.012328672
219	0xbcd4c5ed	-0.025973285
220	0xbe570b53	-0.21000414
221	0xbe28e257	-0.16492592
222	0xbd86eaaa	-0.06587727
223	0xbce3441e	-0.027742442
224	0xbd873832	-0.06602515
225	0xbe155d16	-0.1458629
226	0xbb2601f7	-0.002533076
227	0x3ce10184	0.027466543
228	0xbbd56107	-0.0065118107
229	0x3de70cda	0.11281748
230	0x3c31de2c	0.010856193
231	0x3d621700	0.055197716
232	0xbe336bdb	-0.17521612
233	0xbf0bb518	-0.545732
234	0xbe144afe	-0.14481732
235	0xbdcf7c9b	-0.101311885
236	0xbd9c4f83	-0.07632353
237	0x3d3c990c	0.046044394
238	0xbdc82177	-0.09772008
239	0xbbf106ff	-0.0073555703
240	0x3d3fba14	0.046808317
241	0xbc335891	-0.010946409
242	0x3d0aaaac	0.03385417
243	0xbda0791b	-0.07835599
244	0xbd83d964	-0.06437948
245	0xbc734cb4	-0.01484983
246	0x3d3dd9fc	0.046350464
247	0xbd1dfd56	-0.038571678
248	0xbd6ec3b1	-0.058292095
249	0x3ca179a6	0.019711327
250	0xbe4b6aea	-0.19865003
251	0x3ddecf93	0.108794354
252	0xbdb773a4	-0.089576036
253	0xbe77240c	-0.24134845
254	0x3e0cc41c	0.13746685
255	0x3bee10c7	0.0072651836

Linear3.bias f4 [256]
0	0xbeb57c38	-0.35446334
1	0xbd124d0c	-0.03571801
2	0xbdb38d23	-0.08767154
3	0x3da163e4	0.07880381
4	0xbebfd640	-0.37468147
5	0xbe83563d	-0.25651732
6	0x3e648503	0.22316365
7	0xbe4c83f3	-0.1997221
8	0xbec7af67	-0.3900101
9	0x3e1c2022	0.15246633
10	0xbf13c48e	-0.57721794
11	0xbe9b8bd1	-0.3038011
12	0x3d59b8ad	0.053154636
13	0xbe54c522	-0.20778325
14	0xbea08318	-0.31350017
15	0xbe032248	-0.12806046
16	0xbe3ba793	-0.18325643
17	0xbe2af269	-0.16694035
18	0x3e86ab3f	0.26302525
19	0xbda6705d	-0.081269
20	0xbea98f58	-0.33117175
21	0xbe48079f	-0.19534157
22	0xbdedb21b	-0.116062365
23	0xbf114ca5	-0.56757575
24	0xbf29fcc7	-0.6640133
25	0xbf05e44b	-0.5230147
26	0x3e83fe5c	0.25779998
27	0xbed27e2f	-0.41111895
28	0xbe15bf75	-0.14623816
29	0xbdc2aea1	-0.09505964
30	0xbed970d4	-0.42468894
31	0xbd5f40bb	-0.05450509
32	0xbeb4dcf9	-0.3532484
33	0xbec1beb5	-0.3784081
34	0xbe5422fe	-0.20716473
35	0xbd611c39	-0.054958556
36	0xbea02569	-0.31278542
37	0xbe8cd1db	-0.27503857
38	0xbe7dc479	-0.2478198
39	0xbef11f80	-0.47094345
40	0xbefd7552	-0.4950357
41	0xbeafa250	-0.34303522
42	0xbe4dbca3	-0.2009149
43	0xbd64f892	-0.055901118
44	0x3d9d408a	0.076783255
45	0xbebad304	-0.36489117
46	0xbe3195aa	-0.17342249
47	0xbebcba8c	-0.36861074
48	0xbe841514	-0.2579733
49	0xbeb5ea5c	-0.35530365
50	0xbdd8d3f2	-0.105873
51	0xbe84f62b	-0.2596906
52	0xbd65c102	-0.05609227
53	0xbea87a09	-0.32905605
54	0xbee2ab9e	-0.4427156
55	0xbe7c475b	-0.24636595
56	0xbf1587ad	-0.5841015
57	0xbe32353b	-0.17403118
58	0xbdd7ed73	-0.10543337
59	0xbe180a18	-0.148476
60	0xbe060079	-0.13086118
61	0xbed5988e	-0.41717952
62	0xbf0663d0	-0.5249605
63	0xbeb1435e	-0.3462171
64	0xbe93159f	-0.28727433
65	0xbe74d72c	-0.23910207
66	0xbebf2f94	-0.37340987
67	0xbe4ec3f9	-0.20191945
68	0xbed7735e	-0.42080206
69	0xbb9c6e9f	-0.0047739292
70	0x3e96ba14	0.2943884
71	0xbeb75eef	-0.35814616
72	0xbf294fba	-0.6613728
73	0xbec9c8f1	-0.3941112
74	0xbec568c3	-0.3855649
75	0xbe1c810c	-0.15283602
76	0xbed92478	-0.42410636
77	0xbdfc7d11	-0.12328542
78	0xbe784b21	-0.2424741
79	0x3d229465	0.0396923
80	0xbe57b7c8	-0.210662
81	0xbe971774	-0.2951008
82	0xbec3023c	-0.38087642
83	0xbe14742b	-0.1449744
84	0xbe553dd6	-0.2082437
85	0xbe14f91b	-0.14548151
86	0xbee2f258	-0.4432552
87	0xbf58234f	-0.84428877
88	0xbebc6d8b	-0.36802325
89	0xbeaa81e0	-0.33302212
90	0xbea8765e	-0.32902807
91	0xbdd0be61	-0.10192562
92	0xbe670105	-0.22558983
93	0xbf3ecc42	-0.7453042
94	0xbe6134ed	-0.21992846
95	0xbece8ca8	-0.40341687
96	0xbecbb884	-0.39789212
97	0xbe9c3dce	-0.30515903
98	0xbe3cee0d	-0.18450184
99	0xbe18428c	-0.14869136
100	0xbf1491a8	-0.58034754
101	0xbef8aad4	-0.48567832
102	0xbe9368e8	-0.28790975
103	0xbe4edabf	-0.20200633
104	0xbdfacb9a	-0.12245865
105	0xbe135808	-0.1438905
106	0xbe5da944	-0.21646601
107	0xbe961649	-0.29313877
108	0xbe61eb46	-0.22062406
109	0xbe65cd34	-0.2244156
110	0xbf0b5be8	-0.5443711
111	0xbed91b5f	-0.42403695
112	0xbd68fc71	-0.056881372
113	0xbed24e85	-0.4107553
114	0xbcfc6232	-0.030808542
115	0xbef7d2fd	-0.4840316
116	0xbf19818b	-0.5996329
117	0xbdb9f46b	-0.09079822
118	0xbd7972b2	-0.060900398
119	0x3d8aae8c	0.067715734
120	0xbf13c486	-0.57721746
121	0xbe1b893b	-0.15189068
122	0xbe9ed26d	-0.31019917
123	0xbe30460f	-0.17214225
124	0xbe625bba	-0.22105303
125	0xbec858f8	-0.39130378
126	0xbd56d8f5	-0.052453
127	0xbe1e5234	-0.15461046
128	0xbe99a045	-0.30005088
129	0xbebf4dcf	-0.3736405
130	0xbea01830	-0.31268454
131	0xbe766bc9	-0.24064554
132	0xbe9ff57a	-0.3124197
133	0xbdf5eca2	-0.12008025
134	0xbeb81bff	-0.3595886
135	0xbe0e6bf9	-0.13908376
136	0xbec28a44	-0.37996113
137	0xbe14f169	-0.14545216
138	0xbe5a1f44	-0.2130099
139	0xbe2ebc04	-0.1706391
140	0xbe530df1	-0.20610787
141	0x3c8e8ac5	0.017400155
142	0xbee50ab7	-0.44734737
143	0xbee6b051	-0.45056394
144	0xbe8c9104	-0.27454388
145	0xbe81087b	-0.25201783
146	0xbed458d7	-0.4147403
147	0xbf1fa366	-0.623587
148	0xbdb47d0e	-0.08812915
149	0xbeac96d3	-0.3370882
150	0x3e0f3abe	0.13987252
151	0xbe36f9ac	-0.1786868
152	0xbd072287	-0.032991912
153	0xbecc697d	-0.3992423
154	0xbdb97b0a	-0.09056671
155	0xbe6e1ea4	-0.23253876
156	0xbe948086	-0.29004306
157	0xbe30f6ff	-0.17281722
158	0xbec01887	-0.37518713
159	0xbe9820bb	-0.2971247
160	0xbebc839a	-0.36819154
161	0xbe1ec3bc	-0.15504354
162	0xbe9e7e23	-0.3095561
163	0xbde9318d	-0.11386404
164	0xbea6b608	-0.32560754
165	0xbe231370	-0.15925384
166	0x3e0e9d25	0.13927133
167	0xbe1e2995	-0.1544555
168	0x3d6efc04	0.05834581
169	0xbea44cf9	-0.32089975
170	0xbe0c57da	-0.13705388
171	0xbd2bd1d1	-0.041948143
172	0xbe067a05	-0.13132484
173	0xbecd8e32	-0.4014755
174	0xbdefcb84	-0.117087394
175	0xbee06c12	-0.4383245
176	0xbebc2c29	-0.36752442
177	0xbf0e03cb	-0.5547454
178	0xbe90fee5	-0.2831947
179	0xbe948b9c	-0.29012764
180	0xbed1955e	-0.4093427
181	0xbe395455	-0.18098576
182	0xbe8f23ee	-0.279571
183	0xbe11c91b	-0.14236872
184	0xbf1136c7	-0.5672421
185	0xbf3aaf45	-0.7292369
186	0xbe4ece84	-0.20195967
187	0xbe6945eb	-0.22780578
188	0xbedf90ab	-0.4366506
189	0xbe4934bf	-0.19649027
190	0xbe365157	-0.17804466
191	0xbebc0fa9	-0.36730698
192	0xbecda502	-0.40164953
193	0xbe8e915f	-0.27845284
194	0xbe60b404	-0.2194367
195	0xbeb4cbb6	-0.3531167
196	0xbe07b106	-0.13251123
197	0xbee2fe9d	-0.4433488
198	0xbe64df86	-0.22350892
199	0xbe9c47e8	-0.3052361
200	0xbe3519ca	-0.17685619
201	0xbe250c4b	-0.1611797
202	0xbe343f38	-0.17602241
203	0xbea02671	-0.31279328
204	0xbf3358c1	-0.700573
205	0xbe2f6981	-0.1713009
206	0xbf2a874c	-0.66612697
207	0xbe74195f	-0.23837803
208	0xbe6fcce1	-0.23417999
209	0xbeccb9c6	-0.39985484
210	0xbddcc25d	-0.10779259
211	0xbec1c580	-0.37845993
212	0xbf1658bc	-0.5872915
213	0xbf18d198	-0.59694815
214	0xbdecc25c	-0.115605086
215	0xbe070420	-0.13185167
216	0xbe9f4350	-0.31106043
217	0xbf418f25	-0.75609046
218	0xbdf79d39	-0.12090535
219	0xbedbb87d	-0.4291419
220	0xbe19cb3e	-0.15018937
221	0xbd9fed9a	-0.07808991
222	0xbeaf0975	-0.34186903
223	0xbe5afdf9	-0.21385945
224	0xbe93b5e7	-0.28849718
225	0xbee2ef86	-0.44323367
226	0xbf5c6def	-0.86105245
227	0xbd96e97e	-0.07368754
228	0xbea9483f	-0.33062932
229	0xbe17b5c9	-0.1481544
230	0xbeb68fab	-0.35656485
231	0x3e86605a	0.26245385
232	0xbe811b11	-0.25215963
233	0xbf2a1617	-0.66439956
234	0xbec04bf5	-0.3755795
235	0xbdb835be	-0.089946255
236	0xbe900220	-0.2812662
237	0xbea2de1a	-0.31810075
238	0xbea2217d	-0.31666175
239	0xbeeb05b3	-0.45902786
240	0xbe80c6ed	-0.25151768
241	0xbe43d88d	-0.19125576
242	0x3d43176e	0.047629766
243	0xbecec807	-0.40386984
244	0xbf11b1c8	-0.569119
245	0xbe4497cd	-0.19198532
246	0xbec08208	-0.37599206
247	0xbe437b96	-0.19090113
248	0xbe0a38dd	-0.13498254
249	0xbcbf1099	-0.023323344
250	0xbe904f02	-0.28185278
251	0xbe2a707e	-0.16644475
252	0xbdac47bd	-0.084121205
253	0xbe9240b4	-0.2856499
254	0xbe9e54c3	-0.30924043
255	0xbde41db8	-0.11138481

Linear4.weight f4 [7, 256]
0	0x3d87d38d	0.06632147
1	0x3f108364	0.56450486
2	0xbaba53e5	-0.0014215676
3	0x4046f1bb	3.108504
4	0x3e227b98	0.1586746
5	0x3ddef208	0.108860075
6	0xbe039bd6	-0.12852415
7	0xbd2a68b1	-0.041603748
8	0xbc018376	-0.007904878
9	0xba8211c7	-0.0009923511
10	0x3e2c92f9	0.1685294
11	0xbd7cabbf	-0.061687227
12	0x407d1efe	3.9550166
13	0xbdde08e9	-0.10841543
14	0x3cffc6cb	0.031222722
15	0xbcfa4ad4	-0.030553259
16	0xbdc7e841	-0.09761096
17	0x3ccf553e	0.025309201
18	0x3d702d1e	0.058636777
19	0xbd1327dc	-0.035926685
20	0x3de28344	0.11060193
21	0x3cee8c39	0.029119598
22	0xbd979fb3	-0.07403507
23	0x3e2b5bce	0.1673424
24	0x3dfacc6e	0.12246023
25	0xbe75b4ea	-0.23994794
26	0xbdce6e93	-0.10079684
27	0xbdde2c46	-0.10848288
28	0x3ea7ac4d	0.32748643
29	0xbd5c100d	-0.053726245
30	0x3e2714a5	0.16316469
31	0xbda63f48	-0.08117539
32	0x3e80ae65	0.25133052
33	0x3c869156	0.016426723
34	0xbd8fa2c0	-0.07013464
35	0xbc555316	-0.0130202975
36	0xbb874c20	-0.004128948
37	0x3c7841a5	0.01515237
38	0x3f40a458	0.7525077
39	0xbe6b9cbe	-0.23009011
40	0xbdd5ea7f	-0.10445117
41	0xbd9c5526	-0.07633428
42	0x3ce89b73	0.028394436
43	0x3e050b31	0.1299255
44	0x3d556e54	0.05210717
45	0x3df28a79	0.11842818
46	0xbd5aeeee	-0.053450517
47	0xbd9988d8	-0.07496804
48	0x3c0798ba	0.008276159
49	0xbde07ad4	-0.109609276
50	0xbcdeb231	-0.027184578
51	0x3d81e7f9	0.063430734
52	0x3bfea3e3	0.0077710017
53	0x3c9c156e	0.019053187
54	0xbdc32bd5	-0.09529845
55	0x3d144989	0.03620294
56	0x3dad51ac	0.08462843
57	0xbcf4a65a	-0.029864479
58	0xbca0f5f9	-0.019648539
59	0x3c867dcc	0.016417406
60	0xbd6fc98a	-0.058541812
61	0xbdcce8b3	-0.10005321
62	0xbcbec703	-0.023288256
63	0xbd51a5a4	-0.051183358
64	0xbe309699	-0.17244948
65	0x3cced887	0.025249733
66	0xbd75c440	-0.06000161
67	0xbd285e0c	-0.041105315
68	0x3c80b511	0.01571134
69	0x3d55da37	0.05221006
70	0xbe3faf3e	-0.18719193
71	0x3d228a8d	0.039682914
72	0xbe1c6a8e	-0.15275022
73	0x3d380ac4	0.044932142
74	0x3e9732a5	0.29530826
75	0x3fe436f8	1.7829275
76	0xbdfc5ac9	-0.123220034
77	0x3f5cb48b	0.86212987
78	0x3dfdd19f	0.12393498
79	0xbdc42008	-0.09576422
80	0x3d0577a2	0.032584794
81	0xbc8c776d	-0.01714679
82	0x3bffd6a1	0.007807568
83	0xbd9a8b99	-0.075461574
84	0x3d896ec5	0.06710581
85	0xbd420337	-0.047366347
86	0x3de4906a	0.11160357
87	0xbc537867	-0.012907124
88	0xbe185dbf	-0.14879511
89	0x3bb0ebab	0.0053991876
90	0x3d8b3169	0.067965336
91	0x3e24420c	0.1604082
92	0x3d79bd7b	0.06097172
93	0x3d27a596	0.0409294
94	0xbdb8084b	-0.08985957
95	0x3d84bec3	0.064816974
96	0xbbd35ea2	-0.00645049
97	0xbc167995	-0.009184261
98	0xbcb1444e	-0.021639016
99	0x3e21a0e6	0.15784034
100	0xbc691675	-0.014226546
101	0x3deac337	0.114630155
102	0x3d2e2a49	0.042520795
103	0x3c07ae8c	0.008281361
104	0xbb94b6bd	-0.0045383857
105	0xbdecf08c	-0.11569318
106	0x3d90574b	0.070479
107	0x3df88167	0.121340565
108	0x3d98dfc4	0.07464555
109	0x3e2eb6ab	0.1706187
110	0x3cd95de2	0.026534025
111	0xbd61b002	-0.055099495
112	0x3f795c08	0.97406054
113	0x3e7f4478	0.24928463
114	0x3df58209	0.11987693
115	0x3d784b83	0.06061889
116	0x3e0a63e4	0.13514668
117	0x3d9b659d	0.075877406
118	0xbc6c3ba4	-0.014418516
119	0x3d9f9bcc	0.07793388
120	0x3dcdcdae	0.10048996
121	0x3c028a66	0.007967567
122	0x3cc60119	0.024170445
123	0xbdb931a4	-0.09042671
124	0xbd701731	-0.058615867
125	0x3ddbc4e3	0.107309125
126	0xbe321e63	-0.17394404
127	0xb9c64df5	-0.00037823585
128	0x3d8538a0	0.06504941
129	0xbcb11f9f	-0.021621523
130	0xbddaf0f3	-0.10690489
131	0xbd9114c7	-0.07084041
132	0x3c5b081c	0.013368633
133	0xbcaaaa4d	-0.020833159
134	0x3cc793d8	0.02436249
135	0xbc908ad8	-0.01764433
136	0xbec37d5a	-0.38181573
137	0x3cc16fdd	0.02361291
138	0xbdde0c79	-0.10842223
139	0x3d1ec784	0.03876449
140	0x3e9335c2	0.2875195
141	0x3d7eb99d	0.062188733
142	0x3d3af954	0.045647934
143	0x3c6841f7	0.0141758835
144	0x3db5ccf9	0.08876986
145	0xbd5fb948	-0.054620057
146	0x3ed3bd28	0.41355252
147	0xbd803cc0	-0.06261587
148	0xbd54877d	-0.051887024
149	0xbd5f36c7	-0.0544956
150	0xbd430038	-0.04760763
151	0xbd95472b	-0.07288965
152	0xbd994763	-0.07484319
153	0x3eb20ac1	0.3477383
154	0x3cffad6d	0.031210626
155	0xbe125b57	-0.14292656
156	0xbb8946c1	-0.0041893427
157	0x3cd72180	0.026261091
158	0xba6c9582	-0.0009024964
159	0x3d5fd5bc	0.054647192
160	0xbe7cf891	-0.24704196
161	0xbcd04205	-0.025422106
162	0x3de7c1b2	0.11316241
163	0xbcae8dfa	-0.021307934
164	0xbcf85577	-0.03031419
165	0xbd9e9044	-0.0774236
166	0x3d8a36a1	0.06748701
167	0xbd1016e9	-0.0351781
168	0xbdbbca03	-0.0916939
169	0x3cd74c31	0.026281448
170	0xbcc5790d	-0.024105573
171	0xbb3dc90a	-0.002895894
172	0x3ec92163	0.39283285
173	0xbd29ee5f	-0.041487094
174	0x3c9940e3	0.018707698
175	0xbdc0aecc	-0.0940834
176	0x3e111be6	0.14170799
177	0xbd745d70	-0.05965942
178	0xbe0d3b84	-0.13792235
179	0xbd151f0b	-0.036406558
180	0x3e220ca2	0.15825132
181	0xbc64f792	-0.013975041
182	0x3df07b82	0.11742307
183	0xbcc204c6	-0.023683917
184	0x3e1c2227	0.15247403
185	0xbd6795de	-0.05653941
186	0xbd2e1a4f	-0.04250556
187	0x3d04fe0d	0.032468844
188	0x3d52337a	0.051318623
189	0x3dba6cd8	0.091027915
190	0xbc9625b3	-0.018328523
191	0x3e3793aa	0.17927423
192	0x3d46effe	0.048568718
193	0xbe29eb23	-0.16593604
194	0x3e8a9874	0.27069438
195	0xbe732ca0	-0.23747492
196	0xbd111c6b	-0.035427492
197	0xbdd61a2d	-0.104542114
198	0xbc6f1b33	-0.014593887
199	0x3cf5767e	0.029963728
200	0xbd4c6e55	-0.04990991
201	0x3df99b55	0.1218783
202	0xbd82338e	-0.063574895
203	0x3dc06ffc	0.09396359
204	0x3dace164	0.08441427
205	0xbcb6f6c9	-0.022334473
206	0xbd2e9cfb	-0.042630177
207	0x3b6fe164	0.003660285
208	0x3de401d9	0.11133165
209	0xbe13e991	-0.14444567
210	0x3e1d677a	0.15371504
211	0x3f2721cd	0.6528595
212	0x3d847417	0.06467455
213	0x3e8c6249	0.27418736
214	0x3d2eebf3	0.042705487
215	0x3e8cc91c	0.27497184
216	0x3e355900	0.17709732
217	0x3de61c25	0.11235837
218	0x3d2a134f	0.04152232
219	0x3db4a61d	0.08820746
220	0x3d6d14e8	0.057881266
221	0x3d4ae357	0.049533214
222	0xbd8c664e	-0.068554506
223	0xbe1ac92c	-0.15115803
224	0x3e16ed84	0.14739043
225	0xbed428f8	-0.41437507
226	0x3d28ab7a	0.041179158
227	0xbd7875e1	-0.060659293
228	0xbd7c06ee	-0.061530046
229	0xbd282473	-0.041050386
230	0x3e743929	0.2384993
231	0xbdfd94ee	-0.12381922
232	0xbd3c1425	-0.04591765
233	0x3e54000e	0.20703146
234	0x3c75d5af	0.015004559
235	0x3f142b6f	0.57878774
236	0x3e980687	0.2969248
237	0x3dd59f7e	0.10430811
238	0x3b233723	0.002490469
239	0xbcb464dd	-0.022020752
240	0xbdaba04b	-0.08380183
241	0x3d803d2e	0.06261669
242	0x3fb3ba76	1.4041278
243	0x3e29885f	0.16555928
244	0x3ee04494	0.4380232
245	0x3d283f57	0.04107603
246	0x3e22ef19	0.15911521
247	0xbd01986e	-0.03163951
248	0x3b67c673	0.0035366088
249	0x3f404736	0.7510866
250	0x3d735240	0.05940461
251	0x3db1ea5f	0.08687281
252	0xbc9fc342	-0.019502286
253	0x3e457bb2	0.19285467
254	0xbd33517e	-0.04377889
255	0xbd881456	-0.06644504

Linear4.bias f4 [7]
0	0xbd319f4e	-0.043364815
1	0xbc806d04	-0.015676983
2	0xbdab845b	-0.08374854
3	0xbde2cdfa	-0.11074443
4	0x3fd7bcfe	1.6854551
5	0xbfe73661	-1.806347
6	0x3f24da08	0.6439519
