utils/dataBase/loadNet/72_critic_net.pkl (torch, 551247 bytes, 7 tensors)

Linear1.weight f4 [256, 20]
-2.3438923 0.6696451 -1.5108865 -0.34406894 0.11471165 -0.06840446 0.6102942 0.09790719
0.24518861 -0.12612845 -0.5030347 0.9084747 -0.6232158 -0.6250068 0.6761647 -0.5914932
0.30024287 0.16576998 0.30631217 0.005897541 -0.03173058 1.8488877 0.6214939 0.145621
-0.4635905 -0.7180615 0.4545678 -0.6993731 0.07333087 -0.10130576 -0.8493764 1.2630562
-0.36391532 -1.2786529 0.3395792 -0.29952073 0.2733493 0.3244495 0.49592343 -0.9749239
1.8803896 1.567729 0.099361196 -0.08688447 0.18127497 0.1909352 0.050510503 0.10971973
-0.0991049 -0.02471747 -4.1077385 -3.487787 -0.7166891 0.65683657 0.07141261 0.13435645
0.87205815 -0.07557733 0.011776 -0.08539942 0.12755923 -0.8764378 2.2186852 -0.26174223
-0.12191757 0.35953477 0.03549411 0.033413455 0.13915111 -0.085015774 0.44918862 2.7823226
-1.3959782 -4.259298 -0.23519571 0.67689735 -1.5571055 0.0278709 -0.046253018 -0.13930424
0.25154024 0.01663406 -0.8711592 -0.015245765 -0.028474115 -0.55647784 0.13278215 -0.18287277
0.3489233 -0.028575616 -0.33540127 -0.22714517 -0.62515306 -0.026218269 0.0512987 -0.3983199
-0.021319576 -0.7033412 0.3042425 0.10938287 -2.622335 0.37534666 -0.83125776 -0.3895631
0.3667518 -0.123048194 0.34147626 -0.05290323 0.10344154 0.08151317 -0.64055365 0.7322658
-0.8012348 -0.4922723 0.412636 -0.091338836 0.2539592 -0.09491942 0.30120656 -0.07795163
-0.9275089 -0.2982406 -0.770196 -0.1040699 -0.40336034 -0.044935383 0.2828918 -0.38944906
0.2562513 -0.19219442 0.5525863 -0.71513206 -0.8730513 -0.5055104 0.0333201 -0.054878756
-0.4863608 0.6087432 0.82765335 -0.10379787 -1.7165515 2.2345736 -0.21586388 0.36506113
0.051577598 0.12876143 0.36213192 0.56050754 0.39046413 0.16089673 -1.0823337 0.04060263
0.10156867 -1.7562872 -0.09659296 0.5962442 -0.5339246 1.2185272 1.1686183 0.20749919
1.1285486 1.1281087 -1.6487545 -0.89994705 0.62894124 -0.14441183 0.40210226 -0.053547543
0.43341827 0.02930217 -0.60698557 0.42794648 2.9923346 -2.8875465 0.37243104 0.9120368
0.2880742 -0.3606468 -0.0063361116 0.07799011 0.66711974 1.0381628 0.3609352 -0.29463863
-0.0034654886 -1.1739454 -0.11102441 0.08287063 -0.460185 0.05870037 0.62980753 -0.6855867
0.80676913 2.1566167 0.480416 -3.6071436 8.1398684e-05 -0.00083976646 -0.0854306 0.085275084
-0.20137918 -0.7852959 -0.1993012 -0.5992018 -0.11119881 -0.49252158 0.41441792 0.28319982
-0.13708965 -0.8560765 0.2905043 0.8291987 -0.9849864 0.6153382 0.89594746 -1.2547894
0.5128736 0.7041795 0.20453428 0.5168992 0.97117335 -0.87719065 -2.5342145 -0.79874706
0.06584719 -1.0291842 -0.1614147 0.15523627 0.040729973 -0.037245892 0.8167729 1.530818
2.7881284 -1.2487054 0.20684783 -1.7349594 -0.088620834 -0.017785003 0.10767263 0.25875846
-1.1544511 -1.2344688 0.89427835 0.26835144 -0.4601592 0.06263173 0.1816456 0.027224284
-0.2256023 0.04018366 2.5165403 -1.3149339 1.5118161 -0.3761213 0.9738056 0.6821055
00000000: 5502 16c0 dc6d 2b3f bb64 c1bf ce29 b0be
00000010: f1ed ea3d a317 8cbd 3e3c 1c3f 9183 c83d
00000020: b912 7b3e d127 01be e2c6 00bf cc91 683f
00000030: 128b 1fbf 7200 20bf 2119 2d3f 196c 17bf
00000040: 6fb9 993e 9bbf 293e f3d4 9c3e 2940 c13b
00000050: edf7 01bd 5aa8 ec3f 391a 1f3f ac1d 153e
00000060: bc5b edbe e1d2 37bf 1cbd e83e 1e0a 33bf
00000070: 7f2e 963d 6579 cfbd bb70 59bf d3ab a13f
00000080: 1c53 babe e6aa a3bf 53dd ad3e c85a 99be
00000090: 70f4 8b3e 3f1e a63e ade9 fd3e 9d94 79bf
000000a0: 9bb0 f03f 58ab c83f e27d cb3d 7cf0 b1bd
000000b0: 25a0 393e 8484 433e 1ae4 4e3d bdb4 e03d
000000c0: 83f7 cabd 4b7c cabc 9872 83c0 e737 5fc0
000000d0: f078 37bf 7126 283f c640 923d bd94 093e
000000e0: 343f 5f3f 4ac8 9abd 20f0 403c e4e5 aebd
000000f0: e39e 023e 3a5e 60bf f0fe 0d40 1403 86be
00000100: ebaf f9bd f114 b83e 4662 113d 8cdc 083d
00000110: a17d 0e3e c01c aebd 0dfc e53e 9311 3240
00000120: 6aaf b2bf 2b4c 88c0 25d7 70be 2549 2d3f
00000130: 3c4f c7bf 8451 e43c ce73 3dbd c5a5 0ebe
00000140: e2c9 803e 2744 883c 4a04 5fbf 60c9 79bc
00000150: 8c42 e9bc 5575 0ebf 0bf8 073e 0043 3bbe
00000160: 13a6 b23e 6917 eabc b7b9 abbe be98 68be
00000170: 080a 20bf b2c7 d6bc 961e 523d 96f0 cbbe
00000180: 64a6 aebc 2b0e 34bf acc5 9b3e 2004 e03d
00000190: 56d4 27c0 702d c03e 4fcd 54bf d174 c7be
000001a0: e4c6 bb3e b100 fcbd fad5 ae3e 0fb1 58bd
000001b0: 28d9 d33d 60f0 a63d 53fb 23bf c575 3b3f
000001c0: b91d 4dbf 1d0b fcbe 0745 d33e db0f bbbd
000001d0: f106 823e 1d65 c2bd bf37 9a3e 1ba5 9fbd
000001e0: 3971 6dbf feb2 98be 912b 45bf 9a22 d5bd
000001f0: 3f85 cebe 2a0e 38bd 32d7 903e de65 c7be
00000200: 5f33 833e 9dce 44be 4c76 0d3f e512 37bf
00000210: 4a80 5fbf 2169 01bf a87a 083d 8cc8 60bd
00000220: 4804 f9be 98d6 1b3f 17e1 533f fa93 d4bd
00000230: f6b7 dbbf 4103 0f40 6c0b 5dbe 4be9 ba3e
00000240: 0843 533d 09da 033e 5b69 b93e 6c7d 0f3f
00000250: eaea c73e 1dc2 243e e989 8abf f14e 263d
00000260: 3c03 d03d 05ce e0bf 88d2 c5bd 76a3 183f
00000270: 48af 08bf b3f8 9b3f 4995 953f ab7a 543e
00000280: 4874 903f de65 903f 630a d3bf ee62 66bf
00000290: 4b02 213f b2e0 13be 59e0 cd3e ab54 5bbd
000002a0: 00e9 dd3e 1b0b f03c 6863 1bbf cd1b db3e
000002b0: 6982 3f40 90cd 38c0 48af be3e 3e7b 693f
000002c0: 767e 933e b3a6 b8be 289f cfbb 47b9 9f3d
000002d0: 5cc8 2a3f 85e2 843f 80cc b83e e0da 96be
000002e0: 401d 63bb d843 96bf c460 e3bd 14b8 a93d
000002f0: 5e9d ebbe cd6f 703d 113b 213f 9c82 2fbf
00000300: 6c88 4e3f 0206 0a40 16f9 f53e 71db 66c0
00000310: 96b4 aa38 c623 5cba 3df6 aebd b4a4 ae3d
00000320: 5836 4ebe 2709 49bf 9d15 4cbe 4a65 19bf
00000330: 34bc e3bd ca2b fcbe 962e d43e 91ff 903e
00000340: 3b61 0cbe d427 5bbf fbbc 943e 5e46 543f
00000350: 1228 7cbf ce86 1d3f d05c 653f f09c a0bf
00000360: af4b 033f 1c45 343f 6f71 513e 8253 043f
00000370: d19e 783f 918f 60bf 9230 22c0 b07a 4cbf
00000380: e4da 863d 4fbc 83bf e549 25be 42f6 1e3e
00000390: 79d4 263d 268f 18bd 0718 513f d8f1 c33f
000003a0: b270 3240 94d5 9fbf ebcf 533e 2613 debf
000003b0: d77e b5bd dbb1 91bc 7883 dc3d fd7b 843e
000003c0: 0ec5 93bf 1303 9ebf 6def 643f 5c65 893e
000003d0: fd99 ebbe 1145 803d 4e01 3a3e 7605 df3c
000003e0: 4a04 67be 9f97 243d ff0e 2140 c14f a8bf
000003f0: 3183 c13f f992 c0be 534b 793f 779e 2e3f

Linear1.bias f4 [256]
-0.69728935 0.18873502 0.8264734 -0.14300229 -0.7050121 -0.73578596 -0.78614146 -0.26653588
0.17768504 0.7384108 -0.28018954 0.16128229 -0.8034597 -0.6022732 -0.26236302 -0.51024127
-0.586999 0.10973018 0.71819425 -0.39411905 -0.60658884 -0.773651 0.18473151 -0.34007674
0.12284493 -0.2926368 -0.33393502 -0.27070826 -0.67428094 0.0032459162 -0.548661 -0.47719654
0.9335009 -0.3626512 -0.26826054 -0.5761735 0.1371988 -0.37281257 0.053958032 1.1555793
-0.6363812 -0.16067594 -0.14404838 -0.67590415 -0.18804932 0.50834835 -0.73877794 0.0041090446
-0.10760406 0.08578593 -0.53855985 0.05355099 1.2842383 -0.22002418 0.33599412 0.18689588
-0.07639058 -0.613959 -0.47903296 -0.47722784 -0.9505878 -0.044094708 -0.3329291 -0.2913154
0.30293068 -0.56193686 -0.49173993 -0.39871922 -0.5186201 -0.10950735 -0.2798925 0.0534034
-0.07574931 0.6031107 0.2525694 -0.25758424 -0.6649898 0.83709925 -0.30987346 -0.0074703493
-0.56217456 -0.8128864 -0.096127294 0.17510864 -0.18625891 -0.77555215 -0.54653 -0.6511573
-0.67734087 0.87428266 -0.7062008 0.09738704 -0.3901496 -0.6092034 0.16205665 -0.23375495
-0.21470849 -0.60862136 -0.048011374 -0.14925969 -0.17214215 -0.53336084 -0.18630292 -0.17777331
0.01214634 -0.43873313 -0.2895573 -0.46811497 -0.20802931 -0.37127328 -0.4303322 -0.17955127
-0.5445193 -0.7726345 -0.68917197 -0.21995653 -0.688344 0.7640518 0.15810362 -0.2323882
-0.4291137 -0.53368735 0.517138 -0.714335 -0.21896836 -0.11801921 -0.5346587 -0.2406241
-0.51275337 -0.041445106 -0.5323872 -0.52406466 -0.43630633 -0.05646012 -0.72031033 -0.048886795
-0.5849341 -0.8022526 -0.6476464 0.010873137 -1.2042439 -0.23267925 -0.8665997 0.4212545
-0.39119256 -0.55230415 -0.2802359 0.24537456 0.27332646 -0.22046842 -0.72303843 -0.7671602
-0.82776636 -0.2421355 -0.74494517 -1.1909059 -0.45529914 -0.13806012 -0.13083044 -0.45790625
-0.21135703 -0.023210276 -0.9679774 0.31569234 -0.50459075 0.7678632 -0.7566739 0.10952429
-0.5517989 -0.3520678 0.27045882 -1.121035 -0.16296299 -0.8630674 0.20035678 -0.44365698
-0.31307104 0.0081786765 -0.36656496 0.9886286 -0.50071335 0.049667455 -0.5763683 -0.13176064
0.57893944 -0.26321852 -0.04597945 -0.34509495 -0.17524764 -0.1166721 -0.5743495 -0.7300288
-0.048977166 -0.8050251 -0.6916562 0.0421699 0.66871893 0.021751722 -0.5299536 -0.12716798
-0.7046358 0.2007604 -0.7745193 -0.54293835 0.07002197 -0.18359326 0.056384522 -0.5719085
-0.3339038 -0.16777965 -0.76184 0.23222838 0.79742795 -0.47195917 0.46937534 0.3217921
0.17368855 -0.40218446 -0.41596127 0.16408841 0.5641601 -0.78768694 -0.09952705 -0.39289743
-0.32861307 0.07047948 -0.5527504 -0.2726936 0.05957116 -0.4611631 0.1477398 -0.52799475
-0.1425106 -0.7463549 -0.48705867 0.07469396 0.22259043 -0.57965535 -0.42957798 -0.5407596
-0.76161695 0.01945311 -0.16296814 -0.49550804 0.47369716 0.76342094 -0.38224697 -0.7378232
0.22681156 0.15587164 0.4406176 0.11954373 -0.09716697 -0.47306877 -0.31899083 -0.69200426
00000000: 8e81 32bf c143 413e c393 533f 316f 12be
00000010: ac7b 34bf 785c 3cbf 9140 49bf 6477 88be
00000020: 11f3 353e 7d08 3d3f 0175 8fbe 2f27 253e
00000030: 89af 4dbf 942e 1abf 7254 86be 2c9f 02bf
00000040: 9145 16bf 37ba e03d 94db 373f f9c9 c9be
00000050: 6849 1bbf fe0d 46bf 422a 3d3e 8a1e aebe
00000060: 1f96 fb3d 7ed4 95be 88f9 aabe 469a 8abe
00000070: ad9d 2cbf 70b9 543b 0c75 0cbf 1b53 f4be
00000080: eaf9 6e3f 6bad b9be 7259 89be 1b80 13bf
00000090: d87d 0c3e 4ae1 bebe 1903 5d3d 06ea 933f
000000a0: e1e9 22bf 3c88 24be 6b81 13be 0e08 2dbf
000000b0: 0090 40be 1e23 023f 8d20 3dbf 2aa5 863b
000000c0: 845f dcbd 89b0 af3d 0fdf 09bf 4858 5b3d
000000d0: ec61 a43f 054e 61be 6c07 ac3e a261 3f3e
000000e0: aa72 9cbd 6b2c 1dbf cf43 f5be 3557 f4be
000000f0: b959 73bf a79c 34bd af75 aabe 4b27 95be
00000100: bb19 9b3e 18db 0fbf 56c5 fbbe ed24 ccbe
00000110: 49c4 04bf 6445 e0bd 124e 8fbe 86bd 5a3d
00000120: 7422 9bbd 7665 1a3f c750 813e 15e2 83be
00000130: c63c 2abf 234c 563f bca7 9ebe d5c9 f4bb
00000140: acea 0fbf 5319 50bf 63de c4bd ae4f 333e
00000150: a8ba 3ebe 968a 46bf 64e9 0bbf 3fb2 26bf
00000160: 3666 2dbf fdd0 5f3f 93c9 34bf db72 c73d
00000170: b0c1 c7be c1f4 1bbf 2ef2 253e 755d 6fbe
00000180: 8bdc 5bbe 9cce 1bbf 93a7 44bd 88d7 18be
00000190: 0846 30be 568a 08bf 31c6 3ebe 350a 36be
000001a0: 7101 473c a1a1 e0be db40 94be c4ac efbe
000001b0: a305 55be 8817 bebe 8154 dcbe 4adc 37be
000001c0: 9e65 0bbf 60cb 45bf 936d 30bf 493c 61be
000001d0: 5037 30bf e698 433f eae5 213e 2cf7 6dbe
000001e0: cab4 dbbe bc9f 08bf 2863 043f a9de 36bf
000001f0: 3e39 60be 0eb4 f1bd 64df 08bf 2a66 76be
00000200: ce43 03bf 58c2 29bd 874a 08bf 1a29 06bf
00000210: 8b63 dfbe ba42 67bd 4266 38bf 853d 48bd
00000220: 3ebe 15bf 6d60 4dbf 28cc 25bf 3e25 323c
00000230: aa24 9abf 7843 6ebe 7ad9 5dbf abae d73e
00000240: 644a c8be ce63 0dbf 147b 8fbe 7843 7b3e
00000250: 72f1 8b3e 79c2 61be 0c19 39bf 9c64 44bf
00000260: 7fe8 53bf 5ef2 77be bab4 3ebf 9b6f 98bf
00000270: f81c e9be a25f 0dbe 6af8 05be b072 eabe
00000280: fa6d 58be 7a23 bebc 5ecd 77bf 6da2 a13e
00000290: dc2c 01bf af92 443f 61b5 41bf 454e e03d
000002a0: b142 0dbf 3b42 b4be 9479 8a3e 137e 8fbf
000002b0: c5df 26be fcf1 5cbf 542a 4d3e 0227 e3be
000002c0: d94a a0be dbff 053c 67ae bbbe c416 7d3f
000002d0: c02e 00bf 1a70 4b3d df8c 13bf 43ec 06be
000002e0: 6035 143f 94c4 86be f354 3cbd 49b0 b0be
000002f0: 1e74 33be c8f1 eebd 9208 13bf 2be3 3abf
00000300: 489c 48bd 2016 4ebf 6110 31bf 58ba 2c3d
00000310: 2a31 2b3f ab30 b23c 0aab 07bf 5338 02be
00000320: 0363 34bf 2294 4d3e e646 46bf 02fe 0abf
00000330: ae67 8f3d dfff 3bbe 75f3 663d 9868 12bf
00000340: 70f5 aabe 6ece 2bbe f207 43bf 47cd 6d3e
00000350: 3d24 4c3f a2a4 f1be f751 f03e efc1 a43e
00000360: 69db 313e 1feb cdbe e0f8 d4be cb06 283e
00000370: cc6c 103f daa5 49bf d7d4 cbbd da29 c9be
00000380: f93f a8be 8c57 903d 0d81 0dbf 7f9e 8bbe
00000390: e300 743d 921d ecbe 1a49 173e aa2a 07bf
000003a0: 4cee 11be 1d11 3fbf c15f f9be 26f9 983d
000003b0: bfee 633e 4b64 14bf a5f1 dbbe 396f 0abf
000003c0: 54f9 42bf 215c 9f3c 1fe1 26be 3bb3 fdbe
000003d0: 6f88 f23e 8e6f 433f e0b5 c3be fbe1 3cbf
000003e0: 4a41 683e d19c 1f3e a198 e13e 58d3 f43d
000003f0: 7aff c6bd 1236 f2be c452 a3be 3127 31bf

Linear2.weight f4 [256, 256]
-0.06631654 0.022502076 0.03495963 -0.07534856 0.04706669 -0.005631706 0.018492777 -0.007810221
-0.026679426 -0.062399857 -0.022630988 -0.034470197 0.02693858 -0.045000415 -0.0010843861 -0.04675112
-0.026637211 -0.054027006 -0.010810472 -0.025660694 -0.04787467 -0.02606447 0.042831585 0.031686075
-0.0014534337 -0.012733452 -0.05596402 0.049830575 0.0078091696 -0.065526456 -0.09993821 -0.03588448
-0.035302665 0.03141789 -0.02487058 -0.061545167 -0.02947551 -0.030621685 -0.03737652 -0.025021192
-0.013821923 -0.058216643 0.03148699 -0.061720256 -0.02086082 0.015330173 0.014886441 -0.04004834
0.036603797 0.011622846 -0.057388965 -0.0106299175 -0.0548935 0.01403911 -0.061948206 -0.07508621
0.034003682 -0.058111675 0.021322615 -0.062402114 0.00682267 -0.031799816 0.023932353 -0.04008371
-0.004865257 -0.018128036 0.010090862 -0.04181362 -0.022299984 -0.003960319 -0.008619819 -0.086711824
-0.02026852 0.022924326 -0.03517912 0.01533633 -0.03583781 -0.022348752 -0.09234949 0.007526705
-0.013740256 -0.038911313 -0.03836228 -0.0047419667 -0.026971918 -0.080815874 -0.0036701802 0.023147136
-0.039247476 0.026821006 -0.008920796 0.009429524 0.00921537 -0.035984147 -0.0048659667 -0.018685043
-0.0691519 0.033837907 -0.009801675 0.021116478 -0.0580095 -0.008859475 -0.004938166 0.004119766
-0.02194157 0.034117214 -0.025526568 -0.0628615 -0.061376236 -0.05957067 -0.03370776 -0.03169013
-0.009663019 -0.008132581 -0.059206 -0.116454564 -0.062289782 0.011612193 -0.029031703 -0.056220792
0.023564965 -0.00230972 0.00430241 0.01717204 -0.04182683 0.025737718 -0.041832887 -0.0006286353
-0.022582473 0.012406897 0.02687618 0.04730639 -0.020530295 -0.056404114 -0.0052157477 -0.008398526
-0.08592451 0.002538971 -0.0006759763 -0.029857527 -0.044974253 -0.026495306 -0.0676426 -0.10648063
-0.09289447 0.0036597247 -0.08502229 0.0051508173 -0.005827399 -0.046558924 -0.014858164 -0.04533086
-0.054316774 -0.07441947 -0.017741363 -0.012157991 -0.014543221 0.022501774 -0.057511352 -0.004040638
0.0063084066 0.0007909115 0.025935944 0.03287922 -0.06787643 -0.06636857 -0.050668042 0.041323368
-0.0021025266 0.009190261 0.020743387 -0.06018445 0.0035467253 -0.047931142 -0.0018726533 -0.023023864
-0.053966183 0.026771724 0.004794902 0.027083851 -0.05531958 0.02407292 -0.05112771 -0.026835402
0.0051716515 -0.06959314 0.04799046 -0.09396372 0.043866593 -0.04751192 -0.04364133 0.040547907
0.015795676 -0.049182706 -0.031532213 -0.06103792 0.048814088 -0.011644344 -0.089230336 0.011913426
-0.019555483 0.046274807 0.012898712 -0.026937297 0.028520927 -0.006675946 -0.061828587 -0.070937
-0.05012603 -0.048946507 0.015615578 -0.022248276 -0.058681153 -0.07750652 0.039707422 0.0050963797
0.008848352 0.008004075 -0.04166153 0.014853251 -0.0063989386 -0.086273745 -0.0067951977 -0.047593072
0.0010543327 0.00533296 0.012997068 -0.04368498 -0.047203604 -0.02584419 0.024220247 -0.0745177
-0.0023826482 0.018859617 -0.10113384 -0.045384366 -0.06637449 0.043580372 0.014935881 -0.050024543
-0.01940321 -0.10776544 0.009093938 -0.042213615 0.019801315 -0.029819855 -0.00886508 0.014193331
0.05443798 -0.0073646978 -0.0493308 0.0022146658 -0.060013346 0.021355333 0.0022792444 0.045742832
00000000: f7d0 87bd 4656 b83c d431 0f3d 5950 9abd
00000010: 00c9 403d 2d8a b8bb 2a7e 973c e2ec ffbb
00000020: d08e dabc fe96 7fbd 9f64 b9bc 9f30 0dbd
00000030: 4cae dc3c 5b52 38bd f621 8eba 1a7e 3fbd
00000040: 4836 dabc 6c4b 5dbd 681e 31bc 6036 d2bc
00000050: 3b18 44bd 2885 d5bc 2c70 2f3d 42c9 013d
00000060: 2481 beba f89f 50bc 873a 65bd 251b 4c3d
00000070: 10e4 ff3b bc32 86bd 67ac ccbd 9bfb 12bd
00000080: 8799 10bd 0cb0 003d 63bd cbbc c916 7cbd
00000090: a076 f1bc 54da fabc 1f18 19bd 3ef9 ccbc
000000a0: 5975 62bc 9374 6ebd 81f8 003d 61ce 7cbd
000000b0: 4fe4 aabc 682b 7b3c 42e6 733c ba09 24bd
000000c0: dded 153d c06d 3e3c b110 6bbd 1b29 2ebc
000000d0: 02d8 60bd 4c04 663c 67bd 7dbd cdc6 99bd
000000e0: 7247 0b3d 8206 6ebd c4ac ae3c 5c99 7fbd
000000f0: b490 df3b 8640 02bd c80d c43c d12e 24bd
00000100: bc6c 9fbb 3f81 94bc 2554 253c c244 2bbd
00000110: 75ae b6bc 90c5 81bb 243a 0dbc f895 b1bd
00000120: 2b0a a6bc cccb bb3c fb17 10bd 3b45 7b3c
00000130: abca 12bd bb14 b7bc bb21 bdbd 94a2 f63b
00000140: d01e 61bc 7861 1fbd c421 1dbd 8062 9bbb
00000150: 36f4 dcbc cb82 a5bd 6887 70bb 109f bd3c
00000160: f6c1 20bd bab7 db3c 8828 12bc 4a7e 1a3c
00000170: 10fc 163c 1d64 13bd b072 9fbb 6011 99bc
00000180: 839f 8dbd 9e99 0a3d 3497 20bc 77fc ac3c
00000190: 5f9b 6dbd 5527 11bc 57d0 a1bb 1aff 863b
000001a0: cfbe b3bc 7ebe 0b3d 181d d1bc 88bd 80bd
000001b0: a665 7bbd 6000 74bd 2611 0abd 82cd 01bd
000001c0: a451 1ebc 843e 05bc fe81 72bd bb7f eebd
000001d0: 9223 7fbd 1141 3e3c e5d3 edbc c647 66bd
000001e0: 500b c13c ac5e 17bb 3bfb 8c3b 61ac 8c3c
000001f0: 9c52 2bbd e8d7 d23c f658 2bbd 00cb 24ba
00000200: e1fe b8bc 4c46 4b3c 6f2b dc3c 58c4 413d
00000210: 262f a8bc 0008 67bd dde8 aabb f999 09bc
00000220: 31f9 afbd dd64 263b 0034 31ba c697 f4bc
00000230: ec36 38bd af0c d9bc 3488 8abd 8412 dabd
00000240: 753f bebd fed7 6f3b 2b20 aebd 30c8 a83b
00000250: c4f3 bebb 92b4 3ebd a86f 73bc daac 39bd
00000260: 447b 5ebd 3c69 98bd 5656 91bc 4f32 47bc
00000270: b146 6ebc a455 b83c 0691 6bbd 5467 84bb
00000280: c0b6 ce3b 2c55 4f3a 9e77 d43c 5cac 063d
00000290: cc02 8bbd 3fec 87bd 4b89 4fbd b142 293d
000002a0: 8bca 09bb c092 163c 09ee a93c f883 76bd
000002b0: 2d70 683b 7253 44bd d173 f5ba 8b9c bcbc
000002c0: a50b 5dbd 6050 db3c 8e1e 9d3b f4de dd3c
000002d0: c996 62bd 9334 c53c 4a6b 51bd ebd5 dbbc
000002e0: f576 a93b d986 8ebd a591 443d 0d70 c0bd
000002f0: 75ad 333d dc9b 42bd 40c1 32bd 9015 263d
00000300: ef65 813c ce73 49bd ec27 01bd e602 7abd
00000310: 48f1 473d ebc7 3ebc 65be b6bd 8830 433c
00000320: d232 a0bc a78a 3d3d 1f55 533c 9bab dcbc
00000330: b8a4 e93c e5c1 dabb f93f 7dbd 6b47 91bd
00000340: f450 4dbd 227c 48bd 7bd8 7f3c 0442 b6bc
00000350: a65b 70bd bdbb 9ebd 40a4 223d 88ff a63b
00000360: aef8 103c 8623 033c 48a5 2abd 0d5b 733c
00000370: 30ae d1bb 4ab0 b0bd 40aa debb f4f0 42bd
00000380: 8931 8a3a 1cc0 ae3b a8f1 543c 06ef 32bd
00000390: 9158 41bd 32b7 d3bc 8a69 c63c bc9c 98bd
000003a0: 3426 1cbb 7c7f 9a3c 421f cfbd f5e4 39bd
000003b0: 59ef 87bd 5581 323d a0b5 743c 89e6 4cbd
000003c0: 7bf3 9ebc 21b4 dcbd befe 143c 2fe8 2cbd
000003d0: 5e36 a23c c548 f4bc d73e 11bc 258b 683c
000003e0: 5cfa 5e3d 9053 f1bb 180f 4abd ed23 113b
000003f0: 8ed0 75bd 61f1 ae3c 605f 153b d65c 3b3d

Linear2.bias f4 [256]
-0.11468078 -0.86507255 -0.6311867 -0.66251624 -0.115999766 -0.84678686 -0.7983186 -0.55208516
-0.17575057 -0.058559306 -0.50371784 -0.42103425 -1.0149146 -0.45483425 -0.19408745 -0.24697493
0.20252281 -0.9788189 -0.75260484 -0.11812475 0.41455442 -0.75550216 0.7933482 -0.13324167
-0.4159437 -0.073354505 -0.040282868 -0.012209779 -0.2125926 0.022863219 0.9878278 -0.07804351
-0.3544655 -0.88675594 -0.4321926 0.690865 -0.38070557 -0.16111864 -0.7240065 -0.14141619
-0.68462837 -0.24403855 -0.26851785 0.04295924 -0.18867345 0.19421233 -0.23192152 -0.11476635
0.47469422 -0.63807636 -0.1404373 -0.30706912 -0.010171075 0.5602258 -0.26706415 -0.06577811
-0.26024583 -0.2971691 0.6249208 -0.14463364 -0.55402875 -0.6293231 -0.16717601 -0.088790655
-0.18488637 -0.14055333 0.040138558 -0.51539105 -0.29678932 -0.6024982 -0.06725646 -0.5236287
-0.9254845 0.21733223 0.42811507 0.22314107 -0.06676984 0.087870464 -0.16535097 -0.26110765
0.793383 -0.042890117 -0.14279756 -1.2084088 -0.7212751 -0.30546188 -0.17301807 -0.6473085
-0.23206717 0.73243284 -0.46400145 -0.84938157 -0.12657122 -0.47166628 -0.7559837 -0.92329985
-0.11413723 -0.44943357 -0.578505 -0.08956583 -0.3646148 -0.52976173 -0.44087347 -0.14672187
0.0062427856 -0.09223697 -0.47056362 -0.10311922 -0.10904152 -0.40197423 -0.6600383 -0.23247291
-0.1272611 -1.1773819 -0.15634556 -0.4811462 0.0029954826 -0.03594972 -0.22939892 -0.10944763
-0.063599385 0.16296937 -0.987982 -0.20883776 -0.29420835 -0.47112563 -0.6468972 -0.101996414
-0.1764291 -0.7108832 0.3384708 -0.45735976 0.0016856632 -0.10885118 -0.5017491 -0.052394155
-0.39203075 -0.52485585 1.160876 -0.20315075 -0.40873474 -0.05345716 -0.3167471 -0.1295034
-0.08470216 0.26749074 -0.09762381 -0.15790777 -0.12723777 1.4310722 -0.07209298 0.8258372
-0.5415667 0.58112544 -0.39722478 -0.015755195 -0.4799857 -0.17318237 -0.8093802 -0.58212894
-0.16943969 -0.17427112 -0.07325616 0.3127095 -0.038770314 -0.08968186 -0.05896585 0.46906945
-0.27916208 -0.72258687 0.27075702 0.07940399 -1.4146844 -0.0876422 -0.12850802 -0.04661559
0.17241895 -0.19706112 -0.4781572 0.33951616 -0.07569571 0.35203242 -0.55204165 0.41650453
-0.95969105 0.3742884 -0.12625326 -0.14600842 -0.111091524 -1.4311494 -0.66579723 -0.18484102
-0.4238438 -0.16598013 -0.645912 -0.114601746 0.4495821 -0.18370314 -0.5432586 -0.076137125
-0.46300027 -0.09893945 -0.025743641 -0.9897339 1.8876466 -0.097528405 -0.12031821 -0.10812982
-0.6120774 0.45002344 -0.34280932 -0.10536597 -0.25825304 -0.19199151 -0.6839551 -0.20144719
0.061834335 -0.92045 -0.8736497 -0.752004 -0.6307095 -0.10326112 -0.7133749 -0.33430132
-0.038685072 -0.48667225 -0.24020454 -0.079623535 -0.07501569 -0.05323181 0.13443263 0.14614591
-0.06926797 -0.5214822 0.6593253 0.27551585 -0.010566918 -0.107872866 -0.23854709 -0.6928766
-0.15424685 -0.14542235 -0.11342284 -0.33427373 0.21478269 -0.11735112 -0.18110949 -0.2976088
-0.020102104 -0.3996596 -0.10009151 -0.68245476 -0.099693105 -0.4650248 -0.71598655 -0.7713364
00000000: c2dd eabd 6575 5dbf 7495 21bf aa9a 29bf
00000010: 4991 edbd 06c7 58bf 9c5e 4cbf 7455 0dbf
00000020: f5f7 33be e2db 6fbd a7f3 00bf cd91 d7be
00000030: b9e8 81bf 09e0 e8be dcbe 46be ffe6 7cbe
00000040: 2462 4f3e e093 7abf b6aa 40bf 64eb f1bd
00000050: 7a40 d43e 9768 41bf de18 4b3f 8170 08be
00000060: 93f6 d4be e33a 96bd a6ff 24bd 860b 48bc
00000070: e0b1 59be a54b bb3c 48e2 7c3f 47d5 9fbd
00000080: 817c b5be 7002 63bf 5948 ddbe 87dc 303f
00000090: d7eb c2be 49fc 24be 7d58 39bf 68cf 10be
000000a0: ce43 2fbf 3ee5 79be 2c7b 89be 07f6 2f3d
000000b0: 9d33 41be 99df 463e d67c 6dbe 9f0a ebbd
000000c0: 1f0b f33e f958 23bf ccce 0fbe 2a38 9dbe
000000d0: 95a4 26bc f56a 0f3f a2bc 88be acb6 86bd
000000e0: f13e 85be 8c26 98be cffa 1f3f d71a 14be
000000f0: d4d4 0dbf 521b 21bf 3030 2bbe e0d7 b5bd
00000100: da52 3dbe 36ed 0fbe 5468 243d abf0 03bf
00000110: c5f4 97be 523d 1abf c1bd 89bd 880c 06bf
00000120: 8dec 6cbf 578c 5e3e e631 db3e 187f 643e
00000130: a0be 88bd 6ef5 b33d c451 29be e7af 85be
00000140: 261b 4b3f 8cad 2fbd 8639 12be 24ad 9abf
00000150: 7ca5 38bf 8065 9cbe a62b 31be 03b6 25bf
00000160: 04a3 6dbe b880 3b3f 9991 edbe 1271 59bf
00000170: e39b 01be 3e7e f1be 2688 41bf 615d 6cbf
00000180: c8c0 e9bd 281c e6be e718 14bf 4a6e b7bd
00000190: cbae babe 779e 07bf 2bba e1be 423e 16be
000001a0: 4890 cc3b bde6 bcbd b7ed f0be 2b30 d3bd
000001b0: 2951 dfbd 91cf cdbe 45f8 28bf 610d 6ebe
000001c0: bc50 02be 73b4 96bf 0d19 20be cb58 f6be
000001d0: dc4f 443b 0340 13bd 8de7 6abe 1426 e0bd
000001e0: 6540 82bd 71e1 263e 63ec 7cbf 91d9 55be
000001f0: 7aa2 96be 6137 f1be 0e9b 25bf 7fe3 d0bd
00000200: d4a9 34be 71fc 35bf 0b4c ad3e 0f2b eabe
00000210: 79f1 dc3a 5eed debd a172 00bf 419b 56bd
00000220: 41b8 c8be f45c 06bf 9697 943f c006 50be
00000230: ae45 d1be e5f5 5abd ad2c a2be 8a9c 04be
00000240: 5378 adbd 8cf4 883e feee c7bd 93b2 21be
00000250: 9e4a 02be 602d b73f 7ca5 93bd 116a 533f
00000260: 1ea4 0abf a3c4 143f 0c61 cbbe 0a11 81bc
00000270: b0c0 f5be b856 31be 8a33 4fbf 6706 15bf
00000280: 9981 2dbe 2174 32be 5307 96bd 761b a03e
00000290: 9fcd 1ebd 1fab b7bd 2d86 71bd df29 f03e
000002a0: 55ee 8ebe 74fb 38bf aaa0 8a3e 8f9e a23d
000002b0: 6114 b5bf c17d b3bd 9b97 03be fdef 3ebd
000002c0: 988e 303e 64ca 49be 05d1 f4be 10d5 ad3e
000002d0: 5a06 9bbd 983d b43e 9a52 0dbf 1540 d53e
000002e0: 50ae 75bf bba2 bf3e 8948 01be 3b83 15be
000002f0: f483 e3bd e72f b7bf b071 2abf f746 3dbe
00000300: 0e02 d9be b2f6 29be 7d5a 25bf 52b4 eabd
00000310: a02f e63e ad1c 3cbe ff12 0bbf c8ed 9bbd
00000320: 5f0e edbe c4a0 cabd 54e4 d2bc 335f 7dbf
00000330: 679e f13f f9bc c7bd 6569 f6bd 2b73 ddbd
00000340: 1bb1 1cbf 7969 e63e b484 afbe 1dca d7bd
00000350: be39 84be 6c99 44be ae17 2fbf 2c48 4ebe
00000360: 0046 7d3d 9ca2 6bbf 82a7 5fbf 5683 40bf
00000370: 2e76 21bf 917a d3bd bd9f 36bf 8b29 abbe
00000380: 3d74 1ebd 1b2d f9be 2ef8 75be aa11 a3bd
00000390: d3a1 99bd 9909 5abd b5a8 093e 46a7 153e
000003a0: 5edc 8dbd dc7f 05bf 8bc9 283f 6a10 8d3e
000003b0: de20 2dbc 73ec dcbd b045 74be 5c60 31bf
000003c0: e3f2 1dbe 99e9 14be 3c4a e8bd ed25 abbe
000003d0: feef 5b3e c955 f0bd c474 39be 2e60 98be
000003e0: 2bad a4bc 2fa0 ccbe c7fc ccbd 5bb5 2ebf
000003f0: e62b ccbd bb17 eebe e54a 37bf 4d76 45bf

Linear3.weight f4 [256, 256]
0.08201777 0.053568494 -0.21968964 -0.38764238 0.24751887 -0.07409952 0.16770904 0.1471413
0.06367575 0.045367286 0.22665893 -0.51890206 -0.054211035 0.014230829 0.08137975 -0.3307543
0.07353374 -0.09622434 -0.06352411 0.07517713 0.04997809 -0.9653442 -0.28915986 -0.3595165
0.11347912 -0.04909366 -0.06803181 0.4929334 0.05615896 0.4359552 0.020087466 -0.10681538
0.050221495 -0.049832705 0.22592431 -0.028208813 -0.33642513 0.04615288 -0.12830898 0.0054702708
0.31318608 0.18029958 0.22225837 0.25383934 0.15183628 0.042365797 0.23743731 0.019567097
-0.046783973 0.19631483 0.05182855 0.010235954 0.0008334189 0.44902095 0.13588618 -0.028278269
-0.65582216 -0.07188603 -0.09902884 0.14998679 -0.08878783 0.12203498 -0.031200033 0.0053261328
0.13028832 0.023960257 0.01962969 0.018197758 0.009555171 -0.12056018 0.03275557 0.058965404
-0.3062371 -0.8886155 0.05929926 0.8830003 -0.09243555 0.20325077 -0.034422476 0.060930733
-0.63895047 0.029699858 0.079481274 0.10755801 -0.031810325 0.15072873 -0.12346238 -0.046327606
0.04960238 -0.012010826 0.10857466 -0.5325048 0.019186713 -0.1512567 0.059030876 0.29855368
-0.018450346 0.03899418 0.17583713 0.037739433 0.11357361 0.25156063 -0.23101738 0.025501244
0.07339292 -0.040980995 -0.38535705 -0.057628457 0.0251154 -0.025105769 -0.327309 0.22042122
0.049614687 0.0073033664 0.10420631 0.05564232 -0.031136699 0.059813786 0.1615409 0.0065009166
-0.05448165 -0.37571156 -0.050618134 -0.117320955 0.12404156 0.029671498 -0.1391197 -0.34380203
0.12726046 -0.14138423 -0.4091586 0.060512707 -0.02992154 -0.4735119 0.27553308 -0.009804118
-0.55019134 0.247678 0.31069633 -0.04701183 -0.647482 -0.00054532656 -0.11892157 0.042833045
-0.015049036 0.16600192 -0.46127066 -0.10176189 0.07625587 0.31757158 -0.008939197 0.6985489
0.14265983 0.03329592 -0.27098086 0.010413122 0.44064113 0.035729013 -0.15312375 -0.2793752
0.31003433 0.08165499 -0.012812792 0.008767823 -0.050989583 -0.019361973 0.025262002 0.39482757
-0.12564592 -0.35515276 -0.33975184 0.42502037 0.10911064 0.014532963 0.017093623 -0.08659711
-0.62511784 -0.059585556 0.05067804 0.05440862 -0.0026125745 -0.4064233 -0.08955806 0.39795396
-0.15833792 0.14933304 -0.026706526 0.032344364 0.015519862 0.35457987 0.072972186 -0.07186505
0.09459893 -0.035047278 0.110512614 0.0066240155 0.101511076 -0.0027136996 0.1269169 0.06672057
-0.21427488 0.10901778 0.049256023 0.24282986 -0.20146872 -0.09233653 0.019487798 -0.31133193
0.41401434 -0.71843374 -0.14813168 0.04898644 -0.04752159 0.023275055 -0.0062439875 -0.100967534
0.058068216 -0.4550686 -0.06918278 -0.13095468 0.5295775 -0.10211938 0.16962454 0.1601438
-0.0055734916 -0.40001124 0.0933923 0.12118136 0.012669028 0.10880322 0.6066185 0.25996977
0.014272386 0.490722 -0.88150156 0.0075106793 -0.017583892 -0.013012803 -0.10113799 0.35212177
-0.14283219 -0.1418279 -0.034457233 -0.2514717 -0.5297211 -0.0131305065 0.087603845 -0.23891826
-0.42210647 -0.06981715 -0.0044290978 -0.40203008 -0.027990116 0.30429932 -0.76961493 0.13324215
00000000: eff8 a73d a36a 5b3d 52f6 60be 1079 c6be
00000010: 9675 7d3e 7dc1 97bd ebbb 2b3e 35ac 163e
00000020: 6e68 823d 0cd3 393d 4719 683e c4d6 04bf
00000030: 640c 5ebd 6c28 693c 6daa a63d a158 a9be
00000040: dc98 963d 4411 c5bd ee18 82bd 78f6 993d
00000050: d3b5 4c3d cc20 77bf c30c 94be 8c12 b8be
00000060: be67 e83d 6f16 49bd 4354 8bbd c461 fc3e
00000070: f006 663d 8535 df3e 788e a43c 06c2 dabd
00000080: 0eb5 4d3d 611d 4cbd b458 673e 2b16 e7bc
00000090: ea3f acbe cd0a 3d3d 6e63 03be f53f b33b
000000a0: ed59 a03e 74a0 383e b397 633e 3bf7 813e
000000b0: f87a 1b3e c287 2d3d c422 733e 2d4b a03c
000000c0: 8da0 3fbd c106 493e 2c4a 543d b4b4 273c
000000d0: cc79 5a3a 13e6 e53e bf25 0b3e d4a7 e7bc
000000e0: f6e3 27bf fc38 93bd a2cf cabd 2396 193e
000000f0: 65d6 b5bd 7aed f93d 3697 ffbc d786 ae3b
00000100: 4d6a 053e 4d48 c43c 72ce a03c 7713 953c
00000110: 4b8d 1c3c 41e8 f6bd b42a 063d b585 713d
00000120: 1ccb 9cbe 4e7c 63bf c8e3 723d 4f0c 623f
00000130: da4e bdbd f820 503e 95fe 0cbd 8192 793d
00000140: 4292 23bf 1e4d f33c 14c7 a23d 6047 dc3d
00000150: 8b4b 02bd a258 1a3e d8d9 fcbd 04c2 3dbd
00000160: dd2b 4b3d 0ec9 44bc 645c de3d 3c52 08bf
00000170: 742d 9d3c 09e3 1abe 5cca 713d 07dc 983e
00000180: 2e25 97bc 5cb8 1f3d a60e 343e aa94 1a3d
00000190: 4899 e83d 8ecc 803e d28f 6cbe fce7 d03c
000001a0: 074f 963d b0db 27bd 854d c5be d10b 6cbd
000001b0: d0be cd3c 9daa cdbc 0c95 a7be 1ab6 613e
000001c0: c538 4b3d 1451 ef3b 1e6a d53d 34e9 633d
000001d0: 6412 ffbc 4dff 743d fa6a 253e a405 d53b
000001e0: 2728 5fbd 445d c0be f654 4fbd f845 f0bd
000001f0: 8009 fe3d a411 f33c 6575 0ebe d206 b0be
00000200: 9150 023e 07c7 10be 3c7d d1be 2cdc 773d
00000210: 041e f5bc 2770 f2be ac12 8d3e 74a1 20bc
00000220: 57d9 0cbf 4d9f 7d3e 9713 9f3e 7a8f 40bd
00000230: 61c1 25bf 3ff4 0eba 278d f3bd b471 2f3d
00000240: 3b90 76bc 68fc 293e ab2b ecbe 8a68 d0bd
00000250: 0a2c 9c3d be98 a23e b675 12bc 1ad4 323f
00000260: 6b15 123e 4d61 083d 01be 8abe cd9b 2a3c
00000270: b79b e13e 9658 123d 79cc 1cbe 440a 8fbe
00000280: d2bc 9e3e bb3a a73d bfec 51bc eaa6 0f3c
00000290: 74da 50bd 009d 9ebc 42f2 ce3c d726 ca3e
000002a0: 53a9 00be 95d6 b5be f4f3 adbe 459c d93e
000002b0: 6675 df3d aa1b 6e3c ed07 8c3c d359 b1bd
000002c0: b907 20bf fc0f 74bd c793 4f3d 93db 5e3d
000002d0: ba37 2bbb b716 d0be 376a b7bd 9fc0 cb3e
000002e0: 5623 22be c3ea 183e a5c7 dabc 867b 043d
000002f0: 0547 7e3c 7e8b b53e 7172 953d fc2d 93bd
00000300: 15bd c13d bc8d 0fbd 7054 e23d 450e d93b
00000310: 0ae5 cf3d 53d8 31bb 81f6 013e cba4 883d
00000320: e06a 5bbe b744 df3d afc0 493d 64a8 783e
00000330: d14d 4ebe ef1a bdbd e0a4 9f3c e666 9fbe
00000340: b0f9 d33e 46eb 37bf d5af 17be 01a6 483d
00000350: 00a6 42bd 54ab be3c 5d9a ccbb 11c8 cebd
00000360: f0d8 6d3d c0fe e8be b4af 8dbd fc18 06be
00000370: 6492 073f f723 d1bd 0eb2 2d3e bcfc 233e
00000380: d6a1 b6bb 46ce ccbe 7644 bf3d ef2d f83d
00000390: c191 4f3c 39d4 de3d 5a4b 1b3f c21a 853e
000003a0: bad6 693c ea3f fb3e 16aa 61bf 251c f63b
000003b0: 180c 90bc a733 55bc 6f21 cfbd 4e49 b43e
000003c0: 9a42 12be 553b 11be 0723 0dbd e6c0 80be
000003d0: cd9b 07bf 5621 57bc a569 b33d fda6 74be
000003e0: 571e d8be 4bfc 8ebd f721 91bb e3d6 cdbe
000003f0: 874b e5bc 1fcd 9b3e 7c05 45bf a170 083e

Linear3.bias f4 [256]
-0.99447435 -0.2383946 -0.9041892 0.72788244 -0.52268267 -0.25515795 -0.18814471 -0.08583212
-0.36363974 -0.62149787 -0.58251804 -0.35537523 -0.32978395 -0.27086413 -0.27519563 -0.20827831
-0.1220873 -0.53041357 -0.69910496 -0.108533144 -0.33100298 -0.16971771 -0.2651729 -0.9041092
-0.08778761 -0.20034152 0.6475953 -0.2891251 -0.7854871 -0.14081159 -0.14686045 -0.1670035
-1.1650397 -0.17881797 -0.108234234 1.0080677 -0.32946122 0.22931121 -0.32805333 -0.31729043
-0.17612986 -0.21080263 -0.51865494 -1.068319 -0.062678054 -0.60430276 0.33361807 -0.18051934
-0.13669053 -0.10784531 -0.13856204 -0.24341324 -0.3960443 -0.14376442 -0.16483207 -0.27152035
-0.6390669 -0.5338185 -0.25898203 -0.5643844 -0.5458293 -0.20092207 -0.48908406 -0.20632863
-0.42794955 -0.3009027 -0.715425 -0.4431725 -0.21623987 -0.48420003 -0.24331416 -0.79535216
-0.8829849 -0.16430637 -0.064413525 0.16370241 -0.2575189 -0.15626241 -0.73990875 -0.11342249
-0.901937 -1.6448605 -1.3795652 -4.4640465 -0.29399234 -0.25442174 -0.7994115 -0.22640693
-0.04237608 -0.06209605 -0.26750848 -0.10910134 0.9946544 -0.40513808 -0.18759868 -0.12116278
-0.94457847 -0.67312104 0.15561172 -0.21089247 -0.68914527 0.11947899 -0.57252306 -0.75657666
-0.3115124 -0.72145975 -0.37936142 -0.40376574 -0.22066282 -0.5289064 -0.53810626 -0.33737242
-0.06908541 -1.3249328 -0.553511 -0.01576405 -0.1895551 -0.09528151 -0.68410283 -0.33645365
-0.054942213 -0.5211183 -0.17041115 -0.3669857 -0.7183852 -0.32097155 -0.14483954 -0.0992258
-0.27343747 -0.17461842 -0.43150514 -0.04415795 -0.17645144 -0.78736806 -0.5646973 -0.76404953
-0.94646 -0.13807549 -0.86762154 -0.43785268 -1.2520323 0.33081713 0.51693326 0.22319439
0.07302904 -0.6297234 -0.8884389 -0.462688 -0.24569257 -0.12888832 -0.37717894 1.0400407
-0.2504192 -0.10837368 -0.12188409 -1.5149412 -0.4858347 -0.07535563 -0.10895945 -0.27933556
-0.13500522 -0.18029206 -0.6672723 -0.28027016 0.13647147 -0.86552256 -0.23650703 -0.1424264
-0.16053876 -0.39407262 -0.3891134 -0.17144598 0.96862084 -0.2796242 -0.23315044 -0.61417913
-0.07015241 -0.46437144 -0.15939015 -0.12034624 -0.24511075 -0.15201624 -0.119016096 -0.61550194
-0.6479018 -0.5195683 0.90629375 -0.12583971 0.74446434 -0.6056408 -0.16298811 -0.28163046
-0.4270193 -0.1460629 -0.13678522 -0.3126886 0.59751904 -0.6800465 1.032977 -0.99758106
-0.45275572 -0.5689489 -0.81416684 0.0929558 -0.12635314 0.27176347 0.44351956 -0.2417101
-0.4760589 -1.1378884 -0.18375653 -0.24338526 -0.14696372 -0.48561454 -0.35325253 -0.41525555
-0.024924897 -0.12458055 -0.19852628 0.37430152 -1.1673652 -0.78122866 -0.26436362 -0.5331938
-0.23697312 -0.23936519 -0.9159482 -0.80837077 0.0024874532 -0.27763855 -0.54245704 -0.2808826
-0.89147556 -0.31730488 -0.29589173 -0.7998217 -0.21889643 -0.3172705 0.49992976 -0.54049397
-0.4278938 -0.32426214 0.24786675 -0.1796452 -0.61517143 0.51848847 1.7716651 -0.25442725
-0.19247772 -0.56488675 -0.16701984 -0.4585799 -0.18739109 0.56992805 -0.5571116 -0.2532265
00000000: df95 7ebf b71d 74be f278 67bf 8156 3a3f
00000010: 88ce 05bf 10a4 82be 02a9 40be c0c8 afbd
00000020: fd2e babe 7c1a 1fbf e71f 15bf bef3 b5be
00000030: 71d9 a8be b4ae 8abe 71e6 8cbe e946 55be
00000040: e808 fabd 2fc9 07bf 8bf8 32bf a046 debd
00000050: 3979 a9be 7bca 2dbe bec4 87be b373 67bf
00000060: fec9 b3bd 5426 4dbe cec8 253f 3508 94be
00000070: af15 49bf ea30 10be 9662 16be f702 2bbe
00000080: 0520 95bf 0f1c 37be e9a9 ddbd 5d08 813f
00000090: 24af a8be 8fd0 6a3e 9bf6 a7be e473 a2be
000000a0: 635b 34be a5dc 57be 92c6 04bf adbe 88bf
000000b0: 5a5d 80bd 96b3 1abf fdcf aa3e 10da 38be
000000c0: 9af8 0bbe 00de dcbd 35e3 0dbe 5241 79be
000000d0: 52c6 cabe fb36 13be bdc9 28be b704 8bbe
000000e0: e399 23bf 54a8 08bf 4b99 84be 7f7b 10bf
000000f0: 78bb 0bbf 84be 4dbe 3a69 fabe d047 53be
00000100: 341c dbbe eb0f 9abe 1826 37bf 82e7 e2be
00000110: fc6d 5dbe 11e9 f7be 5927 79be 339c 4bbf
00000120: 4c0b 62bf ee3f 28be 3deb 83bd 9ba1 273e
00000130: 84d9 83be 4103 20be a96a 3dbf 0d4a e8bd
00000140: 58e5 66bf ca8a d2bf 9895 b0bf 78d9 8ec0
00000150: 2a86 96be 9143 82be 3ba6 4cbf 38d7 67be
00000160: 8a92 2dbd 6d58 7ebd dff6 88be 8670 dfbd
00000170: aca1 7e3f 426e cfbe de19 40be 3124 f8bd
00000180: e5cf 71bf a951 2cbf ae58 1f3e 32f4 57be
00000190: d36b 30bf 67b1 f43d df90 12bf 02af 41bf
000001a0: 8e7e 9fbe 96b1 38bf a93b c2be 62ba cebe
000001b0: 6ff5 61be 6966 07bf 55c1 09bf 14bc acbe
000001c0: a77c 8dbd 6697 a9bf e6b2 0dbf 9c23 81bc
000001d0: bb1a 42be f422 c3bd 5d21 2fbf a743 acbe
000001e0: 160b 61bd 0268 05bf 4380 2ebe 8de5 bbbe
000001f0: 18e8 37bf 6256 a4be d150 14be e536 cbbd
00000200: ffff 8bbe 2ccf 32be 3eee dcbe f7de 34bd
00000210: b0af 34be f490 49bf 0190 10bf c098 43bf
00000220: 344b 72bf a963 0dbe 721c 5ebf 3a2e e0be
00000230: 9842 a0bf dd60 a93e bd55 043f 128d 643e
00000240: 4090 953d 8e35 21bf bb70 63bf 71e5 ecbe
00000250: d596 7bbe 4dfb 03be 991d c1be 0e20 853f
00000260: f236 80be 05f3 ddbd 5e9e f9bd 98e9 c1bf
00000270: 53bf f8be 0d54 9abd 2226 dfbd 1205 8fbe
00000280: cf3e 0abe 7b9e 38be 5cd2 2abf 927f 8fbe
00000290: 2dbf 0b3e e392 5dbf e62e 72be 3ad8 11be
000002a0: 4664 24be e3c3 c9be df39 c7be 898f 2fbe
000002b0: 89f7 773f e72a 8fbe fdbe 6ebe d83a 1dbf
000002c0: 11ac 8fbd 18c2 edbe 2c37 23be 1778 f6bd
000002d0: 50fe 7abe 25aa 1bbe b6be f3bd 8991 1dbf
000002e0: e4dc 25bf 6e02 05bf de02 683f 20dc 00be
000002f0: 3795 3e3f 470b 1bbf 5be6 26be de31 90be
00000300: 46a2 dabe 8391 15be 6d11 0cbe b818 a0be
00000310: 02f7 183f 8717 2ebf 9738 843f 7961 7fbf
00000320: 99cf e7be a3a6 11bf 3d6d 50bf 9c5f be3d
00000330: b862 01be 9524 8b3e ff14 e33e da82 77be
00000340: febd f3be 54a6 91bf ac2a 3cbe fc39 79be
00000350: a87d 16be 78a2 f8be 84dd b4be 609c d4be
00000360: 4c2f ccbc 1624 ffbd 794a 4bbe 73a4 bf3e
00000370: 396c 95bf 9afe 47bf ab5a 87be 647f 08bf
00000380: 15a9 72be 261c 75be 957b 6abf 63f1 4ebf
00000390: 8a04 233b a426 8ebe 77de 0abf d8cf 8fbe
000003a0: be37 64bf c975 a2be 1f7f 97be 1dc1 4cbf
000003b0: 6326 60be 4771 a2be cbf6 ff3e d05d 0abf
000003c0: e514 dbbe b005 a6be c8d0 7d3e e9f4 37be
000003d0: e07b 1dbf a9bb 043f ecc5 e23f 4a44 82be
000003e0: e118 45be 6b9c 10bf 4007 2bbe fcca eabe
000003f0: 73e3 3fbe cee6 113f de9e 0ebf e7a6 81be

Linear4.weight f4 [1, 256]
0.1502867 0.06457233 -0.05153958 0.123124 4.4958113e-05 0.0022636084 -0.01238501 -0.021368807
0.017615026 0.024396483 -0.011856625 -0.0053951954 0.24769737 -0.022083754 -0.031409994 -0.006081273
0.0077423058 0.048206866 -0.01710809 0.058017198 0.019003518 -0.030321918 0.030709013 -0.019440878
0.25102764 -0.029554008 0.08836798 -0.012959242 0.009274865 -0.00085512234 0.011889751 0.012185325
0.0058268774 0.017855564 0.00072722434 0.095291264 5.7233927e-05 0.26277223 0.01585125 -0.026663087
-0.00018892865 -0.018777898 -0.04676702 -0.00068940606 -0.025368232 -0.029937573 0.053103216 -0.0062037096
-0.022038162 0.031470336 -0.0046518506 -0.0010103341 0.034555655 0.012918463 0.109354235 0.04837267
-0.0008396637 0.013981599 -0.027504198 -0.025905093 0.02186421 -0.019388853 -1.7249622e-05 -0.007987408
-0.0043648058 0.02992768 -0.003832607 0.1427807 -0.01346205 0.16292326 -0.011922162 0.017542092
0.04765699 -0.021861626 0.02073143 0.09018081 0.014209547 0.003428671 0.045701824 -0.022729166
0.004784798 -0.02252622 0.21474451 0.023931198 0.16943906 -0.018414939 -0.023493981 0.026802074
0.006398235 0.0038523395 -0.008425062 0.029377637 0.08640066 -0.01442735 -0.026632572 0.14453639
0.07663128 0.018603103 0.5730824 0.021898853 -0.0099698445 0.0045851893 0.08986762 0.037372075
0.018181738 0.058428776 -0.008139385 0.35055926 0.016986217 -0.03343405 0.028578093 0.0028361874
0.012365247 -0.012151678 0.0013892956 0.16783975 0.058938578 0.016736034 0.027792875 0.12099653
0.011768685 0.4447568 -0.008883603 0.52224845 0.037439417 -0.026221856 0.020160362 0.026985975
-0.022481088 -0.022849042 0.31866053 0.008505806 -0.019029126 -0.024509273 -0.024526583 0.014104171
-0.049028296 -0.008272813 0.080439985 0.14525273 0.030965861 0.0117678745 0.09624152 0.512676
0.03229351 -0.0028923058 0.24013676 -0.0013537789 0.008252905 0.022612898 0.118887424 0.03456073
0.004477932 -0.020735867 0.17956023 -0.028155318 0.032946583 -0.00037350622 0.020002954 -0.027489139
-0.012340463 -0.0012522627 -0.008812657 0.003610655 0.064133406 0.010907803 0.017749978 0.19716525
-0.0066849897 -0.0066300216 0.31834176 -0.0044047707 0.039343875 -0.028161218 0.16961443 -0.029839216
-0.027026175 0.03909444 0.012866902 0.027157458 -0.028004661 -0.012625259 0.031712435 -0.0104017025
0.004877098 -0.024453638 0.05233706 0.0013178249 0.12996875 -0.011334459 0.024180578 -0.0026634706
0.0072946413 0.012984895 0.04018857 0.012635631 0.16496398 0.011127686 0.07295318 0.095603935
-0.024889514 0.00627899 0.010879759 0.014148848 -0.006441362 0.113612995 0.11026895 0.0027424311
0.1042083 -0.008141775 -0.017173091 0.022441717 -0.02161347 -0.0068320124 0.20557097 -0.014421
0.001311568 0.32975778 0.011117188 0.28489172 -0.07488369 -0.029189458 0.011569161 0.20139185
-0.016512984 0.029611701 0.069563374 -0.01893763 0.048737645 0.010812243 -0.012143468 0.013119962
-0.025486853 0.008080902 -0.03140365 0.02839313 -0.007610357 0.024431441 0.2608251 -0.09493534
-0.012886065 -0.012969221 0.07173808 -0.0019572356 -0.026244074 0.2262915 -0.019941526 0.016592924
-0.019542562 0.011603485 -0.04096868 0.0084679555 0.015351718 0.0442265 -0.013116696 0.0033864542
00000000: c2e4 193e 7f3e 843d 2b1b 53bd 7028 fc3d
00000010: 6891 3c38 0c59 143b 7fea 4abc a30d afbc
00000020: 634d 903c 22db c73c 4a42 42bc 2eca b0bb
00000030: 61a4 7d3e fde8 b4bc c4a7 00bd 6a45 c7bb
00000040: 2bb3 fd3b 9074 453d 4426 8cbc 71a3 6d3d
00000050: 44ad 9b3c ac65 f8bc 7891 fb3c 7a42 9fbc
00000060: b286 803e 3f1b f2bc 46fa b43d 0053 54bc
00000070: 9af5 173c 4a2a 60ba 3bcd 423c f5a4 473c
00000080: 64ef be3b d545 923c 33a3 3e3a 1128 c33d
00000090: 760e 7038 158a 863e 7bda 813c 8c6c dabc
000000a0: 261b 46b9 1bd4 99bc c68e 3fbd 42b9 34ba
000000b0: 0ad1 cfbc a43f f5bc c282 593d 7d48 cbbb
000000c0: 6089 b4bc 0ae7 003d 8d6e 98bb 306d 84ba
000000d0: 3b8a 0d3d f6a7 533c 1df5 df3d 6c22 463d
000000e0: e11c 5cba 1413 653c 7c50 e1bc eb36 d4bc
000000f0: 921c b33c 5fd5 9ebc 48b3 90b7 9edd 02bc
00000100: a506 8fbb e52a f53c 7a2c 7bbb 1b35 123e
00000110: ee8f 5cbc 5bd5 263e 2c55 43bc 6fb4 8f3c
00000120: fa33 433d 2717 b3bc f6d4 a93c b7b0 b83d
00000130: 29cf 683c 8eb3 603b d631 3b3d 8432 babc
00000140: cbc9 9c3b e888 b8bc fce5 5b3e 5c0b c43c
00000150: 6f81 2d3e edda 96bc 7376 c0bc 0690 db3c
00000160: 49a8 d13b 8877 7c3b 4509 0abc 5fa9 f03c
00000170: d4f2 b03d b160 6cbc 8d2c dabc 5901 143e
00000180: dcf0 9c3d 8965 983c 87b5 123f 3965 b33c
00000190: 8f58 23bc 5b3f 963b 840c b83d 7613 193d
000001a0: def1 943c 0353 6f3d 0e5b 05bc 817c b33e
000001b0: ae26 8b3c 24f2 08bd 9b1c ea3c 54df 393b
000001c0: 9b97 4a3c d517 47bc 0619 b63a 2fde 2b3e
000001d0: 9469 713d 021a 893c e2ad e33c 07cd f73d
000001e0: 71d1 403c 2ab7 e33e 888c 11bc 13b2 053f
000001f0: 135a 193d 38cf d6bc 5827 a53c b111 dd3c
00000200: 422a b8bc ea2d bbbc 7927 a33e f05b 0b3c
00000210: f8e2 9bbc acc7 c8bc f9eb c8bc 2e15 673c
00000220: e5d1 48bd b18a 07bc b8bd a43d 22bd 143e
00000230: 1eac fd3c 0bce 403c 461a c53d bc3e 033f
00000240: 3346 043d d78c 3dbb 69e6 753e 4871 b1ba
00000250: 3137 073c af3e b93c 407b f33d 8d8f 0d3d
00000260: 9ebb 923b 44de a9bc a3de 373e fba5 e6bc
00000270: fff2 063d 28d3 c3b9 3cdd a33c e730 e1bc
00000280: a72f 4abc f722 a4ba f662 10bc bda0 6c3b
00000290: 6058 833d a4b6 323c 6768 913c b0e5 493e
000002a0: c20d dbbb a740 d9bb b1fd a23e e555 90bb
000002b0: 0b27 213d 5bb2 e6bc 68af 2d3e 5f71 f4bc
000002c0: ff65 ddbc 7e21 203d b3cf 523c 5179 de3c
000002d0: 086a e5bc 2dda 4ebc e6e4 013d e76b 2abc
000002e0: 10d0 9f3b ff52 c8bc 635f 563d deba ac3a
000002f0: 8716 053e 2bb4 39bc 5916 c63c 9f8d 2ebb
00000300: e307 ef3b 99be 543c c59c 243d ad05 4f3c
00000310: 51ec 283e e650 363c 7a68 953d ffcb c33d
00000320: 18e5 cbbc fcbf cd3b 0441 323c 92d0 673c
00000330: 1012 d3bb eead e83d b0d4 e13d 5cba 333b
00000340: 296b d53d 1465 05bc 95ae 8cbc b1d7 b73c
00000350: bb0e b1bc 13df dfbb 3281 523e 0f46 6cbc
00000360: ebe8 ab3a 03d6 a83e de24 363c 54dd 913e
00000370: 9f5c 99bd bb1e efbc 948c 3d3c aa39 4e3e
00000380: 3d46 87bc 3d94 f23c 3e77 8e3d 1723 9bbc
00000390: 20a1 473d d625 313c 65f5 46bc 1cf5 563c
000003a0: cec9 d0bc c265 043c 1da1 00bd b698 e83c
000003b0: 4d60 f9bb 7224 c83c de8a 853e 766d c2bd
000003c0: 1320 53bc db7c 54bc 6aeb 923d f744 00bb
000003d0: d0fd d6bc f5b8 673e 695c a3bc e2ed 873c
000003e0: b917 a0bc 8b1c 3e3c c6ce 27bd 2ebd 0a3c
000003f0: c685 7b3c d926 353d 69e7 56bc 46ef 5d3b
