dataBase/niceNet/joint/20230304_DDPG随机点_1/0_actor_net.pkl (torch, 550223 bytes, 8 tensors)

Linear1.weight f4 [256, 13]
00000000: cbcd 60be 733b 033e ba30 b8be c3d9 b9bd
00000010: bd94 61bb dd95 0b3e cfc1 c9bc 3aa5 903e
00000020: 26fb dfbd 2eb4 873b fb0e 55be 180d 3f3e
00000030: 4864 d4be 365a 25bf 39f6 6abe 8264 f9bd
00000040: c80f 5dbd 3bcd a83c 727d 32be de6e c0bd
00000050: 2729 403e 1941 aa3d 94eb 5ebc 8197 db3d
00000060: 3940 59bf 1f9f 3c3d 5a4d 723e 537b 11bf
00000070: 7265 babe 5ca2 95bd 1410 d7bd 3e84 573e
00000080: 0a82 87bd 7093 d0bd d29d 4abe ab23 35bd
00000090: 0ee6 9cbe 4080 983f 6f16 b93c c9dc 60be
000000a0: 7bc2 c9be 848f 36bf 229b ee3d a20d 88be
000000b0: 9f65 3abe 9870 07be de73 793e 80ef c73d
000000c0: 54fb cdbd 3911 5cbe c689 c03e 7fbc f63d
000000d0: c9d1 9ebe 3bce c53d 0cbb 62be 19eb 26bc
000000e0: 40c7 a1bd f967 01bd d14d b6bd 9ca2 6fbd
000000f0: 269e c93c 02df 853d 5822 05bf d0d8 85be
00000100: 6004 a2be 7fb0 abbe 3869 cc3e 136a b3bd
00000110: 94f6 7e3d 7161 a33c d298 e7bd 85b8 11bd
00000120: 0774 863e e4d7 073e eabc d83d 2258 a93e
00000130: 2444 4cbf 2462 4abe 90ba c23e 1885 3d3e
00000140: 4ad5 1abf 389d ad3e 8dd9 fe3d 9f34 7bbe
00000150: 64f7 2c3d 9b01 17be c3c5 c9bd 1005 53be
00000160: 3cc0 b6bd ff85 b0bf 4f2a 263d 0198 6b3e
00000170: 8789 de3e 13a2 adbe 16cf 7bbe c933 c9bd
00000180: 2000 143e c21b 163e afca 963d 0dcd 59bd
00000190: 3f6c a03e 2f06 84bd 7445 0dbd dc6e d8be
000001a0: 6fee bcbe df99 b6be 2c9c 06bf e40f 7cbd
000001b0: 2000 033e 74da 813e c243 2fbe a286 5f3e
000001c0: b6f4 aebb d1f4 993e 67f5 573e 08a2 d6be
000001d0: bec4 6ebe 6aa5 ce3c a3fe 653e 4310 64be
000001e0: fceb 0a3e a852 973c 7853 fabd 48be 723e
000001f0: 01a7 36be 1815 84be df9a d0bd f9dc a4be
00000200: 4e42 b3be 8a54 34bf 2ae2 9637 98da 5c3e
00000210: ce14 fcbe 1b40 eebd 0ed0 8e3e 3f72 f83d
00000220: 7bbf 563e 2bc2 273d ecc5 e1bd d577 1e3e
00000230: c6a0 8a3e 5a96 f6bc 5ec7 b43e 8b0e f3bd
00000240: ab27 ddbe 47cd aabe 8b13 983e 32de dabb
00000250: 4393 c7bd d5df e4bd c3e2 51be 3a23 63be
00000260: 177c b43d ba6e d53d 7882 233f 384a 52bf
00000270: 3184 8c3e bb98 7abf 3a62 2abd 28c0 e0bd
00000280: 4530 e0bd 1565 dfbc 67bc 14be 4ae9 50be
00000290: 0e8e 9fbc 0e34 dabd ed03 75be 127c bd3f
000002a0: 666b 46bf c2fc edbe dfb5 a13e cf22 70be
000002b0: c2bc 8e3e b0d3 44bd b57c b0be df87 d13e
000002c0: 955a a73d 4896 87be 7e99 a23d acb6 32be
000002d0: 28b2 0abf 97f2 2b3c e886 9fbd f2d6 a63d
000002e0: 6bfb 49bd 29e4 883d e8cb 54be 59e1 503d
000002f0: 5930 efbd f6d3 c73e a057 993d 4f8c 203e
00000300: d1f6 88be f7f8 8abe 0826 86be d7ae 00bf
00000310: 5782 90be f27b 52be 8ad4 e9bd ca92 3f3e
00000320: 7fb0 2c3e b039 583e ec1d 31be 8bb6 39be
00000330: 781a 84bc f01a e93d 55f0 e43e 5a25 b23d
00000340: 5301 d33e bbab ca3e 8b79 13bb 890a ed3d
00000350: e21d 5f3e 75ff c9bd 4c37 1c3e 2010 933e
00000360: c905 e8bd a6da dcbd 9d98 7e3e b7cf f1be
00000370: e62b be3c dc96 5e3e 2aa6 06be 729a 59be
00000380: 5797 bcbd e26a f33d 9bc0 b93b d725 ec3d
00000390: 2e25 253d 09d3 23be 6581 1b3e 4601 83be
000003a0: 4e72 833f 4a7e 68be 96ad 383b a418 6bbf
000003b0: 3a5e f23e 0db0 35be 58d5 413d 9306 913e
000003c0: 2c95 4b3e 88c0 3b3e c773 a8ba 0850 263d
000003d0: 024d 883e 1b05 a43e 2fd2 9c3e b335 3dbf
000003e0: e2e1 08bc f699 febc 87c5 98be fe33 103e
000003f0: efe0 953e f3f3 093e 145c 36be 0541 8abc
-0.21953504 0.12815647 -0.35974675 -0.09074738 -0.003442093 0.13631387 -0.024628548 0.28251058
-0.10936575 0.004141352 -0.20806496 0.18657339 -0.4148276 -0.64590776 -0.22945489 -0.121773735
-0.05397013 0.020605674 -0.17430666 -0.09396146 0.18765698 0.08313198 -0.013605971 0.107222565
-0.8486362 0.046050187 0.2366232 -0.568288 -0.36405522 -0.07306358 -0.105011135 0.2104654
-0.066166 -0.101843715 -0.19786766 -0.04422347 -0.30644268 1.1914139 0.022593705 -0.21959223
-0.3940619 -0.7131274 0.11650683 -0.265729 -0.18202828 -0.13226545 0.24360606 0.09762478
-0.10057703 -0.21490945 0.37605113 0.120476715 -0.31019428 0.09658476 -0.22141665 -0.010187888
-0.07899332 -0.031593297 -0.08901561 -0.058504686 0.024611544 0.06536676 -0.5200553 -0.26141977
-0.31643963 -0.33533093 0.39924026 -0.087604664 0.062246874 0.019943925 -0.11308445 -0.035576362
0.26260397 0.1326595 0.105829075 0.33075052 -0.79791474 -0.19764 0.3803296 0.18507802
-0.60481703 0.3390901 0.12443838 -0.24531792 0.042228118 -0.14746706 -0.09852173 -0.206074
-0.089233845 -1.3790892 0.040567692 0.23007204 0.434643 -0.33912715 -0.24590716 -0.0982433
0.14453173 0.14659026 0.073628776 -0.053174067 0.31332585 -0.06446492 -0.034490064 -0.4227208
-0.3690066 -0.3566427 -0.5258205 -0.061538592 0.12793016 0.2536198 -0.17115691 0.21828702
-0.0053392304 0.30069593 0.21089707 -0.41920495 -0.23317239 0.02522536 0.22460417 -0.22271828
0.13566583 0.01847203 -0.12222952 0.23705399 -0.17837144 -0.25797343 -0.10185789 -0.3219984
-0.35011524 -0.70441496 1.798671e-05 0.21567762 -0.49234623 -0.11633321 0.27893108 0.12131166
0.20971482 0.040956657 -0.11024079 0.154754 0.27075785 -0.03010099 0.35308355 -0.11868008
-0.43194327 -0.3335974 0.2970241 -0.00667932 -0.09744885 -0.11175505 -0.20496659 -0.22181407
0.08812731 0.1042151 0.63870955 -0.821445 0.27444604 -0.978893 -0.041597582 -0.10974151
-0.10946707 -0.02726988 -0.14524995 -0.20401493 -0.019476917 -0.1065446 -0.23927279 1.4803488
-0.77507627 -0.464819 0.3158407 -0.23450778 0.27878386 -0.048053443 -0.34470144 0.40923974
0.08171574 -0.26481843 0.079394326 -0.17452496 -0.54178095 0.01049485 -0.07789403 0.08146466
-0.049312036 0.06684143 -0.20780909 0.05099616 -0.116791435 0.390289 0.07487416 0.15678523
-0.26750806 -0.2714307 -0.2620089 -0.50266784 -0.2822444 -0.20555094 -0.11417492 0.1870834
0.16864203 0.21115756 -0.1729657 -0.18136041 -0.016125903 0.11382091 0.4471461 0.086985305
0.41211948 0.39584145 -0.0022502865 0.11574275 0.21788743 -0.09863178 0.15255469 0.2872324
-0.113292284 -0.107838914 0.24862905 -0.47228786 0.023214292 0.21737236 -0.13149324 -0.21250322
-0.09208553 0.11885621 0.0056687123 0.11530655 0.04031866 -0.15998472 0.15186079 -0.2558691
1.0269258 -0.22704425 0.0028179637 -0.91834474 0.47337514 -0.1774294 0.0473226 0.28325328
0.19881123 0.18335164 -0.0012851887 0.040603667 0.26621252 0.32035145 0.30629107 -0.73910064
-0.008354636 -0.031079274 -0.298382 0.14082333 0.29273173 0.13471965 -0.17808563 -0.016876707

Linear1.bias f4 [256]
00000000: d46d bcbe 94a6 ccbe c8e8 5fbd 135e e83c
00000010: 52fe a5be 865b c5be 888f adbe 5d9d a5be
00000020: a919 9c3d 21a8 98be 1757 1abd 2015 93be
00000030: b7cc 373e 01e6 303d 042a 5bbe f753 08bf
00000040: 63bf 99be bb7b 93be b4e4 763c e189 c539
00000050: a134 f8be 120e c5bd c10c 99be 510b 0d3d
00000060: 9a9e 8dbe 8b01 27be 6c10 223e 5fb2 08bd
00000070: 18e2 00be 6808 06be b7fa 24be a08a d7bd
00000080: f548 62be afd2 1fbe e88d c4be bd6f 6abe
00000090: 79b9 87be e3d1 f13c c58a 7abc a180 79be
000000a0: b9a6 68be 1eec b2be 8465 393d 7b00 afbe
000000b0: 55dd 40be c5ec e8be 8a98 b3bd e364 0cbd
000000c0: 4abb 6abe 43b2 6a3d 7c6d 85be 618d 5bbe
000000d0: 9670 0bbe f7bb 633e 77e7 633d 1a5c 0ebe
000000e0: 4dca 33bd bca4 653c 8390 4c3e 7966 08be
000000f0: f103 37be b0d2 b43b cc64 c6be 5cfd 91bc
00000100: b7c3 91be 67e6 e73c 9b8b 26bd 8508 2abe
00000110: 7d60 4abd fa23 203c 652c 3fbe 1187 b53d
00000120: 0d96 a3bd 35b9 c0be a9d2 82be 2852 b6be
00000130: 1adf 6ebd 6dab 1fbc 6409 a7be eb13 26be
00000140: fd3b 40be cd3a 46be ceb7 5a3d 43f7 1c3e
00000150: f371 f3bd f8ce e73d 60cd 85be e83f 19be
00000160: 548e c7bd d1b9 97be f450 7ebe 8067 493c
00000170: 8b38 d1be 6ae3 52be acfe 48be c022 17be
00000180: 28bf 703d e693 c6bd 7a72 93be 849d 053d
00000190: 2d23 85bd f09a f6bd e392 95be 0c0e 5c3e
000001a0: ddd9 963b 7af3 51bd ae33 3dbe 8f32 f23d
000001b0: 274a 2fbe 8d2a 9ebe 8677 e1be 063a 76be
000001c0: 8d09 4cbd d6b7 1f3c a348 23be 9dac 3abe
000001d0: 9152 2fbe 0563 553e 1fe6 19bc 9811 b6bd
000001e0: 0cb6 d1be 7be6 78bd 9dbf 35be 444a c2be
000001f0: 32f7 7cbe 19b9 53bd b2d0 81be a2c7 b43d
00000200: 54f5 25be 6d17 5cbe 21c2 19be d0b1 95be
00000210: 02ef d5be 5892 41be 894f d8be 7b9e 8bbe
00000220: c161 43be bdf4 c4be 5206 73bd b07f ddbd
00000230: 3614 00be 00d9 783d 11e3 9bbe d39b 62be
00000240: 87e1 89be ede9 a3be f88d 5abe 4397 27be
00000250: eda3 10be 24d1 a8be 4c54 cfbd a295 32bd
00000260: fafa cebd a2ce 2bbe 7a9e bcbd 5aac d8be
00000270: 1205 863d f3b1 c1be ea4a 06bf ef4f a2be
00000280: 05db 5abe bdb0 19be 99bb 4abe 6e86 953d
00000290: 969d 4e3c 4fc4 e53d a841 71be c431 60be
000002a0: 9158 19be 5e4b 4fbd 3ad4 03be dc24 85be
000002b0: efca d83c c63c 0fbe 0e6f 22be 6591 9fbe
000002c0: 03bb 65be 2ee4 c5bd 92da 3ebe 2c08 9bbd
000002d0: 8ebe 5abe 8315 31be 0ea4 e8be a812 64be
000002e0: 833e 0dbe 718f 97be 84be 55be ae6d 1dbe
000002f0: edeb cabe f262 e3bd 6702 3c3d 3f93 e8bd
00000300: 0ac3 903e f285 d5bc 2d81 9fbe 7f02 65be
00000310: 54c3 18be dcab 36bc 9f33 d43b 3006 9abd
00000320: 6d5d 3fbe 45cd b7be 00be 72be 3469 cbbe
00000330: d214 68be 3d99 f5bc eedf b4be 47cb c3be
00000340: a3dc 97be cbd0 a93c a10f c4be de6d 7abe
00000350: a306 94be e082 213d 92fb 07be 4617 3ebe
00000360: 5744 c0be 8a22 fc3a e0e7 a8be ee2b 34be
00000370: 1297 9fbb 6f4e 49bd 8830 6f3e 69c1 0f3e
00000380: 96e6 28be 28b1 cabd 80bb cbbe 64c6 d2bd
00000390: 384e 913e 2eeb f1be f5c2 99be 2deb 9dbe
000003a0: 931c 84be d5a2 c2be 1cde 7abe 3709 d9bb
000003b0: e24a 13be 0e65 3bbd b818 25be ad57 cabe
000003c0: 9678 85be 6b10 a5be 9a67 91be 3d50 24bd
000003d0: ed44 b0be 6dac 2d3d e4ff 86be 73de 68be
000003e0: 09f3 223e c361 d0be 1482 d93d 0a74 673d
000003f0: faa6 2dbe 1efe 8b3d 24fa dd3d 31d2 4fbe
-0.36802542 -0.3997084 -0.054665357 0.02836517 -0.32420594 -0.3854639 -0.33898568 -0.3234662
0.07622082 -0.29815772 -0.03768071 -0.28727055 0.17949186 0.0431881 -0.21402746 -0.5325312
-0.3002883 -0.28805336 0.0150691755 0.00037677496 -0.48477653 -0.09621824 -0.29892543 0.03443462
-0.27660066 -0.16309182 0.15826577 -0.033373233 -0.12586248 -0.13089144 -0.16111265 -0.105244875
-0.22098143 -0.15607713 -0.38389516 -0.22894187 -0.26508692 0.029519027 -0.015291874 -0.24365474
-0.2271985 -0.34945768 0.04526283 -0.34180054 -0.18834431 -0.4549314 -0.08769329 -0.0342759
-0.22923008 0.05729891 -0.26060092 -0.2144065 -0.13617167 0.22239672 0.055640664 -0.13902321
-0.0438941 0.0140163265 0.19977002 -0.1332034 -0.17872597 0.00551828 -0.38748777 -0.017821006
-0.2846963 0.028308107 -0.040660482 -0.16604812 -0.049408425 0.0097742025 -0.18669279 0.088636525
-0.07987604 -0.37641302 -0.25551346 -0.35609555 -0.058318235 -0.009745461 -0.32624352 -0.16218536
-0.18772884 -0.19358368 0.053397946 0.15328698 -0.118869685 0.11318773 -0.2613325 -0.14965785
-0.09743944 -0.29633954 -0.24835569 0.012292743 -0.4086345 -0.20594564 -0.196284 -0.1475935
0.05877605 -0.09696178 -0.28798276 0.03262092 -0.0650085 -0.12041271 -0.29213628 0.21489733
0.004603608 -0.051257588 -0.18476745 0.118260495 -0.1711813 -0.3089184 -0.44036502 -0.24045572
-0.049813796 0.00974842 -0.15945677 -0.18229909 -0.1712134 0.20838554 -0.009393244 -0.088900745
-0.40959203 -0.06076668 -0.17748876 -0.37947285 -0.24703673 -0.051690195 -0.25354534 0.088271394
-0.16206867 -0.21493311 -0.1501546 -0.29237223 -0.4178391 -0.18903482 -0.4224818 -0.27269349
-0.19080259 -0.3846797 -0.0593322 -0.1081537 -0.1250771 0.060753822 -0.30446675 -0.22129755
-0.26929876 -0.3201441 -0.2134322 -0.16366296 -0.14125033 -0.32972062 -0.101235 -0.043599732
-0.10106464 -0.16778043 -0.092099145 -0.42318994 0.06543936 -0.37831077 -0.5245806 -0.3170161
-0.21372612 -0.15008827 -0.19798125 0.07301031 0.012610814 0.112190835 -0.23560202 -0.21893984
-0.14975192 -0.050608985 -0.12873927 -0.26004684 0.026463954 -0.13988027 -0.15862677 -0.31165615
-0.2243462 -0.096626624 -0.18638065 -0.07569918 -0.21361753 -0.17293362 -0.45437664 -0.22272742
-0.13793378 -0.29601625 -0.20873457 -0.1537387 -0.39633122 -0.11102857 0.04590073 -0.1135621
0.28273803 -0.026064847 -0.3115324 -0.22364233 -0.14918262 -0.011149373 0.0064758803 -0.075207114
-0.18687983 -0.35898796 -0.23705292 -0.397287 -0.22664192 -0.029980296 -0.35327095 -0.38241026
-0.2966052 0.020729443 -0.38293174 -0.24455974 -0.28911313 0.039431453 -0.1327956 -0.18563566
-0.3755214 0.0019236368 -0.32989407 -0.17594883 -0.004870304 -0.049147066 0.23358357 0.14038624
-0.16494212 -0.09897071 -0.3979149 -0.10291746 0.2837999 -0.4724974 -0.30031553 -0.30843487
-0.2580305 -0.38014856 -0.2449879 -0.006623413 -0.14384034 -0.04575067 -0.1612271 -0.39520016
-0.26068562 -0.32239088 -0.28399354 -0.040115584 -0.34427586 0.042400766 -0.26367104 -0.22741108
0.15913023 -0.40699586 0.106205136 0.056507148 -0.16958228 0.068355784 0.10838726 -0.20295025

Linear2.weight f4 [256, 256]
00000000: cab4 bbbd cfd1 98bd ddbc 0c3a 4a5b babd
00000010: 12e9 d13b 1128 3ebd d222 2b3d 704f bdbc
00000020: 8cf9 54bc 5220 f73b 7d16 363b 569e 04bd
00000030: 0acb 72bd c2e4 1cbb 50a2 a6bd 25b0 02bd
00000040: 9238 8bbd 2cbd 1ebd 00da 84bd 9df0 393d
00000050: 8435 0c3d 0ff0 c73b a1c2 4a3d f83a fdbb
00000060: 08fd bcbd db67 03bd 6165 49bd 0435 f6bc
00000070: e81d 07bc fe2e 02bd 6b33 81bd ab09 b93c
00000080: 4b14 4cbd c5ea 913c 1ed3 953c ac82 043d
00000090: 23e9 ddbc 9a8c af3c 2a8d 37bd ccce 86bd
000000a0: 00a2 ac3c 5ee0 43bd c77d 3abc af98 8cbc
000000b0: 1b76 96bd 3af6 68bc 1f09 45bc 0c61 f53a
000000c0: 5d7d 0f3d 09a6 baba 123c 40bd 0bff 88bc
000000d0: 651d 7ebd 35d1 f0bc 9457 56bd bd64 5abd
000000e0: ff6b c3bc fab7 84bc 5c2b 8bbd bde1 68bb
000000f0: 5c69 463d d624 b5bd fe37 ef3c 9146 65bd
00000100: 92d6 43bd 1507 af3d 5d6e 993c 87f8 67bd
00000110: c952 b53c 29a2 8bbb e584 3cbd 2fde 38bd
00000120: dfa8 013d 49a8 2bbd 469b 57bc 47ba 5d3c
00000130: 2693 203b eec2 83bc fdc2 07bd b277 2b3d
00000140: bb69 7ebd c4f8 b43c 6d8b 923c a19e 523d
00000150: 89b3 79bd d73b 98bc b074 323c c4d0 a2bc
00000160: a974 c7bb a74a 273c d266 6ebd 2337 f8bc
00000170: e005 153d ab64 a138 5244 293d 7625 8bbc
00000180: 0292 3d3c fdc2 debc 4344 dbbc 58b5 37bd
00000190: c47f 063d 6394 a9bb b2bd 123c f596 843c
000001a0: 30f3 65bc bd83 2b3c cae1 18bc a367 a5bd
000001b0: e9c6 dbbb 1a59 dabc 65db 86bd 4c2a 4d3c
000001c0: 8794 46bc eed6 33bd 1384 91bd 2f0f 94bd
000001d0: f810 313c 6648 40bd e022 ffbc 768b f2bc
000001e0: bdfd 223d d5a0 acbc 5087 b63c efb9 213d
000001f0: cd43 82bd 3281 033d 52e7 f4bc d7bf 303d
00000200: 4501 2e3d 0bcc a1bd 0534 b8bb a39c 96bb
00000210: fae4 37bd acb3 2d3d 5968 a6bd 9aa1 29bd
00000220: 7731 023d 4c6e 413d 71c3 233d fe6b 8abd
00000230: 207b b5bd 9383 1cbd c902 2bbc 7908 ba3c
00000240: 95dc ea3b 6a1b a7bc 51bc 803d 9106 753d
00000250: 56ba 23bd dcd4 6ebd fd8a cfbb ca0f 02bc
00000260: 0fd3 a6bc e2ac 0a3d f1c0 743c 6d3f 1bbd
00000270: 169b 2e3c db70 a7ba fff1 9dbb 389d 90bc
00000280: 5184 0fbd 36e2 49bc b080 1a3c cbc7 9cbd
00000290: fb60 293b 961f 05bd 2227 953c c257 123d
000002a0: 1d6c b8bc 3404 053d 1e79 873a ca03 3bbc
000002b0: b805 043b 2f06 453b 7b84 123c b7fc 82bc
000002c0: 3eb2 cbbb 323f 8d3b 5add 29bc 94b9 76b9
000002d0: 0e10 ef3c 3690 7d3b baed 50bc 85cd 3dbc
000002e0: ff4a 363d 73b0 aabd 99ca 39bd 7854 c8bc
000002f0: 40b6 99bd 261d 89bd bbc2 4f3d e531 2ebb
00000300: 5221 84bd e5bc debc 5b49 82bc 20ed 1abd
00000310: 9f6a 84bd 80fb 003c 5d1a 15bd d25b 523d
00000320: c1b0 60bd 86af e1bc 7f01 1cbd b445 32bd
00000330: e328 633c 36ac 213d 250d 083d 4f96 95bd
00000340: aa99 133d 39d0 723d 133e 36bd 9da8 093d
00000350: bf61 083d f76f d63c 70d1 d7bd e858 ae3c
00000360: 9479 03bd 7b9c 903c 25a7 19bd 3827 aebd
00000370: 2a20 fdbc 5ce1 cc3b 3db1 79bd 49be 363d
00000380: e82f 62bc f0d8 c43b 7424 9fbc 49c0 983a
00000390: ce5c d4bc 1e6c 34bd 7e1e 5c3d bb74 f9bb
000003a0: 3aee 07bd abeb 52bd 0d65 35bb e756 95bd
000003b0: 5b7b 7ebc 6be2 0f3d a314 74bd 1891 e63b
000003c0: 04b7 d0bc c685 1bbd c9cf 98bd 23a2 fc3c
000003d0: a378 2cbd 7efd c8bb 53ee 39bc c04b 8d3c
000003e0: afda 46bd 9758 573d 4d0b 82bd 90df 83bd
000003f0: 4a35 d63c 5c71 0a3c a10f 87bd 80fb 34bd
-0.09165342 -0.07461893 0.0005368719 -0.09099443 0.006405958 -0.04642493 0.041781254 -0.023109168
-0.01299895 0.0075416947 0.00277844 -0.032377563 -0.059275664 -0.0023940061 -0.081364274 -0.031906266
-0.06797899 -0.038754627 -0.06486893 0.045395482 0.034230724 0.0061016153 0.04950202 -0.007727977
-0.092279494 -0.032081466 -0.049168948 -0.030054577 -0.008246876 -0.031783096 -0.06308635 0.022587618
-0.04982404 0.017812142 0.018289145 0.03235118 -0.027088707 0.021429349 -0.04481236 -0.06582412
0.021073341 -0.047821395 -0.011382527 -0.017162649 -0.073467456 -0.014218861 -0.0120261 0.0018720939
0.035031665 -0.0014240156 -0.046932288 -0.016723176 -0.06203975 -0.029396633 -0.052329615 -0.053318728
-0.023855207 -0.016201008 -0.067953795 -0.003553494 0.048440322 -0.088449165 0.029201504 -0.0559755
-0.047812052 0.08546273 0.018729383 -0.0566335 0.022134202 -0.0042612744 -0.046025176 -0.045133766
0.03165519 -0.041908536 -0.013159579 0.0135331815 0.002450177 -0.01608416 -0.03314494 0.041862197
-0.06211255 0.022091277 0.017888749 0.05142081 -0.060962234 -0.018583221 0.010892078 -0.019874938
-0.006086905 0.01021067 -0.058203526 -0.030299729 0.036382556 7.695829e-05 0.04132492 -0.016985636
0.0115704555 -0.027192587 -0.026765948 -0.044850677 0.03283669 -0.00517516 0.00895636 0.016185263
-0.014035031 0.010468421 -0.009331176 -0.08076408 -0.0067070615 -0.026653815 -0.06584815 0.012522291
-0.012120373 -0.043906145 -0.07105269 -0.072294585 0.010807268 -0.046944045 -0.03114456 -0.029607516
0.039792765 -0.021072784 0.022281319 0.03948396 -0.06360588 0.032105632 -0.029895458 0.043151703
0.04248168 -0.07900246 -0.0056214356 -0.0045963093 -0.044896103 0.042407677 -0.081253715 -0.04141388
0.031785455 0.047224328 0.03998131 -0.06758879 -0.08861375 -0.038211416 -0.010437676 0.022709118
0.0071674087 -0.020398814 0.062859185 0.059820715 -0.039972626 -0.058308467 -0.0063337074 -0.007938335
-0.020364312 0.03385628 0.014938579 -0.037902284 0.010657093 -0.0012774722 -0.004820108 -0.017653093
-0.035038296 -0.012321999 0.009430096 -0.07655295 0.0025845158 -0.032500826 0.018207137 0.035728224
-0.02251249 0.03247471 0.0010335778 -0.011414478 0.002014501 0.00300635 0.008942719 -0.015989644
-0.0062163165 0.004310512 -0.010367716 -0.00023529521 0.02918246 0.0038690693 -0.012751991 -0.011584644
0.044505116 -0.08334436 -0.045359228 -0.02445434 -0.075054646 -0.06695013 0.05072282 -0.0026580032
-0.06451668 -0.027189681 -0.01590412 -0.037823796 -0.06465649 0.007872462 -0.036402095 0.051357098
-0.054856066 -0.027549516 -0.038087364 -0.043523505 0.013864729 0.039470874 0.03321566 -0.0730406
0.036035217 0.059280608 -0.044492792 0.033608068 0.033296343 0.026176436 -0.10537994 0.021282628
-0.032098368 0.01765274 -0.037512917 -0.08503574 -0.030899126 0.006252451 -0.060960043 0.044615064
-0.013805367 0.0060073063 -0.019426562 0.0011653985 -0.025923159 -0.04404842 0.053740017 -0.0076127923
-0.033186175 -0.05149428 -0.002767864 -0.07291966 -0.01553234 0.03512804 -0.059589993 0.0070363395
-0.025477894 -0.037969373 -0.07461507 0.030839032 -0.042107236 -0.0061337342 -0.011348325 0.017248034
-0.048548397 0.05257472 -0.06349812 -0.064391255 0.026148457 0.008449879 -0.06594778 -0.04418516

Linear2.bias f4 [256]
00000000: 0053 0abd 8423 12bd bc51 55bd 6684 d7bd
00000010: a866 a2bd ae59 08bd cd7d 3eba 214b 7eba
00000020: 3491 35be 0297 01be 02d6 57bd 0e81 84bd
00000030: f74f dabc cb8c 2ebc b315 cf3d 5da9 f93c
00000040: ed4c 20be 0d6d 173d b1f8 6abd bbf1 06be
00000050: 5aac bf3d bb3c cabd f447 aebd 89a3 25bd
00000060: af6a 093e 8206 01be 625d 3abd 8781 913b
00000070: ffae 28be 8999 47bc cb57 003b e21b 9e3d
00000080: f027 043e 5312 81bd 8f5f 8f3d b4f8 d1bd
00000090: 48d1 00be 65c5 273d 4a86 b9bc addf c4bb
000000a0: a43d 72bc ea91 acbc 7448 11be d723 ef3c
000000b0: e51a cbbc e61e 41bd 0eca 89bc 163d 2bbd
000000c0: daf5 bfbd 39fa 92bd 794e d6bc e9c1 acbd
000000d0: ac8a cebd ff44 b5bc 3968 253e 61b4 02be
000000e0: ae92 adbd d3ce a9bd 8190 81bc c0bf d2bd
000000f0: edc8 c1bd e988 8a3c 8a3c 08bc c8df 8abd
00000100: b119 e7bd 94d5 e6bc fe57 30bd 1914 413c
00000110: 6b58 2dbd 3be5 c4bc 824e 04bd 4c94 73bd
00000120: 86e4 94bd 2037 c3bd d733 d8bc 37ce 50bd
00000130: b58a d13b 7591 103d a68d a4bd a1c2 4bbe
00000140: d56e adbd 3720 10bd a5bd 1fbe d446 65bc
00000150: 05d8 4a3c 9a79 2cbe 9281 82bd c508 f2bc
00000160: d5f0 38bc fc4e 13ba 1738 4ebd 8784 b6bd
00000170: 8da1 63bd a6cb 07bd 6842 c5bc b827 94bd
00000180: 4c64 01be 20a1 63bd 4d0e 3bbc e735 67bd
00000190: 0403 bebd 8b22 0fbe 9e33 4a3b 95a3 0f3c
000001a0: 77c2 56bd 4e43 dfbd a706 a03c 37b8 9ebd
000001b0: 33f0 b3bd 1cc4 29be afcd cbbc 3d9c 0ebe
000001c0: 0a4b ad3c d149 f3bd 7fe5 a0bb 49e4 53be
000001d0: 0e89 02bb 1724 b8bd 640c 5abd e1fe b1bd
000001e0: ee7a 77bd 7dee e73c 2e86 2cbd cf01 93bd
000001f0: 0766 d6bd 78df 923d e07a a1bd 9137 19be
00000200: 02a3 f1bd 20e9 f5bd 887a ddbd 025a 4fbd
00000210: 7305 b8bd 9656 76bd 7dde 83bd 2eb8 40bc
00000220: e9f1 303d c1b7 1dbe 17af c3bc 16b0 12be
00000230: 7afc acbb f40a 96bd 3798 4a3d a8d9 6ebd
00000240: cf8e cc3c ac90 bfbd e567 bcbd 4403 8ebd
00000250: 6893 72bd 6159 863c b67a ea3b eaeb 9c3c
00000260: 4f31 7ebd aa50 b6bd 15d0 edbc 8467 22bd
00000270: f2be 0cbe 319d f4bd 35b2 a0bd 6e24 aebd
00000280: e0f3 4bbd 916f 4d3d ce52 bcbd 969b 2c3e
00000290: 34c2 53bd 63d1 24bd acb6 65bc 6a78 1dbe
000002a0: 3f16 b1bd 9fdc a3bd ece6 eabd 69e0 8fbd
000002b0: 99df abbd da0a b4bd 75cc 4bbe 8532 01be
000002c0: 53c8 abbd c29a a1bd cb7e f5bd 1633 30be
000002d0: 2028 85bd e4a8 b43d a60a 8abb 31a1 f93b
000002e0: a35b 84bd a9e4 c6bd 314d 07be a795 37bd
000002f0: 713b a1bc d687 fc3b d217 18bc f8c0 f5bc
00000300: 864a 9abd 11c9 a3bc a843 693c 8a30 48bd
00000310: 28df b8bd e63b 5b3e 1c7e c53d adac d13d
00000320: 0ee4 90bd 0845 89bd 471e 3e3d c136 0abe
00000330: 2deb 573d c143 b7bc d526 ee3d c82b 18be
00000340: 304a f5bd bc1c 55bd 9e63 99bd a5bd efbd
00000350: 0ec0 08bd ea3b eebd 9295 87bd bcf5 7dbd
00000360: 0091 f1bd 5887 0c3e 4177 f33c cefc a2bd
00000370: 99e6 2ebe b6fd d1bd 0131 083d dd16 3abe
00000380: c4db 913b b8ce 6dbd 9f56 edbd ddec 0f3d
00000390: fd6e 8abd 11bc 20bd a194 64bc b573 2cbd
000003a0: da39 2ebc 8c46 a03c 55fb b7bd 68db 91bd
000003b0: 49f5 7cbc 90f1 84bc 3819 12bd de7e c3bd
000003c0: 225e a7bd 013b 803d 9ed0 71bd 9eb0 47be
000003d0: 0f47 17bd 12c7 00bd 65b6 cdbd 5e97 f4bd
000003e0: 46c5 a1bc a163 59be a913 f4bb 98c2 353c
000003f0: 497d 78bd b1ab b2bc 56a9 57bd 6937 fdbc
-0.03377056 -0.0356784 -0.0520799 -0.105233 -0.079297364 -0.03328865 -0.00072666706 -0.0009700526
-0.17731172 -0.12655261 -0.052694328 -0.06469928 -0.026649458 -0.010653685 0.10111561 0.030476267
-0.15654345 0.036969233 -0.057366077 -0.1317815 0.09359045 -0.09874865 -0.08509818 -0.040439162
0.13419603 -0.12600139 -0.045499213 0.0044404897 -0.16473006 -0.012182602 0.0019583579 0.07720162
0.1290586 -0.06302323 0.07000648 -0.102525145 -0.12579834 0.040959734 -0.022647042 -0.0060081095
-0.014785204 -0.021065671 -0.14187795 0.029191894 -0.024793098 -0.047148608 -0.01681998 -0.041806303
-0.09373064 -0.071766324 -0.026160466 -0.08435423 -0.10085043 -0.022127626 0.16153039 -0.12764122
-0.084752426 -0.08291402 -0.015815975 -0.1029048 -0.09462152 0.016910987 -0.008315215 -0.06780964
-0.11284197 -0.028178014 -0.043052666 0.011784577 -0.04232065 -0.024035087 -0.032301433 -0.0594676
-0.0727015 -0.09531999 -0.026391907 -0.05097791 0.006394709 0.03529497 -0.0803483 -0.19898464
-0.08468405 -0.035186972 -0.15599687 -0.0139939375 0.012380605 -0.16843262 -0.0637237 -0.029545197
-0.011287888 -0.00056193746 -0.05034646 -0.08911996 -0.05557399 -0.0331532 -0.024079517 -0.07234138
-0.12635916 -0.055573583 -0.011416984 -0.05644789 -0.09277919 -0.13978021 0.003085352 0.008767028
-0.05243155 -0.10901509 0.019534422 -0.0774998 -0.08786049 -0.16578716 -0.024878351 -0.13926788
0.021153945 -0.11879314 -0.0049101706 -0.20692553 -0.0019918117 -0.089912586 -0.053234473 -0.086911924
-0.06041997 0.028311962 -0.04212015 -0.07178079 -0.10468679 0.071715295 -0.07884765 -0.14962603
-0.117986694 -0.12007356 -0.108143866 -0.050622948 -0.08985414 -0.06014117 -0.06438921 -0.011762662
0.043199454 -0.15402128 -0.0238872 -0.14324984 -0.005279121 -0.07326308 0.04946157 -0.058313042
0.02497044 -0.09353766 -0.09199504 -0.069342166 -0.05922261 0.016400041 0.0071557416 0.019155461
-0.062058743 -0.08902104 -0.029029885 -0.0396495 -0.13744715 -0.119440444 -0.0784649 -0.08503042
-0.049793124 0.050155226 -0.09195481 0.16856226 -0.05169888 -0.04023875 -0.014020603 -0.15377966
-0.08646821 -0.080010645 -0.11469826 -0.07025225 -0.08392257 -0.08791132 -0.19902213 -0.12616928
-0.08387818 -0.07890846 -0.119870745 -0.17206988 -0.06501794 0.08821276 -0.004212695 0.0076180925
-0.06462791 -0.09711582 -0.1321304 -0.044820454 -0.019681664 0.0077066226 -0.009283023 -0.029999241
-0.075337455 -0.019993337 0.014237322 -0.048874415 -0.09026939 0.21409568 0.09643194 0.102380134
-0.07074748 -0.0670262 0.046415593 -0.1349745 0.052714515 -0.022371175 0.116285 -0.14860451
-0.11977041 -0.052029356 -0.074897036 -0.11706094 -0.033386283 -0.116325215 -0.06620325 -0.06200193
-0.11795235 0.13723505 0.02971995 -0.07958375 -0.17080154 -0.1025347 0.03324986 -0.18172784
0.004451247 -0.05805847 -0.11588787 0.035138 -0.067594506 -0.039241854 -0.0139514515 -0.042102534
-0.01063391 0.01956489 -0.08983485 -0.071219265 -0.01543934 -0.016228467 -0.03566858 -0.09545682
-0.08172251 0.06261254 -0.059036843 -0.19500968 -0.036933 -0.03143985 -0.100445546 -0.119429335
-0.019747388 -0.21229412 -0.0074486327 0.011093758 -0.060666356 -0.021810384 -0.052651726 -0.03091021

Linear3.weight f4 [256, 256]
00000000: f070 79bc b443 84bc 651b 5ebb d2e8 eebd
00000010: d3e5 9cbe 9fa8 f2bd e793 ea3c 13da 6b3c
00000020: 7cc4 41bd 88dd 3a3d 49de ea3c bd04 28be
00000030: 8db0 7bbe eb1e debc e39f e8be 5f8f 50bc
00000040: ae62 283d 1328 f9bd 80e5 b93d bb78 1abe
00000050: a2c3 89be e331 10bc e0d0 5bbd 17c5 1a3b
00000060: 11e9 bfbc b06a ba3c 9b0c 94bc 6221 cebc
00000070: d7f9 583b 519b 0cbe 681e 8cbd 1d6e d7bd
00000080: 9d1a 00bf 4637 2dbe c3ca ebbd df24 9dbd
00000090: 2f20 f0bd f8b7 d0bd 1a2a 81bd d5da 86bd
000000a0: 877a 0fbd 6423 b03d f950 bdbd dd98 11be
000000b0: 8233 85bc fb9e 42bd 5884 c5bc d402 efbd
000000c0: 1a26 14bd f806 fdbc 5c2b 09be 6b85 20bd
000000d0: 6b3c 6ebe f06b 9bbd 6d34 10be 0a64 eb3d
000000e0: 25f6 48be a5b7 04bb 04f5 883c b148 88bc
000000f0: f9d1 93bd b7b3 03be ed71 4abd 4a4a 19be
00000100: d7e4 c4bd 9e90 06be f6b1 0cbd 9033 253d
00000110: 901b 16bd 396e 103e 57ad 0bbe 556d 163a
00000120: 1148 a33d 5fc2 dbbd 5941 23bd 0c18 90bd
00000130: be0b 64bd 2bd5 07bd 6f73 853b 0e8b 6dbd
00000140: 2299 4abc 41a7 66bd 16ee a63e fe4a 7c3e
00000150: 9a05 73bd 438e c13c d872 a8bd a04d fbbc
00000160: 3e9f 9e3c f498 4a3d d559 9ebc 4522 3f3d
00000170: bfcf 8b3d 4354 773a 8252 d6bd 8ebf 9f3c
00000180: 4773 09bd 4f3e 2dbd eaac 28be 8b33 b5bb
00000190: fc0e 613d 2993 edbc 806d 043e bf3f 00be
000001a0: 14ae 9ebd b6bf 75bd bb3d da3d 04a5 71bd
000001b0: beee 07bd 7cae 60bd 8a53 32bd 7b94 22be
000001c0: b3ce 16be ff2c f5bd 0ef3 94be a449 f93d
000001d0: 3257 3abd 1821 2cbe 847e 71bd 0688 adbc
000001e0: 52d2 00bd e4d0 b3bc efbc 7e3c 8ea7 a5bd
000001f0: cf43 fdbc 6d82 2ebe becd 7c3d 6774 f03d
00000200: e012 d6bd fc2b 01be 4b6b d9bc c012 763c
00000210: 2605 48bd 8c4d 543d 2da7 2a3d e0ea debc
00000220: 6805 6dbd 5fa2 fb3c e820 ca3c 1c95 63bd
00000230: f759 0a3d 4f3b 87bc cd7e 573e dd01 f3bd
00000240: 77e8 09be ed5f a33c ffc2 92be 1492 09bb
00000250: 1859 63be 9bf1 173d 4e57 cd3c f0d6 933c
00000260: b65d d0bc 4765 b03d e9a3 463d 0465 663c
00000270: 7ef7 9e3d 044c edbe 3d86 11be 7445 90bc
00000280: 0132 7fbe 2f48 333d a816 52bc 464d 9abe
00000290: eb04 6a3c 3d13 a3bd 3324 c5bc ca4a b73d
000002a0: 2a06 113b f183 29bd 061f 8ebc 46f2 68be
000002b0: 9734 01bc d944 07bb 0784 e2bc 6a0d 963d
000002c0: efbb 3dbe b901 6f3e 1cf4 883c cb29 863e
000002d0: 8c5f 4ebd ee37 62be 645f dd3c e1d1 afbc
000002e0: 4bd8 4dbd 1125 673a 7d51 283d ab72 443c
000002f0: 0765 323c da35 dbbd 470a 9dbd 77a7 5fbd
00000300: a1f7 79bd c166 b33d 919a 0cbc 2807 b3bc
00000310: 0123 53be d3f7 65bd 23cc c2bd 84fd a4be
00000320: 9372 b0bc f715 f63d d4dd 9cbd c509 39be
00000330: d8b8 18bd 828c 373e 7192 e23c dd95 3ebd
00000340: 62e2 dfbb e968 883b f8f2 02bd 0ff8 a03c
00000350: f8ae 87bc ecc7 c4bd 0a70 3e3d 74b2 d43c
00000360: 61e1 113d 7a43 dabe b399 733c 5373 dabc
00000370: bfb5 e1bd fda7 82bd 43cf ddbe 7e47 72be
00000380: 4477 1bbe 260c e2bc c49b 27ba bd56 6c3d
00000390: 7bea f3bc 1d4a 5ebc 4d4b 11bc f25b c53b
000003a0: bf33 e23c 8b3d 1ebb 9edd 103d 503c c23d
000003b0: 4240 8cbc ef31 ec3c 4655 c9be 9041 8fbc
000003c0: f08d 9abd 85f8 1dbe ee4d e7bb c4df ea3c
000003d0: c96b 07be 4001 c2bd 29c5 0ebe 4b49 a8be
000003e0: f763 56bd 3850 a93d 9d75 53be 5a3b 423d
000003f0: f74f ff3b 281c 8ebd efa1 093c d5ce debe
-0.01522468 -0.016145565 -0.003389084 -0.11665501 -0.30644092 -0.11848568 0.028634978 0.014395255
-0.047306523 0.045621425 0.028670447 -0.16408058 -0.24579068 -0.027114352 -0.45434484 -0.012729495
0.041109733 -0.12165847 0.09076977 -0.15085118 -0.26907068 -0.008800956 -0.053665996 0.002361601
-0.023426564 0.02275595 -0.018072417 -0.025162403 0.00331079 -0.13731124 -0.06841737 -0.10519049
-0.5004061 -0.16915616 -0.11513283 -0.07673048 -0.117248885 -0.10191339 -0.06306858 -0.06584708
-0.03502896 0.086005 -0.0924396 -0.14218469 -0.016259912 -0.047514897 -0.024110958 -0.11670461
-0.03616915 -0.030887112 -0.13395447 -0.039189737 -0.23265235 -0.07588947 -0.14082499 0.1149369
-0.19625147 -0.0020251062 0.016718395 -0.016636224 -0.072177835 -0.12861525 -0.049425054 -0.14969745
-0.0961396 -0.13141105 -0.034349404 0.040332377 -0.03664738 0.14104547 -0.13640343 0.00057383376
0.0797273 -0.10730433 -0.039857242 -0.070358366 -0.05567526 -0.033162277 0.0040725986 -0.05799394
-0.012365611 -0.05631185 0.3260352 0.24637982 -0.059331514 0.023627406 -0.0822503 -0.030676663
0.019363042 0.049462274 -0.019329945 0.04666354 0.06826734 0.0009434858 -0.10464956 0.01950052
-0.033557203 -0.04229575 -0.16472211 -0.005529826 0.05494593 -0.029000835 0.12932396 -0.12524317
-0.077480465 -0.059997283 0.106563054 -0.05899526 -0.033186667 -0.0548539 -0.0435367 -0.15876953
-0.14727287 -0.11971473 -0.29091686 0.12172249 -0.045493312 -0.168095 -0.058958545 -0.021183025
-0.031450577 -0.021950193 0.015547975 -0.08088599 -0.030916123 -0.17041941 0.06171965 0.11740952
-0.10452819 -0.12614435 -0.02654042 0.015019119 -0.048833035 0.051831767 0.041663337 -0.027211607
-0.057866484 0.030717073 0.024673894 -0.055562124 0.033777203 -0.016507773 0.21044464 -0.1186559
-0.13467585 0.019943202 -0.28664395 -0.002099161 -0.22201955 0.037095647 0.025066044 0.018046826
-0.02543531 0.08613067 0.04849616 0.01406217 0.07762049 -0.46347058 -0.14211364 -0.017611243
-0.24921419 0.04377001 -0.0128227845 -0.3013708 0.014283399 -0.07962654 -0.024065113 0.08949812
0.0022128918 -0.041385595 -0.017348778 -0.2274867 -0.007886074 -0.0020640402 -0.027650846 0.07326777
-0.18528722 0.23340501 0.016717963 0.2620376 -0.05038409 -0.22091648 0.027023025 -0.021462383
-0.0502551 0.0008817474 0.04109334 0.01199023 0.010888345 -0.10703631 -0.07667976 -0.054603066
-0.061027173 0.08759833 -0.008581773 -0.021853998 -0.20618822 -0.056144547 -0.09511592 -0.32224667
-0.021539008 0.12015908 -0.07659498 -0.18070133 -0.037285656 0.17924693 0.02765772 -0.04652964
-0.006832407 0.004162897 -0.031969994 0.019649534 -0.016562924 -0.096084446 0.046493568 0.025964
0.03561533 -0.42629606 0.014868188 -0.026666319 -0.110209934 -0.063796975 -0.4332219 -0.23660085
-0.15182215 -0.027593683 -0.00063937553 0.057699908 -0.029774895 -0.013567475 -0.008868051 0.0060229236
0.027612565 -0.002414557 0.0353676 0.0948416 -0.017120484 0.028832404 -0.3932287 -0.017487317
-0.07546604 -0.15426834 -0.0070588505 0.028671153 -0.1322471 -0.09472895 -0.13942398 -0.32868418
-0.052341428 0.08267254 -0.20650335 0.047419883 0.007791515 -0.06938964 0.008400424 -0.43517175

Linear3.bias f4 [256]
00000000: 7090 3fbe 1d9d a4bd 82c8 503d 449c 5fbd
00000010: 33a9 25be fa4a 8bbd db7a 8dbd 26a9 953c
00000020: b31a 71be c62d 21be afc7 cfbd 6e9f 24bd
00000030: 3459 70bc 4037 1e3e c2cb 4ebe 84c4 3f3e
00000040: 3ed3 0b3e a718 103d bc4f e6bd 9bc9 21be
00000050: ccea ddbd 5758 53bd 8634 20be afeb 77bd
00000060: 4257 8abd 57da cdbd c5a2 043d 26cb df3d
00000070: 4a57 52be d73e 6c3c 7502 c4bd d198 d5bc
00000080: 3869 d3bd acea 0bbe 87a8 803c 56dc 82be
00000090: bafc 5dbc 4d4d 2dbe e7a5 90be 85c1 90bd
000000a0: 45c2 33be 8742 dfbd 9951 36be e3a3 30be
000000b0: 4ddd 12be 9e85 07bd 3bb9 71be 4246 b03d
000000c0: 6af2 acbd 0fc7 aabe ccff 5ebd 181c 7cbc
000000d0: 01bc 6bbe 54b4 febd babc 0cbe 944b d5bd
000000e0: 732c aebd ceeb 56be ba17 8fbc 103e debc
000000f0: 0370 443e 3cb9 d8bd 90bd 46be cfee 7cbe
00000100: 3a5c 20be 60b3 e6bd 1653 3d3d 9044 e9bd
00000110: 749c 81be cfa8 72be 9061 6d3d 00b4 2cbe
00000120: b05f b7bd ed40 a6bd b5ab 76be cb1e c7bd
00000130: 98bb a2bd 12bd 933d 9c13 50be d429 95bb
00000140: b643 ef3d 4825 86bd 6953 1ebe ba33 c23d
00000150: 9724 86bd 2127 b23d e590 23be 23a1 6dbc
00000160: 1132 9abd 8840 8a3d d212 90be c273 dfbd
00000170: 6c74 1cbe 259e 8abd 4ceb 0fbd 8c98 903d
00000180: 4a3e 84be 82dc 09be 0b86 97be ae78 7dbc
00000190: 7783 2ebe abea a43d 5434 5bbe 9879 133d
000001a0: e98e 1cbe f9ed 223d f7bb c0bd 102e 96bd
000001b0: 7cee dfbd 10b3 06be 8fb1 1db9 79cf 41bd
000001c0: 9228 dbbd a8ce ef3d 9dd7 a4bd 1a52 f3bd
000001d0: 10e3 2abe e78d 583e 13cc 1ebd a91d 60bd
000001e0: aac5 32be beb3 7dbe 72f1 4abe 2c65 39be
000001f0: 657a 1cbe c300 7e3d f553 ecbd 47b2 3abe
00000200: 4e7e 06be 7727 4ebe 2d9a d63d a345 36bd
00000210: b153 4ebd 7622 2dbe e010 69bd 5d0b 023c
00000220: 987d d23d 56a1 8bbd a82a 31be a121 0c3c
00000230: a35c 3ebe e123 a8bd a622 82bd 2690 2d3c
00000240: 73a7 2cbe 20ed e33b e09b 7db8 6417 c0bd
00000250: 785a 45be 2df6 4ebe f386 90bd b599 19be
00000260: c4d1 813d 68f0 0fbd e92b c2bc f3b2 95bd
00000270: 9834 57bc f4d0 28be f4da 6abe 855a cfbd
00000280: be13 50be 6467 21be 756b 3abd 2615 3dbe
00000290: db91 6abd 52da b43d 4876 83bd ec5e 57be
000002a0: 0f44 4ebd 1d73 90bd 6d74 84be a614 e33d
000002b0: caa1 0b3d 337e b9bd 342a 84bd 8745 96bd
000002c0: 2476 d3bd e941 04bd 2b8f 9fba 5185 80bd
000002d0: d3d9 4bbe 34f3 a8bd 2a34 49be 40d6 73bd
000002e0: 10b3 2ebd 7c1d 29be 4b0b 84bd c257 a83a
000002f0: 6d9f b2bd 3a3e ba3b 64d6 953d e9cb 12bd
00000300: 71dc 96be 1447 4bbe 4a27 4a3d 5d0f 8ebd
00000310: d0bc 08be 2cf4 bb3d 7fea 97be 5f0f bd3a
00000320: 9ef6 98bc b0ff e5bc 59ad e6bd 1f55 6bbb
00000330: 5f4b 00be 1224 343e 558a 973c 55dd d5bc
00000340: eb94 bf3c 9a1d 95bd 3515 fdbd e20a ccbd
00000350: 52fc 0f3c ae9c d5bd 76f9 20be 8ba9 b53d
00000360: 75a5 1bbe fe23 86bd 49fc 81be 3cdc ddbd
00000370: ca72 cf3d 360c 433b ef6f 613d d627 18be
00000380: a733 dabc 6a62 0abe ebb7 26be c387 11be
00000390: 0401 a5bd c13b 91bd 8d67 75be 87ee 8ebd
000003a0: 2176 be3d 3c50 22be dc25 23be 61a6 22bd
000003b0: 5172 90bd 9411 88bd c996 11bc 70ec 34be
000003c0: f05a 4ebe 232b 29be 73df 0bbe 9172 9cbd
000003d0: 7bdd cf3d 05ee 783d 3c79 f8bd 1997 64be
000003e0: c162 93bd 531a 25be 9506 a0bd ccf4 1fbe
000003f0: 2507 d2bd aa11 8dbe aef0 8abe 6ab8 77be
-0.18707442 -0.080377795 0.05097247 -0.054592386 -0.16177826 -0.0680141 -0.069081984 0.018269133
-0.23545341 -0.15740117 -0.101455085 -0.040191106 -0.014669705 0.15450764 -0.20194915 0.18727309
0.13654801 0.03517976 -0.11245677 -0.15799563 -0.108357996 -0.05159792 -0.15645036 -0.0605275
-0.06754924 -0.10051411 0.03238179 0.10927419 -0.2054111 0.014419279 -0.09570781 -0.026073845
-0.10322803 -0.13663739 0.01570536 -0.25558728 -0.013549024 -0.16924019 -0.28251573 -0.07068161
-0.17554577 -0.10901361 -0.17804565 -0.17250018 -0.14342232 -0.03308641 -0.23605816 0.086071506
-0.08444674 -0.33354995 -0.054443166 -0.015387557 -0.23020937 -0.124367386 -0.13743868 -0.10414806
-0.08504572 -0.2098839 -0.017467368 -0.027129203 0.19183354 -0.10582206 -0.1940825 -0.24700473
-0.15660182 -0.11264682 0.046221815 -0.113900304 -0.25314677 -0.23697208 0.05795437 -0.1686554
-0.08953798 -0.08117852 -0.24088939 -0.0972267 -0.07945937 0.07213797 -0.2031998 -0.0045521054
0.11682837 -0.065500796 -0.15461506 0.09482522 -0.06549948 0.086988695 -0.15973242 -0.01450375
-0.07529081 0.067505896 -0.2813936 -0.10910751 -0.15278786 -0.06768445 -0.035136506 0.07060346
-0.25828773 -0.13463023 -0.29594454 -0.015470667 -0.17042337 0.08052572 -0.2140668 0.036004633
-0.15288891 0.03977773 -0.094108514 -0.073330045 -0.10934159 -0.13154244 -0.00015038832 -0.047317002
-0.107010975 0.117093384 -0.080489375 -0.11880894 -0.1668818 0.21147881 -0.03876884 -0.054715786
-0.17458215 -0.24775597 -0.19818667 -0.18105 -0.15281065 0.062012445 -0.11539451 -0.1823207
-0.13134119 -0.20132242 0.104786254 -0.044500005 -0.050372783 -0.16907677 -0.05690086 0.0079372795
0.10277861 -0.06817882 -0.17301428 0.00855294 -0.18590026 -0.08209968 -0.06354265 0.01059345
-0.16860752 0.0069557577 -6.046507e-05 -0.093794614 -0.19272792 -0.20211096 -0.070569895 -0.15000041
0.06338838 -0.03514138 -0.023702579 -0.073095225 -0.013135098 -0.1648596 -0.22935086 -0.10124687
-0.20320031 -0.15762097 -0.045512635 -0.18465099 -0.057268005 0.08830704 -0.06419045 -0.21032304
-0.050357874 -0.07053206 -0.25870076 0.11087923 0.03408984 -0.09057274 -0.06453362 -0.0733748
-0.10325268 -0.03228942 -0.0012173405 -0.06275428 -0.19907312 -0.08249512 -0.19648805 -0.059530497
-0.042651236 -0.16515154 -0.064474665 0.0012843537 -0.08721814 0.0056836875 0.073162824 -0.035838995
-0.29465058 -0.19851333 0.049353875 -0.06936524 -0.13353276 0.091774315 -0.29671094 0.0014424137
-0.018672284 -0.028076023 -0.11263532 -0.003590889 -0.12528752 0.17591885 0.018498579 -0.026106516
0.02338644 -0.07281037 -0.123575605 -0.09963013 0.008788185 -0.10430275 -0.15720162 0.088702284
-0.15199836 -0.06549834 -0.2538779 -0.10833022 0.10129316 0.0029761917 0.05503839 -0.14858946
-0.026635958 -0.13514104 -0.16281097 -0.14211945 -0.08056834 -0.07091475 -0.23965283 -0.06979089
0.09299875 -0.1585092 -0.15932411 -0.039709453 -0.07053054 -0.06643978 -0.008886048 -0.17668319
-0.20151877 -0.16520362 -0.13659458 -0.07639039 0.10149666 0.060773868 -0.121324986 -0.22323264
-0.0719657 -0.16123323 -0.078137554 -0.15620726 -0.10255269 -0.2755254 -0.2713675 -0.24191442

Linear4.weight f4 [7, 256]
00000000: 6152 47bc a2ec 1c3d 1b16 b7bd 663b 5ebd
00000010: 5ea3 a43b 3062 263c 15af 5b3d 19d8 1dbe
00000020: 9ffb 5a3d 4c02 67bc f35e 843d 486b 82bc
00000030: a0a5 823d 5989 b4bd ae31 b7bc f2a0 32be
00000040: 9100 09bd 3b99 3abd 92eb eb3d 4491 433d
00000050: 25ee 46be 6794 97bd 96d4 9f3c 2684 28bd
00000060: 6cd7 213d 229a a03c 4c30 84bd 8646 963d
00000070: 204f 92bd ebf2 d33c ca10 ae3d c7ad ffbc
00000080: fb2d 94bc 1d13 b93a 3ba4 c9bb e5f9 103d
00000090: 845d 72bc b5a3 ccbe f101 313e 57e1 ca3b
000000a0: 72c2 18be 7f88 ec3c 62f2 543d 41be 863d
000000b0: e912 c7bd 7771 523d 24da a73e 9074 04bd
000000c0: e8bb 7cbc f4b6 553c d836 b4bc 67f0 0f3c
000000d0: 9979 343d bd0a 8eba b4cd 3d3d ad87 34bd
000000e0: 4bc2 31bc 9d39 a9bb 72d1 4cbc c798 a4bc
000000f0: 4680 35bd 6c23 2abd b151 edbd 2e20 823c
00000100: b09b 32be 31ec 12bb 0b9d a5bd bdc5 083c
00000110: 264a 34bd e12a e23d ff1b 95bc 34c7 a3bc
00000120: 0d4b 9e3c 7b25 dc3c 3543 a33c 1113 c53d
00000130: 5760 acbd bdd7 f93c 6308 a23d c2de 673e
00000140: ef83 d4bc 0165 613d 6861 3cbc 31b2 2ebd
00000150: d1bf 0a3e 0475 d3bd aa71 643d c296 673e
00000160: 9434 703c 3608 c63d fdae fe3e 87ae a03c
00000170: 138b 64bc f1d4 8bbd ba29 9e3d 9af4 a93d
00000180: 9d0d a8bd 08d6 11bc 15fc 58bd 2bb7 f03c
00000190: da43 1d3e 8d23 e33c 9445 80bd 5b23 063d
000001a0: 295d 57be c1ef a33d 4353 abbc 9889 fbbd
000001b0: cbbf d5bd 7e1e d43d 39d1 8f3d c347 133d
000001c0: 7edf 6fbd c698 b8bd ccee 3d3c 0ae9 14bb
000001d0: 1365 333d 3670 f23c e810 92bc c6de 77bc
000001e0: c626 39bd 00dd 6bbc f1a1 c3bc 12e3 64bc
000001f0: 0659 17bb aa6d ddbb e120 903c 4924 debc
00000200: dbfd af3b f38b a5be 0b14 753c 8f1b 173d
00000210: 021e 40bc ed70 dfba 9b63 493d 5980 23be
00000220: d442 7bbd c352 79bd ebbd 0cbe 3474 db3d
00000230: fdb5 dd3d 997d dbbd aafc 33bc 9b7b 7e3d
00000240: fdea 3fbd 0cf2 8b3d dbf6 c3bc 588a 0c3d
00000250: 2f5b 17bc d837 82bd fb9f 0c3d d20b c03c
00000260: a012 67bb 8515 24bc 8179 f93c e958 b7bc
00000270: 89c8 19bd ea46 4a3d b9f4 69bc 5431 d43d
00000280: dbe9 1abc c2c6 483e 43af 4dbc 39ef 45bd
00000290: d261 533c 4c08 31bd 6ff2 243c 622f 033d
000002a0: d2fd d3bb 7727 a9bc 4b92 103d 11dd b8bc
000002b0: d869 663c d611 753d 5e20 1f3d 6033 ff3c
000002c0: 4666 c8bc 902a 1e3d 0c8d 79bd a5b5 243d
000002d0: fec2 83bc 00ef a2bd d1aa b6bd 024f efbd
000002e0: 6654 593d 7acf 943d d714 e2bc 99f8 473c
000002f0: a6d2 ec3b 237e 173d 094a 393e f806 b63c
00000300: eab2 813f 0a8b 34bd 18a8 1bbd cbf2 17be
00000310: c13f 89bd c4ff 5abc a2aa f73c 1c15 283d
00000320: 148c c23b ab23 1cbe 3132 a0bc d518 1e3e
00000330: 77b5 7c3e fa11 e8bc 1f62 ad3d d2a7 dc3b
00000340: 20e1 32be 04dd 85bc 2929 0abd 7156 193e
00000350: 942f 96bc 998d 983b 8185 363e bd1c 37bd
00000360: c976 9e3d c77a b5bd 0546 1a3e 448f eabd
00000370: 9dc5 63bc f7fb 4f3c 3a9b 68bc ce82 b0bd
00000380: eb46 a9bc 4062 f5bb a683 e4bb 1200 24bd
00000390: a155 3b3e 5b62 f2bc 59f0 943d 1155 21bd
000003a0: 20b2 77bc e603 15be dd8f fe3d b0fd 6bbc
000003b0: a569 a8bd 14ab 8c3d be61 ec3d 789a 2bbd
000003c0: dee4 a63c 64d9 21bc eed5 943d a339 733d
000003d0: 368a 5cbc 8165 ab3c 0673 623d 28e7 fd3c
000003e0: 8699 aa3d b6d3 1d3d b839 943d e3dc ff3d
000003f0: 28e6 5f3b 3c7d 10be 97d9 543c 664e 05bc
-0.012165637 0.038311608 -0.08939763 -0.054255866 0.0050243577 0.010155246 0.053633768 -0.15414466
0.05346262 -0.014099669 0.064634226 -0.015920296 0.06379247 -0.088152595 -0.022362556 -0.17444208
-0.033447806 -0.04555629 0.11519541 0.047745958 -0.19426782 -0.074013524 0.019510549 -0.04114165
0.039512083 0.019604746 -0.064545244 0.0733767 -0.07143998 0.025872668 0.08499296 -0.031210793
-0.018088331 0.0014120076 -0.006153611 0.035394568 -0.014792804 -0.3996865 0.17285897 0.0061914134
-0.14917925 0.02887368 0.051988967 0.06579257 -0.09720404 0.05137774 0.32783616 -0.032337725
-0.01542566 0.013044108 -0.021998808 0.008785344 0.044061277 -0.001083694 0.046338752 -0.044074703
-0.010849546 -0.0051643387 -0.0125011075 -0.020092381 -0.044311784 -0.041537687 -0.11587847 0.015884485
-0.17442203 -0.0022418613 -0.08086594 0.008347926 -0.044016026 0.11043335 -0.018201826 -0.019992448
0.019322896 0.02687334 0.019929508 0.09622777 -0.08416813 0.03049838 0.07911756 0.22643569
-0.025941817 0.055027965 -0.011497833 -0.042650405 0.13549735 -0.10325053 0.05577246 0.22616103
0.014660973 0.09669535 0.4974288 0.019614471 -0.0139491735 -0.06827725 0.077228025 0.08298607
-0.082057215 -0.008901127 -0.05297478 0.029384216 0.15357915 0.027726913 -0.06263271 0.03274856
-0.21031632 0.08004714 -0.020913726 -0.12282103 -0.10436972 0.103573784 0.07022328 0.03595711
-0.058562748 -0.09013514 0.011592578 -0.002272191 0.043797564 0.029594522 -0.017830327 -0.015128797
-0.045202993 -0.014395952 -0.02388093 -0.013970153 -0.0023093834 -0.0067574577 0.017593803 -0.027116911
0.005370838 -0.32333335 0.014958392 0.036891516 -0.011725904 -0.0017047204 0.049167257 -0.1596693
-0.06134303 -0.060869943 -0.13744323 0.10715523 0.10825727 -0.10717315 -0.010985533 0.062129598
-0.04685496 0.06833276 -0.02392142 0.034311622 -0.009238048 -0.063583076 0.034332257 0.023443136
-0.0035258904 -0.010014896 0.030453445 -0.022381263 -0.03754476 0.049384035 -0.014279538 0.10360971
-0.00945517 0.1960707 -0.012553993 -0.048323844 0.01290174 -0.043220803 0.010067566 0.03202761
-0.0064694667 -0.020648701 0.035295766 -0.02256635 0.014063321 0.059831463 0.038849227 0.031152427
-0.02446283 0.03861481 -0.06092553 0.040212292 -0.01608419 -0.07955742 -0.089192994 -0.116849914
0.053059004 0.072661355 -0.027597828 0.012205266 0.0072272597 0.036985528 0.18094648 0.02222012
1.0132725 -0.04407791 -0.038002104 -0.14838712 -0.06701613 -0.013366643 0.030232731 0.041035756
0.005937109 -0.15247981 -0.019555183 0.1543916 0.24678598 -0.028328884 0.08465981 0.006733873
-0.17468691 -0.01634074 -0.03373066 0.14974381 -0.018333234 0.0046555516 0.17824365 -0.04470514
0.077375 -0.088613085 0.15065773 -0.11453107 -0.013902095 0.01269435 -0.014197165 -0.08618699
-0.0206637 -0.007488519 -0.0069737015 -0.04003913 0.18294384 -0.029587915 0.07272405 -0.039387766
-0.015118152 -0.14552268 0.124297835 -0.0144037455 -0.08223275 0.06868568 0.1154208 -0.04189536
0.020372804 -0.00987849 0.07267366 0.05938114 -0.013460686 0.020922424 0.055285476 0.030994013
0.083300635 0.03853198 0.072375715 0.12493303 0.0034164283 -0.14110273 0.012991331 -0.008136367

Linear4.bias f4 [7]
00000000: 77e2 43bc f5f0 2a3e 931f 023d 33d9 0b3d
00000010: 0e11 0ebe 484d 743e adbd acbd
-0.011955849 0.1669348 0.031768393 0.034142684 -0.13873693 0.23857605 -0.08434615
