dataBase/niceNet/joint/20230304_DDPG随机点_1/9_actor_net.pkl (torch, 550223 bytes, 8 tensors)

Linear1.weight f4 [256, 13]
00000000: fa99 03bf 42c0 7e3e 1315 b3be 1d85 663c
00000010: 370a 393d e14d 193e 9ebe e43d aa13 9c3e
00000020: 8c57 e4bc a5c9 1cbc aa01 19bf c71a 063f
00000030: 4166 30bf 0afa aebf 3516 c3be 114b 19bf
00000040: 5a2c 933e 67a4 07be 9ad2 bf3e f675 8cbe
00000050: 816d 3fbe 3873 273d 92b5 cdbd 90c2 95bd
00000060: 5b6d 65be 6970 0abe 5a64 f83d 7f69 78bf
00000070: 3418 1fbf c1b4 cfbd 1aa7 9bbd 6444 f63e
00000080: 30aa 32be 01ad 0bbe 3af5 253d fbdf 203e
00000090: 78b9 7abf 53ab 8d3f ac90 fbbe 9855 c9be
000000a0: 9552 93bf d9b3 b5bf 9787 ae3e 8605 d3be
000000b0: e23e c4bc 607e 913d e995 873e 4ec9 bebc
000000c0: f020 613e bcf8 30be 5906 ce3e 5d52 1d3d
000000d0: cd36 5fbf 11ea a53e 6515 54bf b962 32be
000000e0: 49ac 5a3b cd1e 7f3d 59ae 08be f629 2c3e
000000f0: 6ac3 8c3e a698 413e d8d6 57bf 5b0a acbe
00000100: d4cc 54bf 8ce3 49bf 4291 2c3e 2185 14bf
00000110: 724f 143d 555b 443c f706 bf3d 7eb7 9c3d
00000120: 672e 4e3e b8b2 17be 5ea0 f5bb 0fc1 833d
00000130: 5f84 94bf 6d69 0ebf 55cf 1bbe 64ed 6d3e
00000140: 84fe a6bf ece8 283f 50e6 b0bd b367 89be
00000150: 3dfa 5c3e 5ac0 033e 26f4 aabe ffe9 3d3d
00000160: dac1 df3d 9e40 e0bf bcd1 d9bd 7fa1 eebe
00000170: e4eb 223f e959 8cbf c249 32be f6ac b63b
00000180: aa70 7dbe 581a 7e3e 0e9f 353e 70ff b1be
00000190: bbbf 803e 56be 93be e4e5 12bf f3a4 4fbf
000001a0: c990 0cbf c35f c5be c46e 83bf a4c0 8abc
000001b0: 4e48 593e b3ac 1c3e 4f7b 703e 08c3 1b3e
000001c0: b35e 52bc efe4 293b 586c 99be c6e2 bcbe
000001d0: 10cb 64bf 8f79 903e 4c7b ad3e d8aa 9dbe
000001e0: f0cf 10be 22ce d5be 18c1 63be bc5d a03e
000001f0: 8cf5 75be 6f9c d8be 4f0c 85bd 10ee 03be
00000200: 16ce febe 2705 73bf 7683 debe f5ba 9abc
00000210: b3c7 94bf cb21 c8be 34de a0bb b6a2 3b3f
00000220: e2a6 4c3d 58b2 e1bd 87a8 54be f1ab 95bc
00000230: 22f4 053d 426a 353f bc82 e43e 3a45 41be
00000240: a9b2 b2bf d8a8 5bbf 947a 313d e3c0 8a3b
00000250: 318c 1cbe b4f9 dfbd eda9 30be 9557 06bf
00000260: 2a5b c13d 7975 073e 5e56 23be 1343 a4bf
00000270: 91f5 1c3f 0497 f7bf 05cd ad3e db6e 3bbe
00000280: bf03 17be 7c59 193d cdd1 8bbe d658 84bd
00000290: 02c4 243e 6632 1ebd 1056 7ebf 4a2e 1b40
000002a0: 86cb bcbf cd50 1bbf 96df e43d e183 60bf
000002b0: ad45 063f afc6 6cbe 19a4 2dbe 26d2 ec3e
000002c0: 5819 bdbc 4ac4 be3a cd4a 503e b709 10be
000002d0: cb2a eebd 91a5 d1be fa01 95be eb12 0b3f
000002e0: b488 b9bd 07c9 4f3e c612 80bc 06e6 c5bd
000002f0: 7b0a fdbd 42b3 5a3f f88e 153d 51b8 48be
00000300: 241f 13bf 95c9 09bf fb2c dcbe 4dbf 17bf
00000310: e91a d2bd 4a72 20bc 03f8 1bbd 5edc ab3e
00000320: b7b8 e43e 23d4 923e 835b 893d cb58 c6be
00000330: 04c9 3b3c dd15 aabe a6fe 2c3f 670e fbbc
00000340: 33fd 16be a6b2 363e aeef a1be 7a87 d33d
00000350: 6e65 a53d f4d8 ac3d a5fb 783e 139e fa3d
00000360: 7b3c 34be cd98 f93c b4a9 87be ec8b fabd
00000370: fa76 08bf 2ae3 f43e 6e27 babe 103a 643e
00000380: ec3f 583d 870a 433e 274f c33e 9195 a23d
00000390: a1b6 b33e 1e73 c63e 36d4 39bd 8b47 99be
000003a0: cb27 ed3f 3cda 003d cab4 00be af1a b6bf
000003b0: 24a1 133f ca45 f03c 55f4 cc3e f26e b33e
000003c0: 45fc 423e 0404 e93e 391c ccbe df7f d83c
000003d0: 1f24 a4be 6fbf 633f 609f f63b f660 a5bf
000003e0: fd67 4dbf 6dda ddbe 33d9 25be bb89 a03e
000003f0: 64a2 3d3e 7bf7 633e 237a 24bd 6d23 1cbe
-0.51406825 0.24878028 -0.34977016 0.014069823 0.045175757 0.14971115 0.1116917 0.30483752
-0.027873777 -0.00956956 -0.59768164 0.5238461 -0.6890603 -1.3670056 -0.3810288 -0.5988017
0.28744775 -0.13246308 0.37465364 -0.27433747 -0.18694116 0.040881366 -0.100443974 -0.073125005
-0.22404997 -0.13519444 0.121285155 -0.97035974 -0.62146306 -0.10141898 -0.076002315 0.48099053
-0.17447734 -0.13640215 0.04051707 0.15710442 -0.9793925 1.1067909 -0.49133813 -0.39323115
-1.1509577 -1.419551 0.34087822 -0.41215152 -0.023955766 0.07104182 0.2648156 -0.023289349
0.21985221 -0.17282385 0.40239218 0.038408626 -0.87192994 0.3240514 -0.82845145 -0.17420472
0.003336685 0.062285233 -0.13347758 0.16812882 0.2749284 0.18905887 -0.843122 -0.3360165
-0.8312504 -0.78862834 0.16852286 -0.5801564 0.036208577 0.011984666 0.093275 0.07652186
0.20134889 -0.1481427 -0.007495924 0.064333074 -1.1602896 -0.55629617 -0.1521581 0.23235089
-1.3046422 0.6598041 -0.086376786 -0.2683693 0.21579833 0.12866345 -0.33389395 0.046365734
0.10925646 -1.751972 -0.10635707 -0.46607587 0.6364119 -1.0964938 -0.17410949 0.005574818
-0.24750009 0.24814737 0.17736456 -0.34765196 0.2514628 -0.28856152 -0.57382035 -0.8111107
-0.54908425 -0.38549623 -1.0268178 -0.016937561 0.21218988 0.15300255 0.23484538 0.15211117
-0.012839961 0.0025923809 -0.29965472 -0.36891764 -0.8937235 0.28217742 0.3388313 -0.30794406
-0.14141822 -0.4175883 -0.22241628 0.31321514 -0.2401945 -0.4230685 -0.06496488 -0.12883782
-0.49766606 -0.94929737 -0.43459672 -0.018887976 -1.1623443 -0.39088282 -0.004909301 0.7329515
0.04996384 -0.110203445 -0.20767413 -0.018270465 0.032703526 0.7086526 0.44630992 -0.18874064
-1.3960773 -0.8580451 0.04332979 0.0042344197 -0.15287854 -0.10936299 -0.17252322 -0.5247739
0.09441216 0.13228406 -0.15950915 -1.283297 0.61312205 -1.9342961 0.3394548 -0.18304007
-0.14747523 0.037438855 -0.27308503 -0.064622566 0.16090396 -0.038622282 -0.9935007 2.4247003
-1.474961 -0.6067017 0.11175458 -0.8770123 0.52450067 -0.23122667 -0.1695713 0.4625408
-0.023083374 0.0014554348 0.20341034 -0.14066206 -0.11629256 -0.4094663 -0.2910307 0.5432574
-0.09059277 0.2029153 -0.015633952 -0.09663014 -0.123555146 0.85429776 0.0365133 -0.19601561
-0.5746939 -0.53823215 -0.43003067 -0.59276277 -0.10259039 -0.009792874 -0.03807832 0.33566564
0.44672176 0.28677472 0.067069076 -0.3873962 0.0114615 -0.33219805 0.6757606 -0.030646516
-0.14745025 0.17841586 -0.31628174 0.103285745 0.08075987 0.08439818 0.24314745 0.122371815
-0.17601196 0.030468369 -0.2649666 -0.12233719 -0.53306544 0.47829562 -0.36358207 0.22287774
0.052795336 0.19046985 0.38146326 0.07938684 0.35100272 0.38759702 -0.045368396 -0.29937395
1.8527769 0.031458125 -0.12568966 -1.4226893 0.57667756 0.029330153 0.4003016 0.35045582
0.19041546 0.45510876 -0.39865282 0.026428161 -0.32058808 0.8896398 0.007526323 -1.2920215
-0.802368 -0.43330708 -0.16196136 0.3135508 0.18518978 0.22262375 -0.04015554 -0.15247889

Linear1.bias f4 [256]
00000000: f876 3abf c9f7 21bf 2bee f2be 6a75 27be
00000010: 5ecd 27bf b7f9 73bf 3b36 d6be b8ed 47bf
00000020: d1ad 18bf 8b2b 25be bd8e d0be f687 e1be
00000030: 9cc3 e83e a9ee e5bd d59b d4be 6b9e 69bf
00000040: 401c 59bf 94f6 48be 32dc 08bf 18ee f4be
00000050: 4dc2 32bf 6cb6 9dbe f47c f9be 8816 07bf
00000060: 12a5 50bf c176 2dbf e6d0 07be 9191 3c3e
00000070: 2b3c d7be 9b57 3cbf 7865 17bf 2996 9dbe
00000080: acd8 1abf 2a18 19bf f7ca 13bf f1ca 60be
00000090: ac01 32bf 349a 72bd 35f6 6dbe 415e 9fbe
000000a0: 4a88 f1be 1eec b2be 5099 ebbe d843 a2be
000000b0: cf86 f6be d816 39bf 03d9 bfbe f1db 36be
000000c0: 3fd4 0dbf 63b7 70bd 9ca0 21bf 8724 23bf
000000d0: cd20 81be 8b8c 7c3d 88d7 2fbe 09a3 c8be
000000e0: f9f1 5ebf fa67 9cbe ab7f f2be f904 20bf
000000f0: d1e2 c4be 41e0 5cbe 7301 82be f281 d8be
00000100: 024d ffbe ade7 9fbe 684a 06be 05ae c6be
00000110: 226b 01bf 0ba1 8dbe 24e2 4abe 3018 6bbe
00000120: d5d0 a9be 4aef 35bf 2682 0ebf 959a 4abe
00000130: 312a b6be 2035 0ebe 6067 eabe b834 11bf
00000140: ee3f fabe fd65 11bf 13b7 9d3e 0c5b 9ebe
00000150: 9426 82be e099 da3d 606a 19bf c969 03bf
00000160: 21da bdbd a525 fabe 5db9 b0be dc7f 3dbe
00000170: 35d8 05bf 9c1a c2be e1d6 f6be 4d03 b2be
00000180: b43f 213e f651 fbbe 4c90 2abf 2747 cdbe
00000190: 8c35 c4be ad54 1bbf 86ba 1abf b23b a63d
000001a0: 1d07 54bf 6910 75be 942a 8dbe 3cad 89be
000001b0: 58cb 1cbf 5164 81be 8ab4 42bf 8f5f 25bf
000001c0: e1a7 843d 7ab1 1cbf bf78 c3be 0480 03bf
000001d0: d807 98be 2590 cb3d a05b 4abd f040 efbe
000001e0: 4d09 4fbf af9f f1be 57c5 d9be f182 52bf
000001f0: 5e6b c6be 5577 84be 887d 51bf a9e0 95be
00000200: e6e1 00bf ac44 b9be a30b e2be 8c8b f6be
00000210: 281c 07bf c380 29bf d75f f9be e273 04bf
00000220: 98ee 4abf 183e 14bf 397b cbbe a755 1bbf
00000230: 70cd 51bf 53fe 37be 1286 16bf d12b 05bf
00000240: dbb4 a2be fc91 05bf 3026 15bf 09ff 15be
00000250: 7f48 4bbe d50a 1fbf 1d10 e7be db88 133e
00000260: 74ff f5be 88be f2be 30fe e7be 13f7 55bf
00000270: 3444 f6be 0405 31bf f7da 60bf 7e88 14bf
00000280: 6ec2 dabe 4544 82be 086c 33bf c7a7 c4be
00000290: 4dc1 19bf 5ea1 96be d3a8 f3be 1757 05bf
000002a0: 3fff 7dbe 2f66 84be 096a 8abe 44a3 19bf
000002b0: a8af 423e b86e 0fbf 275e bbbe 045e 0ebf
000002c0: 9b9c 0dbf 0734 39bf 2c35 1abf 1ea0 0dbf
000002d0: 3c1d babe 19eb 0dbf c707 66bf d7ed 0dbf
000002e0: 0393 5cbe d221 a0be 612c 86be e554 a8be
000002f0: c6fe 55bf c2b4 05bf 66ff 913d cfb8 86be
00000300: 5d20 22bc c7aa 9abe 7de9 1dbf beec 11bf
00000310: 55ba 2cbf c97f b9be 49ae 0dbf bca4 bbbe
00000320: eb1e febe 5450 51bf 762a d6be 4408 08bf
00000330: 8fa6 5fbf 7322 09be 0e6c e0be 85be 40bf
00000340: df3c 15bf ee69 77be 5d07 f5be 2fa2 09bf
00000350: f6fc 57bf f70d 9bbe 7a7d 89be c981 27bf
00000360: 5789 f1be 00fb 3abe ba72 37bf 57ac febe
00000370: fbac 933e 2305 03bf 7ae1 44be 85e8 86be
00000380: 6234 fabe ee9b 35be fb1e 00bf 6620 a5be
00000390: 9252 e2be cf79 febe 13a3 dcbe a90c 5abf
000003a0: 8287 3cbf 2749 3ebf a3eb dcbe 528a 43be
000003b0: ab97 45bf 652a 07be e57e 38bf 8388 35bf
000003c0: 0c2b b7be bc5c 8abe 18b9 2fbf 5707 bcbe
000003d0: b8e7 3fbf 8a7a a9be 361a 2dbf b41f 51be
000003e0: 51cd 1d3c 3fe0 13bf 5272 503e 37b0 483e
000003f0: 13b2 18bf 412a 33bd 975a f6be ff02 b2be
-0.7283778 -0.63268715 -0.47447333 -0.16353384 -0.6554774 -0.9530291 -0.4183825 -0.78097105
-0.5964022 -0.16129892 -0.407339 -0.44049042 0.45461738 -0.112271614 -0.4152514 -0.9125735
-0.8480873 -0.19625312 -0.5346099 -0.478379 -0.6982773 -0.3080324 -0.48728144 -0.52768755
-0.8150188 -0.6775933 -0.13263282 0.18414904 -0.42038092 -0.73571175 -0.59139204 -0.30778626
-0.60486865 -0.59802496 -0.57731575 -0.21952416 -0.695338 -0.05922909 -0.23238452 -0.31126598
-0.47174293 -0.34945768 -0.46015406 -0.31692386 -0.48149726 -0.7230048 -0.37470254 -0.17857338
-0.55401987 -0.05876864 -0.63135695 -0.6372761 -0.25220338 0.06165747 -0.17172062 -0.39186886
-0.8708797 -0.30548078 -0.47363028 -0.6250759 -0.38454297 -0.21569921 -0.2539173 -0.4228664
-0.4986344 -0.31231442 -0.13114321 -0.3880464 -0.50554097 -0.2766193 -0.19812828 -0.22958446
-0.3316714 -0.7106825 -0.5566734 -0.19785531 -0.35579064 -0.13887453 -0.45781994 -0.5672107
-0.488769 -0.56796247 0.30803737 -0.30928838 -0.25420058 0.106738806 -0.5992794 -0.5133329
-0.092701204 -0.48856845 -0.3451642 -0.18505806 -0.5228303 -0.37910926 -0.48210815 -0.34768143
0.15746957 -0.4908597 -0.6662643 -0.40093347 -0.38322103 -0.6067608 -0.6044086 0.08116855
-0.82823354 -0.23932041 -0.27571547 -0.2688998 -0.6124778 -0.25271848 -0.7605673 -0.64598936
0.06477333 -0.6120831 -0.3817806 -0.5136721 -0.29693484 0.09939603 -0.049403787 -0.4672923
-0.80873567 -0.4719214 -0.4253337 -0.8223105 -0.3875379 -0.25872293 -0.8183217 -0.29272965
-0.50344694 -0.36185205 -0.44149503 -0.4815334 -0.5277734 -0.662121 -0.48705932 -0.51739323
-0.79270315 -0.5790725 -0.3974245 -0.6067757 -0.819541 -0.1796811 -0.58798325 -0.52019984
-0.31778607 -0.5217588 -0.58261395 -0.1464807 -0.19851874 -0.62125903 -0.4512948 0.14407675
-0.48046458 -0.4741099 -0.45311117 -0.8358013 -0.4809891 -0.6914828 -0.87834114 -0.5802077
-0.42726463 -0.2544271 -0.7008672 -0.38409254 -0.6006058 -0.29419988 -0.4758974 -0.52086014
-0.248044 -0.2585921 -0.27034023 -0.6001475 0.1901232 -0.5602832 -0.3659527 -0.55612206
-0.55317086 -0.7234501 -0.60237384 -0.55322444 -0.3635043 -0.55436856 -0.8985562 -0.5544104
-0.21540456 -0.31275803 -0.26205733 -0.3287727 -0.8359188 -0.5222894 0.071287915 -0.26312873
-0.009895411 -0.30208418 -0.616844 -0.57001865 -0.6747182 -0.36230305 -0.55344063 -0.3664912
-0.49632964 -0.81763196 -0.4182927 -0.5313761 -0.87363523 -0.13392048 -0.4383244 -0.7529071
-0.58296007 -0.24161503 -0.4785718 -0.537631 -0.8437036 -0.30284092 -0.26853544 -0.6543241
-0.47175094 -0.18259811 -0.71659434 -0.4974086 0.2884291 -0.51179713 -0.19226637 -0.26349273
-0.4886809 -0.17735264 -0.5004727 -0.3225128 -0.4420362 -0.49702308 -0.43093166 -0.8517557
-0.7364427 -0.7433037 -0.43148527 -0.19095734 -0.7718455 -0.13199766 -0.72068626 -0.70911425
-0.3577503 -0.27023876 -0.68641806 -0.3672435 -0.7496295 -0.33101302 -0.6761812 -0.2042225
0.009631471 -0.5776405 0.2035611 0.1959847 -0.5964672 -0.04374147 -0.4811599 -0.3476791

Linear2.weight f4 [256, 256]
00000000: cab4 bbbd cfd1 98bd c188 17bd 4a5b babd
00000010: 12e9 d13b 1128 3ebd a9d0 bd3b 704f bdbc
00000020: 8cf9 54bc a5a3 7fbc 7d16 363b 569e 04bd
00000030: e0a7 95bd de0a a4bc 50a2 a6bd eab3 5abd
00000040: 9238 8bbd 2cbd 1ebd ae25 d1bd 0b0c e43b
00000050: 8435 0c3d 0ff0 c73b a1c2 4a3d f83a fdbb
00000060: 08fd bcbd db67 03bd 6165 49bd 4241 4fbd
00000070: e81d 07bc fe2e 02bd 6b33 81bd 3ff0 44bc
00000080: 59e7 8dbd c5ea 913c e386 ebbb ac82 043d
00000090: 23e9 ddbc 54fd 91bc 2a8d 37bd ccce 86bd
000000a0: 84b6 2ebc 5ee0 43bd 500d 25bd af98 8cbc
000000b0: 1b76 96bd f6f1 92bc 1f09 45bc addd 5fbc
000000c0: 5d7d 0f3d 2f74 f2ba 123c 40bd 0bff 88bc
000000d0: 651d 7ebd 1986 f3bc 9457 56bd bd64 5abd
000000e0: 1ae0 c9bc 7cc5 66bd 5c2b 8bbd bde1 68bb
000000f0: 5c69 463d d624 b5bd fe37 ef3c 9146 65bd
00000100: 92d6 43bd 1507 af3d 5d6e 993c 0f70 b5bd
00000110: c952 b53c 29a2 8bbb 8d1f 3fbd 2fde 38bd
00000120: dfa8 013d 49a8 2bbd 469b 57bc 47ba 5d3c
00000130: e1f0 02bd eec2 83bc fdc2 07bd b277 2b3d
00000140: bb69 7ebd c4f8 b43c 0b45 953c a19e 523d
00000150: 9fe5 7abd f26e 19bd 1c6f 323c c4d0 a2bc
00000160: a974 c7bb a74a 273c d266 6ebd 2337 f8bc
00000170: e005 153d c2cc b5bb 5244 293d 3c8e 45bd
00000180: 26d2 5cbc b6ad 6cbd 4344 dbbc 58b5 37bd
00000190: c47f 063d 6394 a9bb bdd0 05bc f596 843c
000001a0: 47f5 32bd bd83 2b3c cae1 18bc 2599 a6bd
000001b0: e9c6 dbbb f498 d0bc 65db 86bd 4c2a 4d3c
000001c0: 130e 2ebd eed6 33bd 3cb3 91bd 17d9 e4bd
000001d0: 6791 9ebc 5d72 41bd 0e4c 82bd 5e94 63bd
000001e0: bdfd 223d d5a0 acbc 5087 b63c efb9 213d
000001f0: c94f 83bd 0f56 033d 52e7 f4bc c011 9e3b
00000200: 4501 2e3d 7ef8 a1bd 0534 b8bb fd34 10bd
00000210: fae4 37bd acb3 2d3d 5968 a6bd 9aa1 29bd
00000220: 7731 023d d8f9 3e3d 71c3 233d fe6b 8abd
00000230: 207b b5bd 8469 95bd c902 2bbc 7908 ba3c
00000240: 3612 0e3a 6a1b a7bc f8bb 803d 6014 253d
00000250: 56ba 23bd dcd4 6ebd fd8a cfbb ca0f 02bc
00000260: f052 12bd bcaf 0a3d f1c0 743c 6d3f 1bbd
00000270: 169b 2e3c db70 a7ba fff1 9dbb 389d 90bc
00000280: 5184 0fbd b587 f0bc b080 1a3c cbc7 9cbd
00000290: fb60 293b 961f 05bd 2227 953c c257 123d
000002a0: 7e9f 6cbd 3404 053d 2a2d ca39 ca03 3bbc
000002b0: 1788 09bd 2f06 453b f988 cabc b7fc 82bc
000002c0: 3eb2 cbbb 323f 8d3b 5add 29bc 2c13 30ba
000002d0: 0e10 ef3c 3690 7d3b baed 50bc 85cd 3dbc
000002e0: d6e9 353d 73b0 aabd 528b 85bd 7854 c8bc
000002f0: 40b6 99bd 261d 89bd bbc2 4f3d b6ca 3abb
00000300: 5221 84bd 902c 68bd 5b49 82bc 0888 49bd
00000310: 9f6a 84bd 80fb 003c 5d1a 15bd 18ff ab3c
00000320: c1b0 60bd 2b77 e1bc 7f01 1cbd b445 32bd
00000330: e328 633c d4f1 843c 250d 083d 4f96 95bd
00000340: 527b 0d3d 39d0 723d c2ed 6abd 689f 093d
00000350: f3c7 0e3c f76f d63c 70d1 d7bd e858 ae3c
00000360: 9479 03bd 7b9c 903c 25a7 19bd 3827 aebd
00000370: 7d8a 89bd f143 51bb d178 b6bd c5f2 b63b
00000380: c156 aebc f0d8 c43b 7424 9fbc 06c8 173b
00000390: ce5c d4bc 1e6c 34bd 1e22 a63c bb74 f9bb
000003a0: 3aee 07bd cde6 52bd e3b5 10bb 51f4 c2bd
000003b0: e470 83bc 6be2 0f3d a314 74bd 1891 e63b
000003c0: 04b7 d0bc 2d26 6fbd 4232 b2bd 23a2 fc3c
000003d0: a378 2cbd 7efd c8bb 36d9 fbbc cb3f a0bc
000003e0: b2d5 69bd 9758 573d a192 82bd 3584 83bd
000003f0: 5b45 7fbc 8688 ecbc 5e12 87bd 80fb 34bd
-0.09165342 -0.07461893 -0.036995653 -0.09099443 0.006405958 -0.04642493 0.0057926965 -0.023109168
-0.01299895 -0.015602981 0.00277844 -0.032377563 -0.0730741 -0.020024713 -0.081364274 -0.053394236
-0.06797899 -0.038754627 -0.10212265 0.0069594434 0.034230724 0.0061016153 0.04950202 -0.007727977
-0.092279494 -0.032081466 -0.049168948 -0.050599344 -0.008246876 -0.031783096 -0.06308635 -0.01202017
-0.06928892 0.017812142 -0.0071877106 0.03235118 -0.027088707 -0.017820992 -0.04481236 -0.06582412
-0.010663632 -0.047821395 -0.0402959 -0.017162649 -0.073467456 -0.017937642 -0.0120261 -0.0136636915
0.035031665 -0.001849776 -0.046932288 -0.016723176 -0.06203975 -0.029727029 -0.052329615 -0.053318728
-0.024642993 -0.05634068 -0.067953795 -0.003553494 0.048440322 -0.088449165 0.029201504 -0.0559755
-0.047812052 0.08546273 0.018729383 -0.08859264 0.022134202 -0.0042612744 -0.04666095 -0.045133766
0.03165519 -0.041908536 -0.013159579 0.0135331815 -0.031968 -0.01608416 -0.03314494 0.041862197
-0.06211255 0.022091277 0.018221399 0.05142081 -0.06125414 -0.03745932 0.010890748 -0.019874938
-0.006086905 0.01021067 -0.058203526 -0.030299729 0.036382556 -0.0055480907 0.04132492 -0.04823135
-0.013477838 -0.05778285 -0.026765948 -0.044850677 0.03283669 -0.00517516 -0.008167443 0.016185263
-0.043690946 0.010468421 -0.009331176 -0.08134679 -0.0067070615 -0.025463559 -0.06584815 0.012522291
-0.04249389 -0.043906145 -0.07114264 -0.11174219 -0.019356443 -0.047228206 -0.063621625 -0.055561416
0.039792765 -0.021072784 0.022281319 0.03948396 -0.06411702 0.032064494 -0.029895458 0.0048238933
0.04248168 -0.07908724 -0.0056214356 -0.035206784 -0.044896103 0.042407677 -0.081253715 -0.04141388
0.031785455 0.04662499 0.03998131 -0.06758879 -0.08861375 -0.07295516 -0.010437676 0.022709118
0.0005419584 -0.020398814 0.06285852 0.040302634 -0.039972626 -0.058308467 -0.0063337074 -0.007938335
-0.035723627 0.033859 0.014938579 -0.037902284 0.010657093 -0.0012774722 -0.004820108 -0.017653093
-0.035038296 -0.029361585 0.009430096 -0.07655295 0.0025845158 -0.032500826 0.018207137 0.035728224
-0.05776929 0.03247471 0.00038562092 -0.011414478 -0.03357705 0.00300635 -0.024723517 -0.015989644
-0.0062163165 0.004310512 -0.010367716 -0.0006716724 0.02918246 0.0038690693 -0.012751991 -0.011584644
0.044412456 -0.08334436 -0.06520714 -0.02445434 -0.075054646 -0.06695013 0.05072282 -0.0028502173
-0.06451668 -0.056683123 -0.01590412 -0.049201995 -0.06465649 0.007872462 -0.036402095 0.020995662
-0.054856066 -0.027522644 -0.038087364 -0.043523505 0.013864729 0.016228594 0.03321566 -0.0730406
0.034541436 0.059280608 -0.05735565 0.033599287 0.008714664 0.026176436 -0.10537994 0.021282628
-0.032098368 0.01765274 -0.037512917 -0.08503574 -0.06715868 -0.0031931365 -0.08909763 0.0055831396
-0.021281602 0.0060073063 -0.019426562 0.0023159995 -0.025923159 -0.04404842 0.02027994 -0.0076127923
-0.033186175 -0.05148964 -0.002208107 -0.09519256 -0.016045041 0.03512804 -0.059589993 0.0070363395
-0.025477894 -0.058386017 -0.08700992 0.030839032 -0.042107236 -0.0061337342 -0.030743223 -0.019561669
-0.05708856 0.05257472 -0.063756235 -0.06421701 -0.0155805005 -0.028873693 -0.065953 -0.04418516

Linear2.bias f4 [256]
00000000: 3d64 91bd 1e7f a3be 3272 8ebe aae4 a73d
00000010: c039 4b3e 85b3 fbbd 6a19 743d 80c9 4fbe
00000020: 0019 adbd 3036 e2be 97bb acbe 4740 b7be
00000030: 46a1 60be 43a8 55be c725 8e3e 52c3 e4bb
00000040: ab43 13be 4b1d 1ebe ab0e 12be acb8 d2be
00000050: bfe1 bf3d cd6a 54be 133d c5bd caeb c3bd
00000060: 3da6 b8bd b64e 8ebe 0549 9dbd fb96 87bc
00000070: 7f19 d93d 9f05 c4bd b7e5 9fbe 686b 2d3d
00000080: 41a6 b6bd 1774 1bbe 16fa 84bd b568 10bd
00000090: e8f1 1bbe f5a0 8a3d 35fe a0bc 2f2e 19bd
000000a0: 5503 c4bd 460f 36be 3fbd c6bd 8ed3 adbd
000000b0: ee46 63bd 8f10 27be f1f0 b9bd 0f1a 05bf
000000c0: daf5 bfbd 31fa 17be 6aca d2bd 9be1 4cbd
000000d0: 171b bcbd da83 5cbd 637f 893e f128 bbbe
000000e0: dda3 38bd bfa5 96be 84a3 03be b034 05be
000000f0: edc8 c1bd 4f69 06be eff0 4abd 3298 70be
00000100: 46ed 00bf a2e9 363d 0e9f 53be d02a c83a
00000110: 4834 c9bc b14c 54bd e206 093e c442 97bd
00000120: e9aa 26be a98e 74be d904 87bd 4bda 9dbd
00000130: 2088 353c 2f7e f4bd 5a38 eabd cbf8 7abe
00000140: 40e3 ecbd 3720 10bd f6ea 9cbd f0bd f73d
00000150: 8ef8 6abc bfb0 42be 5c45 1fbe fbea 9ebe
00000160: f2e9 b1bc 1bdc 2cbd 6a09 84bd a848 f7bd
00000170: 47ae dabd 5723 b5bd f9bd 01bf 0fe7 213d
00000180: 7ed4 55be 6259 a5bd 1785 143e 6e07 9dbd
00000190: 45a7 57be a5c1 e3be 3e0c 2cbe 2ec0 a1bc
000001a0: 0ef9 92be bec7 0abf 3747 5e3e cacf 1bbe
000001b0: 7209 f8bd 47b8 d73c f919 88be c5ab fc3c
000001c0: 65da 9ebe 9edc c73c 385c 143e 8c43 ffbe
000001d0: 2c3e 13bd 5586 9ebd 37e4 a3be b09d 4dbe
000001e0: de24 cebd 3177 0f3c ed5e 9cbd 3243 843e
000001f0: c0f0 16be 1553 043e 54d3 dfbd 06fe 1fbe
00000200: 7a2e 99be 1d56 8dbc 4be1 acbe ee58 93bd
00000210: 610b e7bd eb28 4ebe 36e8 debc b888 d7bd
00000220: 7c4f 27bc 0694 38be 0614 5bbd 6f6e 88be
00000230: b85f 15bd 1150 d6bd 7332 8dbe 3bcd 71be
00000240: b4a6 003d a660 08be 46fa 76be 1add e33c
00000250: c2e5 77be 5679 923d 2d38 dabc e5fd e03d
00000260: 8763 afbd 5b78 bfbe 4cc4 66bd 8f8b 9dbd
00000270: 1a83 5bbe 1c6d 0dbf 007b e1bd 69dc 8f3e
00000280: 3360 95be aed0 abbd b80c d6bd 0261 b03e
00000290: 980d acbd 9b9b 62be 54a3 05bd f510 5a3d
000002a0: 6a27 9bbd 9fdc a3bd 8d39 f2bd 7ebc e8bd
000002b0: f204 d6bd d0b7 d9bd be25 7fbe 6de8 06be
000002c0: 4a89 9cbe b920 e8bd cb7e f5bd fbef 70be
000002d0: eccb afbd ac80 0e3d df9e 92bc 1f81 7abd
000002e0: 1176 debe f2d5 0ebe bafb 15be d9b8 9cbd
000002f0: 4f02 21be 0a1c 6a3d eb80 8fbe ec1c 7abd
00000300: c896 f3bd f9b5 96be a5af 41bd 9ca6 20be
00000310: 1069 e5bd 69be b63e adf2 1dbe 08bf 2c3e
00000320: 0ee4 90bd 556b e8bd d701 d6bc 1884 3dbe
00000330: fb2e 0dbe 3666 ffbd 9cb4 863e 99aa f0be
00000340: 4112 b2bc 1fb0 f7be e483 dfbd dc95 38be
00000350: 1a17 80bd c58f 9fbe 9295 87bd 387e 43be
00000360: 0091 f1bd ef57 203e 7e4b f7bd cefc a2bd
00000370: 6ebf 2a3e 331b 03be dd8d a2be 1166 21bf
00000380: ed31 853b 9066 a3bd 9f56 edbd 046b 4fbe
00000390: c585 dfbd 638b 7d3e 10ee 9d3d 4253 8cbd
000003a0: da39 2ebc 5b54 b5bd 18f8 fabd 831d 3abe
000003b0: 8694 30bd 5da0 b0bd a2ee 913d 81e5 febd
000003c0: b330 be3d 0afd c63d 42bd b9bd 3dce 01bf
000003d0: 5309 33bd d284 7dbe 38d4 37be 0422 6bbe
000003e0: 46c5 a1bc 85dd 0fbf b4b8 5bbe e77c 3bbd
000003f0: 21cb bcbd 7a01 b3be e138 13be da0a 4abe
-0.07099197 -0.3193292 -0.278215 0.08197911 0.19846249 -0.122901 0.05959455 -0.2029171
-0.08452034 -0.44181967 -0.3373687 -0.35791227 -0.21936521 -0.20864968 0.27763197 -0.006981292
-0.14381282 -0.15440862 -0.14263408 -0.41156518 0.093692295 -0.20743866 -0.096307896 -0.095664576
-0.090160824 -0.27794427 -0.07679943 -0.016551485 0.10600566 -0.09571385 -0.31229946 0.04233876
-0.08918429 -0.15181004 -0.064930126 -0.035256106 -0.15228999 0.06768981 -0.019652465 -0.03739756
-0.09570948 -0.17779264 -0.097040646 -0.084876165 -0.055487566 -0.1631491 -0.09079159 -0.5199289
-0.09373064 -0.14841534 -0.10292514 -0.05001984 -0.091848545 -0.05383668 0.26855 -0.36554673
-0.045078147 -0.2942333 -0.12855345 -0.1300838 -0.09462152 -0.1312611 -0.04954618 -0.23495558
-0.5036205 0.044656403 -0.20666143 0.0015271548 -0.024561062 -0.05183095 0.13381532 -0.073857814
-0.16276135 -0.23882546 -0.065927215 -0.07707652 0.011079818 -0.1193813 -0.114365295 -0.2450897
-0.11566782 -0.035186972 -0.07662003 0.120967746 -0.014341487 -0.19012736 -0.15553802 -0.3103865
-0.021718 -0.042202096 -0.06447108 -0.12074405 -0.10677772 -0.08844631 -0.506805 0.039526995
-0.2088184 -0.08073689 0.14503895 -0.07667433 -0.21059902 -0.44483677 -0.16801545 -0.019744959
-0.2870564 -0.5421103 0.21706854 -0.15215984 -0.121111766 0.026332987 -0.26582316 0.030843625
-0.31025997 0.02439719 0.14488304 -0.49856222 -0.035947964 -0.077404656 -0.32010052 -0.20079684
-0.100656256 0.008756445 -0.07635293 0.25832516 -0.14740276 0.12922318 -0.109289795 -0.15624246
-0.2991827 -0.017252976 -0.33765635 -0.07194696 -0.11281467 -0.20132796 -0.027210336 -0.10524124
-0.010211822 -0.18025216 -0.053485893 -0.26646754 -0.036468238 -0.1046449 -0.27577552 -0.23613445
0.03140898 -0.13318118 -0.24118909 0.02781539 -0.2420874 0.07152049 -0.026638115 0.109859265
-0.08563905 -0.3739651 -0.056339547 -0.07692634 -0.2143673 -0.5524461 -0.110097885 0.28097847
-0.29174957 -0.08389412 -0.10451645 0.3444901 -0.0840103 -0.22129671 -0.032626465 0.053238828
-0.07575877 -0.080010645 -0.11827383 -0.11364077 -0.10450162 -0.106307626 -0.24916741 -0.13174601
-0.30573493 -0.11334366 -0.119870745 -0.23529045 -0.08583817 0.03479068 -0.017898021 -0.061158296
-0.43449453 -0.13948801 -0.14646807 -0.076524444 -0.15723537 0.057155646 -0.28028044 -0.06106274
-0.118939936 -0.2943571 -0.04728665 -0.15688556 -0.1120168 0.35692146 -0.15424605 0.16869748
-0.07074748 -0.11348597 -0.026123924 -0.18507421 -0.13787453 -0.12470667 0.2630967 -0.47005156
-0.02173722 -0.48376557 -0.10913828 -0.18025917 -0.06254406 -0.31164375 -0.06620325 -0.19091117
-0.11795235 0.15658544 -0.12074946 -0.07958375 0.16674587 -0.12803344 -0.31748858 -0.63046366
0.0040647895 -0.079785466 -0.11588787 -0.20255667 -0.109141864 0.24760203 0.077114224 -0.06851818
-0.01063391 -0.0885398 -0.122543514 -0.1817532 -0.043110393 -0.08624337 0.07125594 -0.12446118
0.092866324 0.09716232 -0.09069301 -0.5070532 -0.043710064 -0.24757698 -0.17952049 -0.22962195
-0.019747388 -0.56197387 -0.21457177 -0.045773413 -0.09218431 -0.34962064 -0.14377166 -0.19730702

Linear3.weight f4 [256, 256]
00000000: f070 79bc 7700 b2bd 651b 5ebb d2e8 eebd
00000010: c3a4 a4be 9fa8 f2bd 1e8e 63bd 2134 3cbd
00000020: 2f41 84bd b1dc c73d a283 efbc bd04 28be
00000030: e0e5 5cbe fa3a a5bd 8bc0 e8be 5f8f 50bc
00000040: 0dc0 8a3d a2be a5bd 80e5 b93d bb78 1abe
00000050: a2c3 89be 266c 08bd e0d0 5bbd 17c5 1a3b
00000060: efc8 65bc c642 2f3d 9b0c 94bc 6221 cebc
00000070: d7f9 583b e337 99be 2d29 2bbe 915c 80be
00000080: 9d1a 00bf 4637 2dbe 6f61 14be df24 9dbd
00000090: 2f20 f0bd f8b7 d0bd 1a2a 81bd d5da 86bd
000000a0: 877a 0fbd ebc0 763d f950 bdbd 95ad dcbd
000000b0: 8233 85bc fb9e 42bd 5884 c5bc d402 efbd
000000c0: 1a26 14bd f806 fdbc ea37 eabd 3ae3 05bd
000000d0: a469 83be f06b 9bbd 6d34 10be b239 da3d
000000e0: 12ce 6fbe a5b7 04bb 04f5 883c b148 88bc
000000f0: f9d1 93bd 32f2 bbbd ed71 4abd 4a4a 19be
00000100: d7e4 c4bd a52e 22be f6b1 0cbd 9033 253d
00000110: 901b 16bd 396e 103e 57ad 0bbe 556d 163a
00000120: 2149 aa3d 5fc2 dbbd 5941 23bd 0c18 90bd
00000130: be0b 64bd 2bd5 07bd 6f73 853b 0e8b 6dbd
00000140: 2299 4abc 41a7 66bd eae6 a23e bc49 923e
00000150: 9a05 73bd 438e c13c 15b5 c2bd 3141 6dbc
00000160: 3e9f 9e3c f498 4a3d d559 9ebc 4522 3f3d
00000170: bfcf 8b3d 4354 773a e9f7 dbbc 382e 82bc
00000180: 4773 09bd 4f3e 2dbd 7d17 58be 8b33 b5bb
00000190: fc0e 613d 7347 303b c068 2c3e 1e52 05be
000001a0: 4f5b 39bd 5c5c 21bd bb3d da3d 04a5 71bd
000001b0: beee 07bd b739 60bd 8a53 32bd ec71 08be
000001c0: b3ce 16be ff2c f5bd 0ef3 94be bccc b73d
000001d0: 3257 3abd 1821 2cbe 5dec 71bd 0688 adbc
000001e0: 52d2 00bd e4d0 b3bc efbc 7e3c 8ea7 a5bd
000001f0: e48d 7ebd 541f d1bd becd 7c3d 6774 f03d
00000200: 56d1 24be 0ede 133b b86b a5bc c012 763c
00000210: 2605 48bd d54f 543d 2da7 2a3d e0ea debc
00000220: 6805 6dbd 5fa2 fb3c e820 ca3c 1c95 63bd
00000230: f759 0a3d 4f3b 87bc 8af8 773e a7eb bbbd
00000240: b1a6 cebe ed5f a33c e9bc 98be d503 0cbd
00000250: 293d 2abe 9bf1 173d 4e57 cd3c c73b 2dbd
00000260: b65d d0bc 7445 903d e9a3 463d 0465 663c
00000270: 7ef7 9e3d f998 f6be 3d86 11be 7445 90bc
00000280: fb5b 30be ffcb 243d a816 52bc 464d 9abe
00000290: a176 84bc 0dfb 78bd 3324 c5bc ca4a b73d
000002a0: ca7e 5fbd f183 29bd 061f 8ebc 1e61 4bbe
000002b0: 9734 01bc d944 07bb 0784 e2bc 6a0d 963d
000002c0: 4a62 3fbe f7a4 6e3e 1cf4 883c cb29 863e
000002d0: 8c5f 4ebd d727 65be 645f dd3c e1d1 afbc
000002e0: 4bd8 4dbd 1125 673a 7d51 283d ab72 443c
000002f0: d49d 513b 8cb0 90bd ba1e 22be 3ee4 06be
00000300: a1f7 79bd 4bb1 af3d 9960 b23d 2807 b3bc
00000310: 0123 53be 5bda 90bd cf03 d5bd 84fd a4be
00000320: 9372 b0bc 1916 f63d 01cc 79bd c509 39be
00000330: d8b8 18bd f035 353e 3065 b63c dd95 3ebd
00000340: c7eb 22bd 42ab af3c f8f2 02bd 0ff8 a03c
00000350: f8ae 87bc f0fa 17bd 0a70 3e3d 74b2 d43c
00000360: 61e1 113d 3dd8 05bf a70f 15bd 5373 dabc
00000370: 5464 f8bc fda7 82bd 757a debe e324 76be
00000380: 4477 1bbe 260c e2bc c49b 27ba 6312 dc3c
00000390: 7bea f3bc 1d4a 5ebc 4d4b 11bc f25b c53b
000003a0: bf33 e23c 8b3d 1ebb 9edd 103d 47e0 a53d
000003b0: 4240 8cbc ef31 ec3c 4655 c9be 9041 8fbc
000003c0: f08d 9abd 00e2 76be ee4d e7bb dd43 453c
000003d0: bed3 27be 4001 c2bd 29c5 0ebe 697d aabe
000003e0: f763 56bd dcf1 b33d 9d75 53be 5a3b 423d
000003f0: f74f ff3b 281c 8ebd efa1 093c fb7c 0abf
-0.01522468 -0.08691495 -0.003389084 -0.11665501 -0.32156953 -0.11848568 -0.055555455 -0.04594815
-0.06457745 0.097588904 -0.029237572 -0.16408058 -0.21572065 -0.080678895 -0.454594 -0.012729495
0.06774912 -0.08093001 0.09076977 -0.15085118 -0.26907068 -0.033306263 -0.053665996 0.002361601
-0.014024957 0.04278829 -0.018072417 -0.025162403 0.00331079 -0.2992545 -0.16714926 -0.25070623
-0.5004061 -0.16915616 -0.14490293 -0.07673048 -0.117248885 -0.10191339 -0.06306858 -0.06584708
-0.03502896 0.060242575 -0.0924396 -0.10775296 -0.016259912 -0.047514897 -0.024110958 -0.11670461
-0.03616915 -0.030887112 -0.11436446 -0.032687403 -0.25666535 -0.07588947 -0.14082499 0.10655536
-0.23418453 -0.0020251062 0.016718395 -0.016636224 -0.072177835 -0.091770545 -0.049425054 -0.14969745
-0.0961396 -0.15838106 -0.034349404 0.040332377 -0.03664738 0.14104547 -0.13640343 0.00057383376
0.083147295 -0.10730433 -0.039857242 -0.070358366 -0.05567526 -0.033162277 0.0040725986 -0.05799394
-0.012365611 -0.05631185 0.31816798 0.2857188 -0.059331514 0.023627406 -0.09507195 -0.014480875
0.019363042 0.049462274 -0.019329945 0.04666354 0.06826734 0.0009434858 -0.026851611 -0.01589118
-0.033557203 -0.04229575 -0.2110271 -0.005529826 0.05494593 0.0026898056 0.16836834 -0.13019606
-0.045253094 -0.03939472 0.106563054 -0.05899526 -0.033186667 -0.05474254 -0.0435367 -0.13324708
-0.14727287 -0.11971473 -0.29091686 0.08974597 -0.045493312 -0.168095 -0.059063304 -0.021183025
-0.031450577 -0.021950193 0.015547975 -0.08088599 -0.062147036 -0.102110535 0.06171965 0.11740952
-0.1609548 0.0022562775 -0.020192966 0.015019119 -0.048833035 0.051833946 0.041663337 -0.027211607
-0.057866484 0.030717073 0.024673894 -0.055562124 0.033777203 -0.016507773 0.24215904 -0.091758065
-0.4036155 0.019943202 -0.29831627 -0.034183342 -0.16624893 0.037095647 0.025066044 -0.042293336
-0.02543531 0.07044497 0.04849616 0.01406217 0.07762049 -0.48163584 -0.14211364 -0.017611243
-0.17222588 0.04023361 -0.0128227845 -0.3013708 -0.016169848 -0.060786296 -0.024065113 0.08949812
-0.054564275 -0.041385595 -0.017348778 -0.19861266 -0.007886074 -0.0020640402 -0.027650846 0.07326777
-0.18689838 0.23305117 0.016717963 0.2620376 -0.05038409 -0.22378479 0.027023025 -0.021462383
-0.0502551 0.0008817474 0.04109334 0.01199023 0.0031984942 -0.07064924 -0.15832034 -0.13173005
-0.061027173 0.08578738 0.08709831 -0.021853998 -0.20618822 -0.07072898 -0.10401117 -0.32224667
-0.021539008 0.120159335 -0.06098557 -0.18070133 -0.037285656 0.17696357 0.022265047 -0.04652964
-0.039775636 0.021443967 -0.031969994 0.019649534 -0.016562924 -0.037104547 0.046493568 0.025964
0.03561533 -0.5228308 -0.03639188 -0.026666319 -0.030321278 -0.063796975 -0.43452802 -0.24037509
-0.15182215 -0.027593683 -0.00063937553 0.026864236 -0.029774895 -0.013567475 -0.008868051 0.0060229236
0.027612565 -0.002414557 0.0353676 0.08099418 -0.017120484 0.028832404 -0.3932287 -0.017487317
-0.07546604 -0.2410965 -0.0070588505 0.012040106 -0.16389367 -0.09472895 -0.13942398 -0.33298805
-0.052341428 0.087863654 -0.20650335 0.047419883 0.007791515 -0.06938964 0.008400424 -0.54096955

Linear3.bias f4 [256]
00000000: d800 70be 34c3 8abe 7641 f63d 7488 9abe
00000010: 3eee 84be bbd6 a1be 8b1b a6be de0d cf3d
00000020: 4038 b5be a639 88be 2a6c 70be a1a6 94be
00000030: 8041 a8be 3d14 18be 8399 96be 0f3e aa3e
00000040: 88cb 8c3e ee9c 15bd e280 c2be ca7f bdbe
00000050: 5da4 c3be 81b7 ddbe 51dc 6ebe 51ea 84be
00000060: f0bb 82be 57da cdbd 4298 bf3d db04 8f3e
00000070: 956c d9be 9db2 84be 6a58 de3d bd1e debd
00000080: dff0 1bbf 37d1 8dbe 29a4 79be 9dc3 25bf
00000090: 9c1f 45be 6515 a9be df82 2ebf 34e9 a6bd
000000a0: e407 e1be 8a05 0dbe dfdc 99be 50ea f9be
000000b0: f7d3 b1be 9003 4b3e f483 88be 95d6 b8bd
000000c0: 7d93 2abe a31e 0dbf a4b2 6abd 1cab 59be
000000d0: e725 cebe 394a c4be 2a0a cbbd a4db b2be
000000e0: de5a 04bd 642c 22bf 9f52 8abe 7f93 bfbe
000000f0: e9ed f53e e850 12be d17b 31be a16c ac3d
00000100: f180 08be 14c6 9abe d556 363e f947 d8be
00000110: 23a2 1ebf d682 07bf a40e 05bf b21b a8be
00000120: ab0a d4bd e910 bfbe c772 a5be 19a2 843d
00000130: 7c7d 1fbe e8fe f1bd b1ef cebe 13e5 cfbe
00000140: 9b11 ad3c 2f4b 4fbe 79f0 e4be a2f3 a9be
00000150: f72e c7bd 7316 b03b 47ca 63be 4957 a7be
00000160: 66d5 b2be da2e 58be d212 90be 1d51 70be
00000170: 1b7c eabe d498 c9bd b7e8 97be 5575 0cbb
00000180: 63ce 42bf 214f 0ebf a944 10bf e0cb 9abe
00000190: 06f8 e2be bad8 783e deb4 04bf de04 e03d
000001a0: 97dc c3be 5ceb 73be 96c3 10be a99d 8dbe
000001b0: c342 a6be cc7f febe 937f a7be a382 b2bd
000001c0: 3906 aebe 369e 46bd 8a99 ebbe cb4b ffbe
000001d0: 0bb0 d4be 510b 443e bf21 8abd 5113 013d
000001e0: 27bd 91be 6a4f adbe 2cac e7be e017 3cbe
000001f0: 320d cdbe 0729 bcbd 26c5 ebbe c3bd e6be
00000200: 098a 72be 55b3 6ebe 500f 783c 98c6 d5bd
00000210: 9a90 a1be 3e5a 3ebe f060 f8be a0f7 e4be
00000220: b18e 613d d6db b5be 052d e2be 41af 22be
00000230: 6fa4 40be 7e07 4fbe 68fe bfbd 1525 063e
00000240: a1de 2cbe 391b 83be 8037 97be d8f5 86be
00000250: c9a3 393d aa04 9dbe d6e6 7fbe 7642 f4bd
00000260: 20d1 a93e 242d 82be e92b c2bc 3f5e d9be
00000270: 5ce1 fe3d 95de 9dbe 9481 1bbf 9b48 9bbe
00000280: 1851 31bf 639d bfbe dd72 f03d b9e9 f6be
00000290: 67dd 14be 5d6b cebd ef26 99be 85af bcbe
000002a0: db98 2fbe b59c ddbd 6e31 0ebf f9d2 8a3d
000002b0: 31ae 46be a5fc 4cbe 5cdf 8ebe 7acc d6bd
000002c0: fb48 13be e941 04bd e897 6fbe 2e3a dfbe
000002d0: 0601 1fbf a01c d7be 8e01 e1be dcde 09bf
000002e0: 19a9 13bf 1576 cdbe b495 a4bd 49d5 99bd
000002f0: 3911 fabe 9b5b f93c dfb1 9abe b36e 9fbd
00000300: 0632 12bf cbea b1be 9b2a 813a 7e1d 0bbe
00000310: 6bf1 a4be 157e 91be 9811 5ebf 2683 b7be
00000320: c59d 13be 525a 07bd ce41 70be 9778 a5be
00000330: e157 c4be b06f c1bd 5c4c a8be 3866 63be
00000340: 525d 87be d760 50be b50a 42be 53bb 85be
00000350: 64f1 8cbe 7dd5 6abe 0ae8 70be d1b8 00bf
00000360: 1905 debe f757 133e 25b0 e9be ce5b 9dbe
00000370: 3c90 f3bd e0cf 86be a1e8 5abe 8554 d7be
00000380: af32 23be 2dac e2be cef5 d3be 8534 06bd
00000390: 35f8 ccbe eb10 c3be b546 a5be c972 b8bd
000003a0: 80ae 673d bd6d 34be 0371 8dbe 3d3d 48be
000003b0: c401 cc3d cc71 b6be c4bc ebbe fb97 0abf
000003c0: c657 32be 8f11 51be 5974 45be 3575 e5be
000003d0: c989 34bd 08d6 ad3b d014 9b3d 9e5a 0cbf
000003e0: ab4f 34be f77f 43bf ed16 a4bd 7a31 d3be
000003f0: 9455 aabd 58eb c9be b9bb d8be 7872 c0be
-0.23437822 -0.27102053 0.120242044 -0.3018223 -0.25963014 -0.3160914 -0.3244289 0.10110067
-0.35394478 -0.26606482 -0.23478761 -0.29033378 -0.32862473 -0.1485147 -0.29413995 0.33250472
0.27499032 -0.036526613 -0.37988955 -0.37011558 -0.38211337 -0.43304065 -0.23326232 -0.2596002
-0.2553401 -0.10051411 0.09355213 0.27933392 -0.42465654 -0.2591752 0.108567074 -0.108457066
-0.60914415 -0.2769868 -0.24379028 -0.6475161 -0.1925034 -0.33024135 -0.68168443 -0.08149949
-0.43951333 -0.13771644 -0.30051324 -0.4881158 -0.3473203 0.19825578 -0.26663172 -0.09025303
-0.16657825 -0.5512487 -0.05729927 -0.2125668 -0.40263292 -0.38337877 -0.09914048 -0.34933197
-0.03231322 -0.63348985 -0.2701616 -0.37417218 0.48033074 -0.14288676 -0.17332388 0.08419157
-0.13330437 -0.30229247 0.17806561 -0.4224241 -0.6196615 -0.52934015 -0.51975465 -0.3283363
-0.10353597 -0.3731759 -0.3231413 0.0647623 -0.15575212 -0.11816198 -0.40417245 -0.40604457
0.021126559 -0.20243524 -0.44714716 -0.3319369 -0.09725755 0.00537377 -0.22245131 -0.3268378
-0.34928435 -0.21111622 -0.2813936 -0.23468442 -0.4579781 -0.09843603 -0.29669735 -0.002143224
-0.7609617 -0.5558949 -0.5635477 -0.3023367 -0.44329852 0.24301425 -0.5183848 0.10938428
-0.38254234 -0.23820251 -0.1413711 -0.27659348 -0.3247281 -0.49706876 -0.3271452 -0.08716323
-0.33989123 -0.048490725 -0.46015579 -0.49862513 -0.4154056 0.19144942 -0.06744718 0.031512562
-0.28464624 -0.3384965 -0.45248544 -0.18368483 -0.4004913 -0.09187513 -0.4604885 -0.45066652
-0.23685469 -0.23310597 0.01514037 -0.104382694 -0.31555635 -0.18589112 -0.48511457 -0.44720173
0.05506772 -0.35519284 -0.44174972 -0.15887167 -0.18812726 -0.20217702 -0.09374696 0.13100083
-0.16881801 -0.25606707 -0.2953453 -0.2635944 0.045322213 -0.3066762 -0.249904 -0.11926739
0.33167362 -0.25425065 -0.023702579 -0.42454717 0.12445328 -0.3083388 -0.60744596 -0.3032883
-0.69264364 -0.37424764 0.117406584 -0.4822519 -0.14537583 -0.10079072 -0.29912516 -0.3685266
-0.17148153 -0.10820905 -0.55544174 0.06778521 -0.19402386 -0.20018251 -0.27904785 -0.104882196
-0.14383309 -0.03228942 -0.23397791 -0.43599075 -0.62110937 -0.42014027 -0.439465 -0.5385568
-0.576799 -0.40129152 -0.08036366 -0.07511384 -0.48841265 0.030439189 -0.3021383 -0.07784786
-0.5710758 -0.34749445 0.0009854616 -0.13585469 -0.32215437 -0.28416505 -0.86745596 -0.35842246
-0.14415653 -0.03304512 -0.23462602 -0.32318565 -0.38348296 -0.09445131 -0.32870758 -0.22206962
-0.26438385 -0.20349441 -0.18949397 -0.2611948 -0.27527916 -0.22933002 -0.23526016 -0.5028201
-0.43363264 0.14389025 -0.456422 -0.30734104 -0.11892745 -0.2633047 -0.21377803 -0.4205667
-0.15937303 -0.44271985 -0.41398472 -0.03276493 -0.40033117 -0.38098845 -0.32280508 -0.090062685
0.0565629 -0.17619987 -0.27625284 -0.1955461 0.09961274 -0.35633695 -0.46042454 -0.54138154
-0.17416295 -0.20416854 -0.19282664 -0.44815984 -0.044076715 0.0053050555 0.07572329 -0.5482577
-0.17608516 -0.76367134 -0.08012185 -0.41248685 -0.08317104 -0.39437366 -0.4233072 -0.37587333

Linear4.weight f4 [7, 256]
00000000: 155b 17bb 54ba 2d3e a38e 1ebe 504e b6bb
00000010: a147 8c3b 9175 b6bd 9a91 9dbb c94a 9dbd
00000020: b9e9 023d e46d 403c 81e1 9ebb 7aa1 5b3e
00000030: 99d3 60bb e45c 5bbd 70b9 943c b220 0ebe
00000040: 5d72 85bc 5b9e 693d 15e3 cc3d 3714 243d
00000050: cf8a 33ba 8501 de3d ccce d7bd fe1f 043b
00000060: 28e5 1abc 229a a03c 06e2 b4bd 336a 2abc
00000070: 9402 883d 9e29 67bc a840 183d 2917 ae3d
00000080: 1dd5 a7bd c0bb 1cbe b1ee 74bd 4791 44be
00000090: cb49 c73c d555 38be e184 6f3e d592 8cbc
000000a0: c344 06be 38d4 06bb 7803 f23d 62c8 283e
000000b0: cfc1 22be a344 3cbd d27e 9a3e 2d8b 0ebc
000000c0: c310 293a f1c8 e4bd 88a7 c9bc a03a 13bd
000000d0: 2adf d03c 3418 dc3d 17f8 b43d 189e d73c
000000e0: 5a95 0fbd 7ae4 533c b997 00be 4462 0c3d
000000f0: 4fc2 d0bc 1885 34bd 309a ef3c d3cf 9abd
00000100: 0205 b73c f87e 9c3c 6596 debd a350 14bc
00000110: cc38 dc3d b39e 83bd f1e7 fabb 4681 b6bd
00000120: 55cf b3bc 64fc 483d ac42 90bc 109b 01be
00000130: af75 58bd 9abb 053d dd6d 183d 68e5 843d
00000140: 4514 5bbc b413 8abd 1307 8fbe a0ad 143e
00000150: f80e d53d a46b 6bbd 86e2 903d f542 ea3c
00000160: 4c27 2abe 13c3 98bc fdae fe3e 8516 87bd
00000170: 9edf 1f3e 544f b1bd 9937 0a3e c0db b43d
00000180: e04f d4bd 5b98 6abd 40d7 22be 5364 ee3d
00000190: 9598 8c3d 4273 93bc 586f 613d ffe6 913d
000001a0: 4e46 46be 28e8 bcbc 3e9b 983c 62da 2f3e
000001b0: 3637 dbba 9e17 cfbd eb51 a03c 293c aa3d
000001c0: f905 41bd ca00 b93d cac1 b53b ade2 79bb
000001d0: 87ea 073e 796a be3c 5bf1 92bc f5d7 debc
000001e0: c010 81bc 25c5 a43c 14b4 a4bd ad77 8ebc
000001f0: cd78 563d 5717 eebd 3fe0 77be ead3 8c3d
00000200: 9300 04bd 39a1 b5be 5e1b f7bc d388 d0bc
00000210: f664 073d efb5 7abb ab95 393c f385 c93d
00000220: 0251 c43c 2936 bebd 1505 f83d de56 d43d
00000230: 88d0 21bd 652a 903d fe19 0fbd 66e8 e13d
00000240: 2cae 3fbd a55c 6ebd d50c f63c a42d 983c
00000250: 9a9c 633c c636 ff3c 1df4 ac3c 423b d63d
00000260: 87a1 5cbd 9484 dd3d 8179 f93c b7f4 cb3d
00000270: 46fc bf3c 23ce 843d fb4d c03c 09cd 04be
00000280: 3f48 9abe 4977 cd3d 8d59 cabc 1773 25bd
00000290: 2e1d 5b3d 0156 99bd a22f 10bd 3944 d53c
000002a0: b276 aabc b9f4 ff3b 5f5b 24bb 935a 153d
000002b0: 64b0 1bbe 492c 5c3d 13f5 b2bc 77cb d53c
000002c0: a6fb 1ebd 902a 1e3d c95f 3bbd 9fd4 a83d
000002d0: 0cdd a1bd fbdb 0abd 15cd 22bd 8e60 f4bd
000002e0: ee52 7cbd 07b4 2c3e e8dc 0cbd b1d3 a63d
000002f0: b09e eabd 7fab f43a 2e12 6bbd 8536 073d
00000300: 05a0 683f 8ed6 e43d 3b6e 90bc a3e0 a03c
00000310: 0b83 163d 32e8 c3be 9eb2 223e 9626 b5bc
00000320: ae51 18be fd23 493d f810 29bd dfd9 b03d
00000330: 2325 673b d3bf 0dbd 3f3e 243d 3a18 013e
00000340: d984 8cbd 3316 853d a762 bcbc 64c8 d53d
00000350: 5822 a5bd e832 f6bc a02b 3e3e 074a a9bc
00000360: 26d6 a73d 5341 f6bb d9b3 0f3e 8af0 97bd
00000370: f445 cfbd eb44 ac3d 7066 493e 6c6c ba3d
00000380: 0436 b93a 4a29 143d e188 efbc fcaf 7e3b
00000390: c4a3 ff3d 12a3 033e 554a 8a3d 937d 88bc
000003a0: 2064 5c3c 9829 e7ba 1bca 113d fd9a ce3c
000003b0: 23e2 a63c 4e88 b4bb 1b0d 2abc 5d07 c53d
000003c0: 9238 303c acff d5bd be21 ca3d b921 d9bd
000003d0: e225 5d3c d6bb 4abd 8858 713c fe72 393e
000003e0: 12ec e23c 7ee1 0bbd e9f9 943d b7e6 b23b
000003f0: 897b 0cbf a312 8abd b778 a5be 29e8 3d3d
-0.002309506 0.1696561 -0.15484099 -0.005563535 0.004281 -0.08909143 -0.004808617 -0.0768028
0.031961177 0.01174495 -0.0048486595 0.21448317 -0.003430581 -0.053555384 0.01815483 -0.1387966
-0.016289884 0.057035785 0.1000425 0.04005834 -0.0006848992 0.108401336 -0.1053749 0.002016067
-0.009454049 0.019604746 -0.08832173 -0.010401296 0.06641117 -0.014109043 0.037171036 0.08500511
-0.08194945 -0.15305996 -0.059797946 -0.19196044 0.02432718 -0.18001492 0.23390533 -0.017159859
-0.13112168 -0.002057327 0.11817068 0.1648269 -0.15894245 -0.045963895 0.3017488 -0.008700174
0.0006449336 -0.11171139 -0.024616018 -0.03594458 0.025497038 0.10746804 0.08836382 0.026320502
-0.035054542 0.012932891 -0.12557878 0.0342734 -0.025483279 -0.04407224 0.029248327 -0.075591706
0.022341255 0.019103512 -0.10868529 -0.009052428 0.10753021 -0.06426754 -0.007657044 -0.08911376
-0.02194945 0.049068823 -0.017609917 -0.12656808 -0.052846607 0.032649614 0.03721415 0.06489068
-0.013371532 -0.06742039 -0.27935085 0.14519358 0.10403246 -0.0574757 0.07074456 0.02859638
-0.16616553 -0.018647706 0.4974288 -0.06596092 0.15612647 -0.08657709 0.13497771 0.088309765
-0.103667974 -0.057274204 -0.15902424 0.11640229 0.0686504 -0.017999295 0.055037826 0.07124137
-0.19362757 -0.02305992 0.018628713 0.1717315 -0.0016724828 -0.101119265 0.019570312 0.08312256
-0.047124837 0.090333536 0.005546783 -0.0038129494 0.13273059 0.02324413 -0.017937353 -0.027202586
-0.015755057 0.020113537 -0.0804216 -0.01739105 0.0523613 -0.116255455 -0.24206637 0.06876357
-0.03222711 -0.35474566 -0.030164417 -0.025455868 0.03305527 -0.0038255414 0.0113271875 0.09840002
0.023964409 -0.09287674 0.12110344 0.10368131 -0.03950551 0.07039336 -0.034936897 0.110306546
-0.046796963 -0.05819382 0.030035416 0.01857645 0.013892317 0.031154048 0.021112496 0.10460521
-0.053864982 0.10816303 0.030453445 0.09958785 0.023435723 0.0648463 0.023474684 -0.1296884
-0.30133244 0.100325175 -0.024700904 -0.04039296 0.053494625 -0.07487107 -0.035201676 0.026033508
-0.020808551 0.0078111556 -0.0025078875 0.03646333 -0.15204006 0.05375317 -0.021845376 0.026097996
-0.03881421 0.03861481 -0.045745645 0.08243679 -0.079034895 -0.033901196 -0.039746363 -0.11932479
-0.061602525 0.1686555 -0.03439036 0.08145846 -0.114560485 0.0018666832 -0.057390384 0.03301098
0.9086917 0.111737356 -0.017630687 0.019638365 0.036746066 -0.38263088 0.1588845 -0.022113126
-0.14874908 0.049106587 -0.04127595 0.086353056 0.0035269938 -0.034606766 0.040098425 0.12606898
-0.06861276 0.06498375 -0.02299626 0.10438612 -0.08063191 -0.03005357 0.18571329 -0.020665182
0.081951424 -0.0075151115 0.1403345 -0.07418926 -0.101207644 0.084115826 0.19667983 0.09102711
0.0014130478 0.03617219 -0.029240074 0.003886222 0.12482408 0.12855175 0.06752459 -0.016661441
0.013451606 -0.0017636297 0.035593133 0.025220389 0.020371502 -0.005509413 -0.010379101 0.09620545
0.010755675 -0.10449156 0.09869717 -0.10602135 0.0134978015 -0.04949554 0.01473058 0.18110272
0.027700458 -0.034150593 0.07274229 0.0054596323 -0.54876 -0.06741836 -0.3231866 0.046363983

Linear4.bias f4 [7]
00000000: f577 1bbd 14bd 2c3e 4f7a 4abb 58d1 65bb
00000010: f458 d3bd 65c1 993e 2cd0 babd
-0.037956197 0.16869003 -0.0030895656 -0.0035067406 -0.10319701 0.3003036 -0.09121737
